checkpoint_2ndActor.pth (torch_old, 191963 bytes, 18 tensors)

fc1.weight f4 [256, 48]
00000000: fd59 3ebe 216e 80bc ed43 03be a13f 8d3d
00000010: ab70 c5bd 3d6f e2bc 1f2d fcbd 8d7f fa3d
00000020: fc90 5b3d dd73 493e ea2b dfbc d12f 1ebd
00000030: 1afe 81be 7ccb db3d c1a3 0d3d ca71 553d
00000040: 8a9c f13d ba65 d33c 14eb d43e dc3f 69be
00000050: f84e 52be 4d0b 3d3f f2a8 e83e b776 21be
00000060: 9015 843e c842 33bf 58b2 35bd 1b57 43be
00000070: 43b1 c03d c5f1 a4bd 0d99 4e3d 3fb2 3dbe
00000080: 13a8 b03e bc15 30bf 21a9 01bd ffdd e2bd
00000090: f390 6f3e bf57 df3d 011c 84bd 8a87 82bd
000000a0: b7f3 dc3d 65a6 41bf 7118 063d 1c8f 9bbe
000000b0: f7b1 5b3e 2d53 3e3f 0897 a23d ff09 8bbe
000000c0: bb93 003f b9ae 05be 9574 ce3d 90e4 8cbd
000000d0: a221 d3be 53db a53c b0fc 083e 96eb 37bd
000000e0: 81ec 663e 8f86 dcbe a8cb 24be 2440 c1be
000000f0: 1655 d8be f2c2 e83e 97ee 92bd 6d56 adbe
00000100: 0ae1 3f3e 08ac bfbe 956e 13bd 1e82 0b3e
00000110: d025 37bf b039 9b3e eb60 4ebd 1f34 bb3d
00000120: 0ff5 c03e 38e0 a43d 17ee 9d3c 9f76 6e3d
00000130: 42d6 ba3e a7c2 733c 0a63 7c3c 69d8 0e3c
00000140: ba89 143e 619a 67be b82c 3dbd a0bd 773e
00000150: cbb9 d53e 2561 b13e 96a0 95bd 4d9b 343e
00000160: ca03 3f3d 4deb 29be 58ef 80bd 7244 683d
00000170: cbb6 1c3f 37e7 a73e 7bf7 08be f395 c53d
00000180: 7207 653e 0414 6d3f 7686 b0bc 108f 46be
00000190: fcbf 0f3f a615 02bd ac1f 4abd 0707 cfbd
000001a0: 64b5 5b3e 7ba5 803f 053a cfbd 36de 973d
000001b0: 6765 c23e 5359 c43e 3c12 07be 499d 01bc
000001c0: 95e2 8c3e 658a 813f beb3 a63d 7ace 69be
000001d0: c25b 203e 9cbe 5b3f 958c 863d 69a2 5abe
000001e0: 5a4e 9f3e bfb2 49bf 9883 a4bd c503 11bf
000001f0: 76db 18bf 7fc9 04bd d771 47bc ec02 17bf
00000200: ecbd 8c3e 53a8 27bf be4b bcbd a1cf 2b3d
00000210: 14b9 d9be 94f8 cc3e bc26 f7bc 7443 67bd
00000220: f4fa 613e c0e4 2bbf 4450 c7bd 1318 5dbe
00000230: dc65 30be b90a 533f 0cd6 173c 3c9a 7dbe
00000240: 3f4e 083d f61b ddbd b7a9 f6bc c6e8 48bd
00000250: 93b4 1bbe e207 823f f87d 903c 64ef eabd
00000260: 584e 113e cc4a 39be 51f1 923d f695 61be
00000270: e7f3 dfbe 22bd a23e 97fe 493d a158 4abe
00000280: 6ce2 e73d 40c4 95be 9f53 f93c bb67 37bb
00000290: 3798 80bf 1e5b 26bd 8360 82bd fcf0 943c
000002a0: 9b76 433d 6530 c8be b137 e0bb 2e52 55bd
000002b0: f1d5 5b3d 3361 7a3f 9113 a93c cc64 60bd
000002c0: 130c 6a3d 3848 78be 4d49 c4bd 7ea5 443e
000002d0: 3d8e ef3e 79f0 8b3e 97e8 7bbd 2fcb 013e
000002e0: 8ed3 2dbc 1679 88be 3fd8 1a3d d1dd 453e
000002f0: be2e 883f 82e0 8f3d a360 3dbd e4ee 383e
00000300: 85e5 94bd 8d6f 73bf 93be ebbc 5311 893e
00000310: f8b7 3bbe e49f f6be 9b7a 1b3d 3675 773e
00000320: ef80 43be b4ed 68bf 22b7 aebd 916f 973e
00000330: d178 983d fe99 f23d f828 1cbe 6d28 ac3e
00000340: a6b3 21be 6454 10bf 9141 0dbe 38b1 1c3f
00000350: 0709 b73d c21f 573e 7ba5 c3bd 3ebf 0b3f
00000360: 34af 6cbe 1382 e73c 8940 97bd 0503 1bbf
00000370: 8cd0 e63d 8eaf e3be 5e23 6bbc 476e f8be
00000380: 46e1 a5be 3ed4 79be 5013 42bd 4d87 15be
00000390: 6c1e a6bd b231 353d 7818 dc3b c30c 55be
000003a0: bf6f bbbe 5cea 99be e55a 59be 71d9 33be
000003b0: 5e65 00bd 5d00 3d3e b29a 19be 64ca 6abe
000003c0: cd3e 13bd 7068 b33e 442a 13be a6b1 69be
000003d0: a08e 493e db3f 8dbe 8695 01be 7032 6bbe
000003e0: a963 a53c 4ffd 9d3e 4e6d 1bbd 8515 35bc
000003f0: 3b47 e03c 3900 ebbe af10 6fbd 8421 78bc
-0.18589015 -0.015677514 -0.1281888 0.06896902 -0.0964063 -0.027640933 -0.12313294 0.1223136
0.053605065 0.19673105 -0.02724262 -0.03861982 -0.25389177 0.10732171 0.034579996 0.05211047
0.117974356 0.025805343 0.415856 -0.22778267 -0.20537937 0.7384537 0.45441395 -0.15767942
0.257977 -0.70023775 -0.044359535 -0.19076197 0.0940881 -0.080539264 0.05043893 -0.18525027
0.3450323 -0.68783164 -0.031655435 -0.11077499 0.23395137 0.10905408 -0.06450654 -0.06373508
0.107886724 -0.7564452 0.032738153 -0.3038262 0.21454607 0.74345666 0.07938963 -0.27156064
0.5022542 -0.13054933 0.1008083 -0.06879532 -0.41236597 0.020246183 0.13377643 -0.044902407
0.22551157 -0.4307141 -0.16093314 -0.37744248 -0.42252415 0.4546123 -0.07174414 -0.33855
0.1873819 -0.37435937 -0.03599413 0.13623855 -0.7154207 0.3031745 -0.050385397 0.09140801
0.37686965 0.08050579 0.01927857 0.058218595 0.3649159 0.014877952 0.015404472 0.008718588
0.14505664 -0.22617485 -0.046185225 0.2419343 0.4174331 0.34644428 -0.0730602 0.17637368
0.046634473 -0.16593666 -0.06295651 0.0567059 0.6121642 0.3279359 -0.13375656 0.09647741
0.22366121 0.92608666 -0.021548491 -0.19390512 0.5615232 -0.031758927 -0.04934661 -0.10108762
0.21455914 1.0050501 -0.10118488 0.0741543 0.3796799 0.383494 -0.1319055 -0.007911035
0.27516618 1.012036 0.08139752 -0.22832671 0.15660003 0.8583772 0.06569783 -0.21351017
0.31114465 -0.7878837 -0.08032912 -0.56646377 -0.5970987 -0.032418724 -0.012173138 -0.58988833
0.2748865 -0.6549122 -0.09194134 0.041946057 -0.42524016 0.400334 -0.030169837 -0.056460813
0.22068387 -0.6714592 -0.09732106 -0.21591215 -0.17226356 0.82438236 0.009267341 -0.24765867
0.033277746 -0.10796349 -0.030110223 -0.049050115 -0.15205602 1.0158656 0.017638192 -0.114714414
0.14190042 -0.18094939 0.07174934 -0.22029862 -0.4374077 0.31784922 0.04931506 -0.19760372
0.113224834 -0.2925129 0.030435381 -0.0027985412 -1.0046452 -0.04061424 -0.063660644 0.018181317
0.047720533 -0.39099422 -0.0068425764 -0.052080326 0.053670827 0.97804564 0.020639213 -0.054783627
0.05714042 -0.242463 -0.095842935 0.19203755 0.46788207 0.27331904 -0.06150111 0.12675165
-0.010609521 -0.2665488 0.037803885 0.19322897 1.0639265 0.07025243 -0.046234738 0.1805988
-0.0727034 -0.9509209 -0.028777396 0.2677103 -0.18331897 -0.48168862 0.037958723 0.24165806
-0.19092153 -0.90987706 -0.085310236 0.29577306 0.07444919 0.11845778 -0.15250003 0.33624592
-0.15791187 -0.5637877 -0.13794543 0.61207914 0.08937269 0.21008208 -0.09553047 0.5458869
-0.2311371 0.028260266 -0.07385356 -0.6055148 0.11270246 -0.44469875 -0.014351694 -0.48521635
-0.32398432 -0.2439737 -0.0473817 -0.14602394 -0.08111271 0.044236846 0.006716784 -0.2080565
-0.36608693 -0.30061615 -0.2122608 -0.17563416 -0.03134667 0.1845717 -0.15000418 -0.22928768
-0.035948563 0.35040617 -0.14371592 -0.22821674 0.19683313 -0.2758778 -0.12654695 -0.22968459
0.020189123 0.30857322 -0.037946038 -0.011052494 0.027377715 -0.45898607 -0.05836552 -0.0151447095

fc1.bias f4 [256]
00000000: 9f8e 743c 4bb0 933c 7f1a 42bb 5087 e3bd
00000010: a134 35bd f503 063d ca8d 88bd dfd4 0c3e
00000020: 65c7 c9bc e47f 0abd ae87 a1bd ca90 963d
00000030: c3b9 0e3e a5b0 023e 5919 06be a45a 4ebc
00000040: be07 01bd a2d9 13bd 062e 05be 3ca4 133e
00000050: 265b ef3d d306 d0bd 6b51 ba3d dc46 2ebd
00000060: 80dd 063e 91cf 8bbb 3056 9a3d f634 13bc
00000070: 6cc5 2fbd 71c1 08be 65f0 ddbd b298 0b3e
00000080: b81e 093e f7f8 0d3e 73a0 d63d 2a33 05be
00000090: 22f2 bcbd 3169 013d 8c85 08be de22 b6bb
000000a0: b1b3 403d 06ac 38bd a31f cc3c bf88 253c
000000b0: c358 63bd 3aec 8d3c c238 f93c 2d5b f7bd
000000c0: 6d42 083e 31c0 123e 74de f2bd 60a3 0dbd
000000d0: ff54 83bb 6602 a3ba d19f 50bd ae21 1d3c
000000e0: 2330 2f3d cfa8 313d 8f98 a63d 424d e03c
000000f0: 0d41 493d 7a6c 9ebc cd3e 1bbd 724a 883d
00000100: e2df e83d 74dc c63a 0a44 e5bd 8080 3e3d
00000110: 183f e8bd 6f4a 3f3d 9cee 0c3e 55fd c7bd
00000120: 3174 a3bc f875 0a3e 81f7 6e3d e239 0d3e
00000130: 3a66 8bbd f9cd 84bc 2070 cabd 675d a0bd
00000140: a53d fe3c 867c ef3d 681d 043e 3238 5cbd
00000150: 49b2 fa3d 39de d2bd b16e 0abe 25fb 9b3c
00000160: b5b1 093e ae24 e23d 79ac d7bd 9e8f f6bc
00000170: b1c4 023e dea0 9a3d 4eee 483b 76f9 83bd
00000180: fd2f bb3d 10aa f93d 55e1 be3d a67c 783d
00000190: 86a3 85bd da9e 0fbe a12f 053e 3627 0a3d
000001a0: 2718 953c 0eac 5d3d c0ef 5ebd 3a40 d6bd
000001b0: 4a5d a13d b291 8ebc 4572 0dbe d13e debc
000001c0: 6db2 b1bc d0cc d7bd b90c eabd fab0 08bd
000001d0: 6c89 f5bd f037 963d dabf 0ebe c023 86bd
000001e0: f40f d7bd 6f31 52bd ffa0 12be 2795 25bd
000001f0: 310c c4bd d1c1 b53d 4ff5 f6bd 6dac 0a3e
00000200: 5d0b 0b3e 24a1 1b3d bc41 56bc 2f20 afbd
00000210: 9162 83bd 16fe c7bd f6f3 b23c 2031 0c3e
00000220: 95c3 45bd 065a 75bd 1140 033d 0b54 0abe
00000230: 5211 49bd 47ac cdbd 0bbf d4bd 9e82 32bd
00000240: bb82 e53d 198a 7b3d 9866 243d 8c5f f63d
00000250: 8699 ac3d b823 deba 4a76 123d 9927 a3bc
00000260: 7c8a 903d c48c 043d 6719 6c3d ec42 0abe
00000270: 4a49 a0bc ba2e 9d3d a947 5d3d 885b 133d
00000280: 9366 70bd ba70 bf3d bd28 fdbc 4b6c a0bd
00000290: cb18 d3bd fddf a73a 176f e9bd 7eea b83d
000002a0: 203f 9d3c 746c fabc fc8c ff3d f9ce 23bb
000002b0: 0ccf 8b3c 41c8 c13d eec9 c73c bace 373a
000002c0: 642f 073e 4306 e3bd c11d 923d dced 153d
000002d0: 333b b7bc 9d3e 413d 5297 413c 22e5 b7bd
000002e0: 8ac4 c7bd 4865 94bd 9e6d 053e 40d5 e63d
000002f0: 2fce 7cbc 3434 953d e001 b33d 3b14 f93d
00000300: 939f 1c3d 188d e13d e55e 1ebd bade f83c
00000310: 1813 b4bd acdb f6bd 7f27 00bd eafb edbd
00000320: 9e55 443d 652f c23d 8fa3 ed3c 8677 0dbe
00000330: 7817 7b3d 06ea 033e d4f4 bb3c a3d3 05be
00000340: 48a1 f1bc 4b77 0f3e 983b a9bd 2b0c e4bd
00000350: 2976 da3d 33e8 e33d 3277 de3a ee53 0a3e
00000360: 9a04 ffbd a909 b63d fe68 0bbe 9ac7 34bd
00000370: 7545 eb3d fd4c 91bd 10e3 dcbd 85f8 ce3c
00000380: 0cea 123e 4952 59bd f62d 03be f9b4 a73d
00000390: edf9 f13d 7c5f bdbd d5bf 95bd 657d 8e3d
000003a0: 77e7 043d 2853 e3bd 0091 e6bc a158 d83c
000003b0: 7573 6e3c ec90 da3d 95b6 9f3d a25c 773c
000003c0: 45c7 d13d 669d 0bbe 4cca ca3c aa49 83bb
000003d0: 602e bcbd 9259 d0bc fdcf 34bd 051a 0ebe
000003e0: 82fa 303c 164c 133e abfb c6bd a4b4 87bc
000003f0: 85f6 06bd be19 a5bd c720 853d 2583 0dbe
0.014926582 0.018028399 -0.0029617844 -0.11109793 -0.044239644 0.032718617 -0.06667669 0.13753079
-0.024631212 -0.033813372 -0.07887207 0.07351835 0.1393805 0.12762697 -0.13095607 -0.012594853
-0.031501524 -0.036096223 -0.13005838 0.14418119 0.11687307 -0.101575516 0.090975605 -0.042548046
0.13170433 -0.004266687 0.0753597 -0.008984795 -0.042912886 -0.13355042 -0.10836867 0.13632467
0.13390625 0.13864504 0.10479822 -0.13007799 -0.09225871 0.03159446 -0.13332194 -0.0055583557
0.047046367 -0.04508593 0.02491743 0.010103404 -0.05550457 0.017324556 0.030422572 -0.12077937
0.1330659 0.14331128 -0.11858836 -0.034579635 -0.004007935 -0.0012436628 -0.050933663 0.009590549
0.042770516 0.04337388 0.08134567 0.02738059 0.049134303 -0.019338835 -0.03790169 0.06654824
0.11370827 0.0015171901 -0.11194618 0.046509266 -0.11340159 0.046701845 0.13762897 -0.09765116
-0.019952865 0.13521564 0.058341507 0.13791612 -0.068066075 -0.016211497 -0.098846674 -0.07830315
0.031035254 0.11693673 0.12901843 -0.05376453 0.122410364 -0.10296292 -0.13518788 0.019040653
0.13446696 0.11042152 -0.105309434 -0.030097779 0.12770344 0.07550214 0.0030659619 -0.06444065
0.091400124 0.1219064 0.093203224 0.06066575 -0.0652533 -0.14025441 0.1300645 0.0337288
0.018199993 0.054119162 -0.054427862 -0.10461469 0.078791216 -0.017403457 -0.13813122 -0.027129563
-0.021691525 -0.10537112 -0.11428208 -0.033371903 -0.11989102 0.07334888 -0.13940373 -0.065497875
-0.1050109 -0.051316675 -0.14319228 -0.040425446 -0.09572638 0.08874858 -0.12058508 0.13542338
0.13578553 0.037995473 -0.013077196 -0.085510604 -0.064152844 -0.0976526 0.021844845 0.13690615
-0.048282225 -0.059900306 0.03204352 -0.13508622 -0.049088784 -0.10042625 -0.10388001 -0.043581598
0.112065755 0.061410997 0.040136904 0.12029943 0.0842772 -0.0016947901 0.03575734 -0.019916343
0.07057664 0.032360807 0.057641413 -0.13502091 -0.019566197 0.07674928 0.05402342 0.035975963
-0.058691572 0.09347673 -0.030903215 -0.07833155 -0.10307463 0.0012807843 -0.11398142 0.09029101
0.01919514 -0.030569293 0.124780625 -0.0024995191 0.017066501 0.094620235 0.02438828 0.00070117007
0.13201672 -0.11085179 0.07134581 0.036603794 -0.022367096 0.047178853 0.011815863 -0.089792505
-0.09754284 -0.0724588 0.13030097 0.11271143 -0.015430017 0.072853476 0.08740592 0.12162062
0.03823812 0.110132396 -0.038664717 0.030379642 -0.08792704 -0.12053618 -0.031287666 -0.116203144
0.047933213 0.09481696 0.029008655 -0.13815126 0.06130168 0.12882242 0.022943892 -0.13069014
-0.02949585 0.1401035 -0.0826332 -0.11135133 0.106670685 0.11128273 0.0016972779 0.13508579
-0.124520496 0.08888561 -0.1361427 -0.044135667 0.11487857 -0.070947625 -0.10785496 0.025264988
0.14347094 -0.05305699 -0.12810501 0.08188815 0.11815248 -0.09246728 -0.0731198 0.06957511
0.032447305 -0.11099845 -0.028145313 0.026409449 0.014553894 0.10672173 0.07798497 0.015097769
0.10243086 -0.13634261 0.024754666 -0.004006584 -0.09188533 -0.025433335 -0.044143666 -0.13877113
0.010801913 0.14384493 -0.097159706 -0.016565628 -0.032949943 -0.080615506 0.065003924 -0.13819559

bn1.weight f4 [256]
00000000: f49e 6a3f ff93 833f 1fa9 a23f 48aa 8d3f
00000010: bb68 753f bfdc 493f 3c68 843f 9dbf 5c3f
00000020: afc0 3b3f 52ce 803f f5db 573f 4619 573f
00000030: 9b3a 8a3f 2460 3a3f ccd8 683f 8c29 f73e
00000040: 6bc4 3e3f 5d6a 663f 33da 503f d45f 713f
00000050: 7962 803f f26d 8a3f 0b33 9c3f 598d 2d3f
00000060: b56b 7a3f 58b2 093f ffbd 213f 1f25 3f3f
00000070: 36df 953f b31f 433f a331 833f 43ab 433f
00000080: 0961 743f 44b7 4d3f 4751 5f3f 356a 4a3f
00000090: 0a19 6a3f 9f66 5b3f 3349 993f 076b 8b3f
000000a0: 36a6 6c3f 0785 5b3f a16d 4e3f 298d 8f3f
000000b0: 5c79 493f 2e61 8e3f 3671 523f fed1 883f
000000c0: 428d 2a3f afc4 493f 7ed3 603f 4226 923f
000000d0: 5c1b 393f 5368 4c3f 4086 a03f 0421 743f
000000e0: d7b6 743f ed97 1f3f afb3 793f 5b46 693f
000000f0: 75c1 633f a1b4 583f 378e 753f 9528 473f
00000100: e702 653f e2ae 6c3f c1fa 343f cf5a 1c3f
00000110: 8f46 423f 8dcf 493f 2b59 6b3f bea1 8d3f
00000120: 7643 8d3f 74be 473f 9fb4 813f f606 7c3f
00000130: 45ef 653f 2f85 6b3f 9ad0 9d3f e270 423f
00000140: 0856 2a3f 0531 9c3f dcd1 653f c6e5 633f
00000150: 597c 2f3f 8ad8 143f f344 843f 829d 633f
00000160: a286 853f 278a a43f 54a5 803f 04dc 5c3f
00000170: e8d1 9d3f b2d5 993f 35af 883f dca9 733f
00000180: c90a 883f 3c47 663f b456 5b3f f801 5b3f
00000190: 2f5e 3f3f 69de 313f b059 713f 1212 5c3f
000001a0: e3c0 273f 1e04 473f 08d1 4d3f cf1a 4e3f
000001b0: 6d2f 533f d326 463f e86b 863f 9086 673f
000001c0: 8e28 603f e034 853f da64 2a3f 7936 593f
000001d0: dd9d 5b3f 2524 703f 0e73 b13f 1b00 423f
000001e0: 1908 803f 9f06 1e3f 7764 963f 2235 5e3f
000001f0: a986 4c3f 8302 623f 63cd 383f 1b8b 583f
00000200: dcc5 583f b8f8 523f 7d50 713f 4456 463f
00000210: db0f 4d3f 12b5 443f a9c6 2e3f fc8b 683f
00000220: bae6 573f 27a4 4c3f ec75 673f cc59 533f
00000230: 63d1 923f 459b 5f3f e763 943f 4399 613f
00000240: e53b 8c3f d72e 913f 7744 543f 633d 3e3f
00000250: ec33 723f 6107 8a3f db0b 6c3f f28f 743f
00000260: 279f 163f 7c7e 7a3f 6856 733f acb1 8f3f
00000270: cbaf 593f b143 733f ef0d 463f fc71 7a3f
00000280: d37e a53f 3e77 5b3f 22d2 503f 584f 853f
00000290: 03c4 603f 2999 6d3f 3741 883f fb0b 523f
000002a0: 8d4b 553f db25 713f 473e 843f 5198 853f
000002b0: ff12 823f 21f8 453f 7fa0 843f 4eb2 7e3f
000002c0: b8c5 5b3f 5265 883f e5f0 523f 8e1d 573f
000002d0: 4c41 683f aa0d 783f 663e 2d3f e20f d53f
000002e0: 30f4 6c3f b66c 763f bd1a 813f 2c17 1e3f
000002f0: 17ad 5c3f 07d3 343f 05a8 6c3f b1e5 2b3f
00000300: 906e 643f 574d 663f 5872 4d3f d07c 7d3f
00000310: 3a36 1a3f 6d6f 453f c619 0e3f 6b2a 693f
00000320: 2b23 563f 7e55 703f 596d 4a3f 2775 1e3f
00000330: a1be 443f a14f 833f 2ba3 803f f07f 4f3f
00000340: c521 2e3f 7201 483f 38fc 813f ac2d 743f
00000350: 718e 3a3f 9775 6f3f 7982 873f cfc1 533f
00000360: 7f10 4e3f 60a4 463f b670 1f3f b362 5b3f
00000370: 2ed0 463f 2b1e 5f3f ebcd 333f 3a21 823f
00000380: 6f49 5f3f 705f 693f 7c37 573f 2cdc 303f
00000390: 7816 5d3f 8704 743f 342f a33f 48aa 6a3f
000003a0: 685d 913f 5dd6 803f adc8 963f 579d b73f
000003b0: f848 713f 77c8 833f 01be 383f 8b60 473f
000003c0: 1641 773f b523 493f 3373 5f3f 7b29 473f
000003d0: 3371 903f a794 673f 2193 5b3f 445f 6a3f
000003e0: 7d12 503f ff3c 5e3f 5607 3b3f 9900 2e3f
000003f0: b07a 643f a6a1 663f 8fda 4b3f 5561 4f3f
0.91648793 1.027954 1.2707862 1.1067591 0.9586293 0.78852457 1.034431 0.8622988
0.73340887 1.0062964 0.8432 0.8402294 1.0799135 0.7280295 0.90955806 0.48273885
0.7451846 0.9000605 0.81582946 0.9428685 1.0030051 1.0814803 1.2203077 0.67793804
0.978206 0.53787756 0.63180536 0.7466602 1.1708744 0.76220244 1.0249523 0.764332
0.95460564 0.80357766 0.87233394 0.7906831 0.91444457 0.8570346 1.1975464 1.0892037
0.9244112 0.8574986 0.8063603 1.1214954 0.78700805 1.1123407 0.82203996 1.0689085
0.6662179 0.7881574 0.8782271 1.1417925 0.7230737 0.79846686 1.254097 0.9536288
0.9559149 0.62341195 0.975398 0.9112298 0.88967067 0.8465062 0.9592013 0.777963
0.89457554 0.9245435 0.7069512 0.6107606 0.75888914 0.7883232 0.91932935 1.1064985
1.1036212 0.78024983 1.0133246 0.9844812 0.8981822 0.920001 1.2329285 0.75953496
0.66537523 1.220246 0.89773345 0.8902248 0.68549114 0.5814291 1.0333542 0.8891221
1.0431712 1.2854661 1.0050454 0.8627322 1.2329683 1.201834 1.0678469 0.9518106
1.0628291 0.89952445 0.85679173 0.8554988 0.7475309 0.69479996 0.9427748 0.85965073
0.65528697 0.7774066 0.8039708 0.80509657 0.8249424 0.7740299 1.050168 0.904397
0.8756188 1.0406761 0.6656014 0.84848744 0.85787755 0.9380515 1.3863237 0.7578141
1.0002471 0.61728853 1.174941 0.86799824 0.79892975 0.8828508 0.72188395 0.8458726
0.8467691 0.82410765 0.9426344 0.7747538 0.8010232 0.7683879 0.6827188 0.908386
0.84336436 0.79937977 0.9041431 0.82558894 1.147015 0.873463 1.1592988 0.88124484
1.0955778 1.1342419 0.8291697 0.7431242 0.94610476 1.0783502 0.9220559 0.95532143
0.588366 0.9784925 0.9505372 1.1226096 0.85033864 0.95025164 0.7736501 0.97830176
1.2929329 0.85728824 0.8157064 1.0414839 0.8779909 0.9281183 1.0644902 0.8204953
0.83318406 0.9419839 1.0331506 1.0437108 1.0162047 0.7733174 1.036148 0.9949082
0.8584857 1.065592 0.82398826 0.8402947 0.90724635 0.9689585 0.6767334 1.6645472
0.925601 0.9625963 1.0086285 0.6175411 0.86201614 0.706345 0.9244388 0.67147356
0.89231205 0.8996176 0.802526 0.99018574 0.60238993 0.7712315 0.5550808 0.9108035
0.8364741 0.9388045 0.790731 0.6189751 0.76853377 1.0258676 1.0049795 0.8105459
0.6802028 0.78127205 1.0155096 0.9538219 0.728736 0.935388 1.0586692 0.82717603
0.8049392 0.77594566 0.6228136 0.8569748 0.77661407 0.8715541 0.7023608 1.016639
0.87221426 0.9116125 0.8406904 0.69085956 0.8636241 0.9531941 1.274878 0.9166608
1.135663 1.0065418 1.1779991 1.4344891 0.94251966 1.0295552 0.7216492 0.7788169
0.9658369 0.7857011 0.87285155 0.7779767 1.1284546 0.904612 0.85771376 0.91551614
0.8127821 0.8681182 0.7305807 0.6796966 0.89249706 0.90090406 0.7963037 0.8100789

bn1.bias f4 [256]
00000000: 28fc 34bf 17f3 13bf add1 c9be 87f8 dabe
00000010: ad44 d6be a2d2 15bf aba6 a7be 8261 0abf
00000020: 78f8 e7be 83c5 87be d839 04bf d6d7 f4be
00000030: 9256 f3be 46ac 0cbe be75 bfbe adfd fcbe
00000040: ff0f 3cbf 0426 eabe aeeb febe 4449 c6be
00000050: e677 efbe 7fa8 57be 8082 bebe 0555 0fbf
00000060: 2536 06bf 49e0 01bf 99dd 82be 9292 11bf
00000070: f378 bfbe e8df 06bf c628 9dbe 6e48 1abf
00000080: ec7a a4be d89f 36bf 6d07 14bf 75e9 0ebf
00000090: a74c 50be 7273 2fbf 0ed0 25bf c346 f8be
000000a0: c347 cbbe 3414 afbe 2d6e 31bf ab40 c2be
000000b0: 97ad b8be bf4a f2be 41e8 f3be 53b9 07bf
000000c0: 638b fdbe 341d 15bf 9aaa b8be 60ec 64be
000000d0: f720 91be cae4 5ebe dedf 8ebe a375 9ebe
000000e0: eb6f 96be 64f2 21bf e11f 24bf ae1b 3cbe
000000f0: 7920 bfbe 9938 26bf 29b5 0dbf 8bf0 f1be
00000100: 42e5 eabe 39c4 debe f80f 0ebf 8292 39bf
00000110: 910a 1cbf d6ff 0abf e7e8 a3bd 2af0 dbbe
00000120: 6c80 8ebd a816 14bf 9e28 b9be 2e72 abbe
00000130: 9ef9 d0be 96bd 0fbf b557 66be 5ce8 29bf
00000140: 7fdf 28bf 84e7 1dbf 9015 10bf 2371 cfbe
00000150: c9a9 4abf 4833 81be 35f9 eebe 5301 0cbf
00000160: d6e8 cdbe 2e45 1cbf 5adf fbbe f76b bbbe
00000170: c4f6 e2be 2577 f5bd 9001 03bf 4a61 41bf
00000180: 6508 ccbe 4bb9 29bf 026b 00bf 520b 11bf
00000190: f4c0 dcbe ea4e 33bf 71e1 1bbf 35fd 05bf
000001a0: c5aa 2dbf e59c b9bd 8ea0 25bf c254 28bf
000001b0: 9ca3 edbe 7a5b 37bf 673e 9dbe 0ef1 e8be
000001c0: df1e 45bf d32b 84be f28e c2be 9a78 b5be
000001d0: f2d8 07bf 6559 edbe dad7 f7be 5cc6 22bf
000001e0: 410d 35bf f22e 4fbf 4132 afbe bfae 3abf
000001f0: a649 ecbe ccb6 e7be 6bdd a2be 128d 8dbe
00000200: 505d e0be 4b1d 0abf 2ad4 bfbe 89f4 0cbf
00000210: e8cc 36bf f446 53bf a6b5 f9be 908d 0ebf
00000220: 6ddc 5dbf a012 3dbf c86a e3be ba36 1fbe
00000230: 1cd7 e7be 3382 f4be 3423 b5be a4d0 babe
00000240: 2271 e3be 815f bdbe 681d ffbe 3885 f1be
00000250: 7e8c e7be dd00 36bf 861f c7be de53 00bf
00000260: f1ee 0cbf 91f8 d7be 6d9e f1be 8d7d 1bbf
00000270: 8ff6 0bbf d977 f4bd 94e8 9ebe d912 debe
00000280: ff36 5bbe c7b4 9ebe 1436 febe 4dc4 a8be
00000290: 6a0f 00bf 0420 f2be ee63 25bf 1965 29bf
000002a0: abf1 03bf ae34 c4be 7565 e3be 223e 05bf
000002b0: 5238 40be 3acf 11bf 8020 64be 0f47 22bf
000002c0: b219 98be 213a 83be b6d1 41bf 136d 19bf
000002d0: 4812 e6be d4aa ddbe e821 1dbf ccb5 293f
000002e0: 9990 e0be ba72 34bf 7828 08bf 89e4 3fbf
000002f0: 380c edbe e0d8 b8be a4f2 cebe ef9b 13bf
00000300: e35c 06bf 3e78 f9be cf6c e6be 2008 ddbe
00000310: 69fa bdbe 5fc9 edbe 9a6c 1fbf 773e 18bf
00000320: db1e 01be 81b5 14bf 8a09 2bbf cd9e 1abf
00000330: 916d 09bf 128d cebe 2744 bcbe 74d1 edbe
00000340: 7af4 54bf 26df 11bf ae25 e7be 00ac 0ebf
00000350: 5191 1ebf 63c4 b8be 3acf f2be 5b5c b5be
00000360: 5270 24bf 1b56 f7be e611 13bf c2c7 a8be
00000370: 6170 3cbf f26b 44be 7200 2cbf 328a c7be
00000380: 3c89 24bf bd48 9abe ef55 06bf 46f3 09bf
00000390: 956b d7be 62e5 d5be 1828 8bbe 6126 03bf
000003a0: baa0 21bf 3922 08bf 35b5 56be 46ee 9fbe
000003b0: 922d b6be 3c90 c8bd 0c1c a8be e3e2 06bf
000003c0: cf5c fdbe 14e3 44be f7db e3be 4fe1 0bbf
000003d0: b483 f7be 4741 18bf b8f3 c6be 8952 0fbf
000003e0: 0d2d 27bf f9e2 3dbe 438f 38bf 385f 17bf
000003f0: f479 31bf ff5f 07bf aeba 38bf a2b6 0cbf
-0.7069726 -0.577928 -0.39417782 -0.42767736 -0.4184927 -0.58524525 -0.32744345 -0.54055035
-0.45306754 -0.26517877 -0.5165076 -0.4782092 -0.47526985 -0.13737592 -0.37394518 -0.4941229
-0.7346191 -0.4573213 -0.49789184 -0.38727772 -0.46771163 -0.2106037 -0.3720894 -0.55989105
-0.5242637 -0.50732857 -0.2555969 -0.56864274 -0.37396964 -0.52685404 -0.3069517 -0.6026677
-0.32125032 -0.7133765 -0.5782383 -0.5582498 -0.2034174 -0.6853553 -0.6477059 -0.48491487
-0.39703187 -0.341951 -0.6930874 -0.37939963 -0.3606994 -0.47322652 -0.47638133 -0.5301716
-0.49520406 -0.58247685 -0.3606766 -0.22355795 -0.28345463 -0.21766964 -0.27905172 -0.30949125
-0.29382262 -0.63260484 -0.64111143 -0.18369934 -0.37329462 -0.6493011 -0.55354553 -0.47253832
-0.45878035 -0.4350908 -0.55493116 -0.7248918 -0.60953623 -0.54296625 -0.08003407 -0.42956668
-0.06958088 -0.5784707 -0.361638 -0.3348555 -0.40815443 -0.5614866 -0.22494395 -0.6637018
-0.6596603 -0.6168139 -0.562829 -0.40516004 -0.7916532 -0.25234437 -0.46674505 -0.5468952
-0.40216702 -0.6104306 -0.4919384 -0.36605808 -0.44328892 -0.11985616 -0.5117426 -0.75539076
-0.39850155 -0.6629836 -0.5016328 -0.566579 -0.43115962 -0.7004229 -0.6089087 -0.5233949
-0.678387 -0.090631284 -0.6469811 -0.6575433 -0.46413887 -0.7162396 -0.30711672 -0.4549641
-0.7700023 -0.25814685 -0.37999684 -0.35443574 -0.5306541 -0.46357265 -0.4840687 -0.6358392
-0.7072335 -0.8093101 -0.34218028 -0.7292289 -0.4614994 -0.4525665 -0.31809554 -0.2764669
-0.43821192 -0.5395095 -0.37466556 -0.5506063 -0.7140641 -0.8253014 -0.487714 -0.5568476
-0.8666447 -0.73856544 -0.44417405 -0.1554822 -0.45281303 -0.47755584 -0.3537842 -0.36487305
-0.4442225 -0.36986926 -0.49827123 -0.4717195 -0.45224375 -0.7109507 -0.38891238 -0.5012797
-0.55052096 -0.4218183 -0.47191182 -0.6073845 -0.54673094 -0.119369216 -0.31036818 -0.43373755
-0.21407698 -0.30997297 -0.49650633 -0.32962266 -0.5002352 -0.4729005 -0.64605606 -0.6616989
-0.5154063 -0.3832144 -0.44413343 -0.5204793 -0.18771484 -0.5695683 -0.22278023 -0.63389677
-0.29707104 -0.25630286 -0.7571062 -0.5993206 -0.44935822 -0.43294394 -0.6137986 0.66293025
-0.4386032 -0.7048756 -0.5318675 -0.7495809 -0.46298385 -0.36102962 -0.40419495 -0.5765981
-0.52485484 -0.4872455 -0.4500489 -0.4317026 -0.3710511 -0.46442696 -0.6227509 -0.59470314
-0.12609427 -0.58089453 -0.6681143 -0.6039856 -0.5368281 -0.40342003 -0.36770746 -0.46448863
-0.8318554 -0.5698112 -0.45145935 -0.557312 -0.61940485 -0.3608733 -0.47423726 -0.35422024
-0.6423389 -0.4830788 -0.57449186 -0.32964903 -0.73608977 -0.19181803 -0.6718818 -0.38972622
-0.64271903 -0.3013362 -0.52474874 -0.5388683 -0.42074266 -0.41776568 -0.27179027 -0.51230437
-0.63135874 -0.5317722 -0.20967562 -0.31236476 -0.35581642 -0.097931355 -0.32833898 -0.5268995
-0.4948487 -0.19227248 -0.44503757 -0.5464067 -0.4834267 -0.59474605 -0.38857818 -0.55985314
-0.6530312 -0.18543614 -0.720936 -0.5912967 -0.6932671 -0.52880853 -0.7215985 -0.54966176

bn1.running_mean f4 [256]
00000000: 8174 c540 59c3 e9c0 0e97 5dc0 3d05 cb40
00000010: 18d9 463f 023e 74c1 e641 1bc1 c5b0 3c3f
00000020: 358d 3841 584f 9040 a52a 7041 25bf c93f
00000030: 5d88 8f41 3332 8940 4539 a941 3b18 fbc0
00000040: 182f 8fc0 89ab 7c40 0156 aac1 cd1e 2240
00000050: 6d55 2ec1 a08f 0641 45ce fd41 e61e 9f41
00000060: cdaa 143f c9f5 a0be bcd8 f340 497e c2c0
00000070: 52af 2240 cd0d f140 9b59 0e41 58c5 c9c0
00000080: 3498 3cc1 dde2 e4c1 380a 9641 ab18 5341
00000090: 37bf 1c41 9153 9d3f 507e a4c1 7d67 da41
000000a0: f4f1 c741 6d88 4341 5d9a 07c0 1352 01c1
000000b0: d0ea 01c1 7110 8d41 f642 cc3e a581 dcc1
000000c0: 8f2d a23f 6078 8a40 60a2 f2c0 038b ad40
000000d0: 7016 49c1 1843 6441 446b 0c41 c2aa ce41
000000e0: 17ad 8b41 94fa 3d41 a278 3c41 913a fc40
000000f0: dcf6 91c1 68eb d4bf a4c8 42c0 2894 2041
00000100: d33b 22c1 5283 98c0 cb5f ff40 8cd1 ac40
00000110: eec0 7040 e03d 9540 a13c 0e41 20b9 1d41
00000120: 77b3 7f41 0b51 67be 9395 fc41 367d b341
00000130: 18df 58c0 bb3a 4141 e54c a740 9ea2 dbc0
00000140: 17f3 c53f fa39 bbc1 3f27 203f 8be0 583f
00000150: 68fb 62c1 6e1d 7840 8760 ea40 fa64 1f3f
00000160: ede8 ab40 609a b3c1 995b aa40 b780 8141
00000170: 5efd 97c1 e5ad a3c1 3394 313b b7d2 91c1
00000180: b2c8 cc41 66df 743f bf90 9a40 1493 e5c1
00000190: fd71 bc40 f9ef 79c0 7b50 083f 54d9 ec40
000001a0: 3db7 cf3f 39fe 56c1 fbea 0dc1 aab2 99c0
000001b0: aa52 223f c7a8 4fc0 688f 2941 a9ea d140
000001c0: a5d9 19c0 3cb9 3041 4062 4641 773f 8140
000001d0: 2d60 a43f ad25 2cc1 6157 9241 5bad a1c1
000001e0: 2eac fa40 fcd6 0ebc e3d7 44c1 a692 4e40
000001f0: 62c7 b3c0 3c0e 9a41 d61b 4341 21de d1c0
00000200: 5823 aa3f 4b06 963f 99e7 a9c0 64a4 1d40
00000210: c8c6 0fc1 aab4 1cc0 1405 af40 1d9f 64c1
00000220: c627 ac3d e3d9 d4c1 c566 9641 64a7 94be
00000230: 60b2 b140 4141 9fc0 d489 7241 b692 0341
00000240: 8da7 0ebf d9a2 7f41 346b 9441 f4d2 8840
00000250: 2e5e bbbf d96f 66c1 440b 3741 9c78 3041
00000260: a49f 2bc1 f716 9bbf a027 2141 0ad4 5a40
00000270: 46a4 2841 2eca 79be 1731 b5bf 6f87 5a41
00000280: 9bfe 3840 47e9 5841 536d 55c0 c6c9 c13f
00000290: 2240 b4c1 cf80 c8c1 c5f8 8fc0 21cf 46c1
000002a0: d9a1 b741 7188 27c1 271f b840 576a 83c0
000002b0: 0c21 9ec1 80f0 1241 fa9b e940 92b3 57c1
000002c0: dc67 d5be 448b 10c1 9355 2d41 f231 1cc0
000002d0: 5539 9bc1 a3df 30c1 b533 8ec1 cd28 3ec0
000002e0: 27ab fd40 f7d5 ecc1 24a7 b541 c837 12c1
000002f0: e06f 3841 c51a 0841 6312 02c0 8296 2e41
00000300: 1154 7741 1bd3 36c1 6976 e4bf 163c 8a40
00000310: ff5b 5e40 d114 32c1 8187 2bc1 ce17 2841
00000320: 22fc fc40 6b8c 88c0 f727 64c0 5d1a c9c1
00000330: f9a3 733f 44ab 0941 387e 4b41 494b 1d41
00000340: 254d 89c1 5295 8040 3289 0141 b8b8 ea40
00000350: 6180 eec1 8021 1ac1 17af 3dbe 5bc0 5dc1
00000360: 5bce 5fc1 2c1e a5c1 48d9 4441 19f1 f041
00000370: c7e5 91c1 2f43 3e40 24a2 d8c0 e6a8 7cc1
00000380: f8bb 00c1 feef f040 d4c7 2ac1 efef c540
00000390: 63b0 0e41 9b75 94c1 3dba 8041 72b2 c6c1
000003a0: 135c c040 1e98 bebf e4ef c2bf 17c3 aa41
000003b0: 8e06 0641 0f09 9b41 38e7 b741 3ab1 1ac1
000003c0: 67ef 06c1 bb20 b8bf 5993 a9c0 4ae3 63c1
000003d0: 7bc4 3141 446f cdc0 1937 2f41 a96a dac0
000003e0: 075b 41c0 adee a641 7d11 88bf 3286 a0c1
000003f0: ede7 ec40 8db7 5dc1 dc67 3ac0 3891 d8c0
6.1704717 -7.305096 -3.4623446 6.3443894 0.7767501 -15.265139 -9.7035885 0.7370723
11.534474 4.5096855 15.010411 1.5761458 17.941584 4.287378 21.152964 -7.846708
-4.4744987 3.9479697 -21.291994 2.53313 -10.895856 8.410065 31.725718 19.890087
0.5807312 -0.3143752 7.620207 -6.0779157 2.5419507 7.5329347 8.896876 -6.30534
-11.787159 -28.610773 18.75499 13.193522 9.796683 1.2291127 -20.561676 27.300531
24.993141 12.220807 -2.1187966 -8.082538 -8.119827 17.633028 0.39894837 -27.563303
1.2670153 4.327194 -7.582321 5.423219 -12.567978 14.26638 8.776188 25.833378
17.459517 11.873676 11.779451 7.882149 -18.245537 -1.663434 -3.0434961 10.036171
-10.1396055 -4.7660303 7.9804435 5.4005795 3.7617755 4.663803 8.889802 9.857697
15.981315 -0.22589509 31.573034 22.436138 -3.3886166 12.0768385 5.2281365 -6.8636007
1.546481 -23.403309 0.62559885 0.84717625 -14.1863785 3.8767962 7.324283 0.62263453
5.3721833 -22.450378 5.3236814 16.187849 -18.998714 -20.45991 0.002709639 -18.227888
25.597996 0.9565338 4.830169 -28.696815 5.8889146 -3.9052718 0.53247803 7.4015293
1.6227795 -13.437066 -8.869868 -4.8030596 0.63407385 -3.2446764 10.597511 6.559895
-2.403909 11.045223 12.398987 4.038997 1.284185 -10.759198 18.292665 -20.209646
7.833518 -0.008718248 -12.302707 3.2277007 -5.6180887 19.25695 12.194296 -6.5583653
1.3292036 1.172067 -5.309521 2.4631586 -8.986031 -2.4485269 5.46937 -14.288846
0.08406024 -26.60639 18.80018 -0.2903396 5.5530243 -4.9767156 15.158649 8.223318
-0.5572441 15.977258 18.552345 4.275751 -1.4638116 -14.402307 11.44025 11.029446
-10.726475 -1.2116383 10.072174 3.4191918 10.540106 -0.24393532 -1.4155606 13.658065
2.89054 13.556952 -3.3347976 1.5139701 -22.531315 -25.062895 -4.4991174 -12.425569
22.954027 -10.470811 5.753803 -4.106731 -19.766136 9.183716 7.30029 -13.48134
-0.416808 -9.034 10.833392 -2.4405484 -19.402994 -11.054599 -17.775248 -2.9712403
7.9271426 -29.604475 22.706612 -9.138618 11.527313 8.506536 -2.0323722 10.911745
15.458024 -11.426539 -1.7848636 4.3198347 3.474365 -11.130082 -10.720582 10.505812
7.905778 -4.267141 -3.5649393 -25.137873 0.9517208 8.604313 12.718315 9.83088
-17.162668 4.0182276 8.095995 7.3350487 -29.812685 -9.633179 -0.18523823 -13.859462
-13.98788 -20.639732 12.303047 30.117723 -18.237196 2.9728506 -6.7697926 -15.791235
-8.045891 7.529296 -10.673786 6.185539 8.918063 -18.557425 16.090937 -24.837132
6.0112395 -1.4890172 -1.5229459 21.345259 8.3766 19.379423 22.9879 -9.668268
-8.433448 -1.4384989 -5.299237 -14.2429905 11.110469 -6.419832 10.950952 -6.82552
-3.0211809 20.86654 -1.0630337 -20.065525 7.4033113 -13.857312 -2.912589 -6.767727

bn1.running_var f4 [256]
00000000: 6b25 c743 2dd1 b343 dc41 8943 ea96 ab43
00000010: 05f5 5e43 d15b e143 633a ac43 84e6 a743
00000020: b163 c143 2a26 ad43 0bd1 9843 f3bc cd42
00000030: f254 0943 6cf7 9843 e230 9143 8b02 f743
00000040: e19e 9843 3549 2c43 35cc 2743 c6cd 0443
00000050: c89c 4943 08d3 2a43 3f6c 0443 9736 6c43
00000060: 9b91 5943 1db2 2d43 e538 a543 0627 aa43
00000070: ba84 3343 8191 ea43 3574 6c43 88e8 7843
00000080: 130b 4543 6266 7843 a7e4 7743 0fa5 a843
00000090: f3f7 3843 889f 2843 0693 0543 dc2f c742
000000a0: 76e2 4243 f559 4b43 986b ac43 9983 9543
000000b0: 180f aa43 7c33 0743 a244 0644 ba4e 4843
000000c0: f3bf 8843 fb5d ac43 77dd 1d43 cdd3 2d43
000000d0: e760 9943 11ec 9343 3b21 a642 797b a043
000000e0: 74a4 b643 0011 5e43 a92f 3c43 77db 5443
000000f0: 4feb a743 833f 7f43 6fb5 6043 437b b343
00000100: 3bb7 9443 d9d0 b743 26f4 8243 ace5 5d43
00000110: 789e 5843 c4d8 b843 584d 8a43 6b4d 5843
00000120: 4b6f 7f43 491e 8843 69e3 da42 3515 5743
00000130: d2ec b643 1578 c843 887d 5343 b2f3 5543
00000140: e807 2e43 46b3 f442 4dfa 7043 9ab9 b643
00000150: 403c 1444 557c 4a43 901e b843 3bb4 3c43
00000160: ecae cf43 19f6 2343 e0ec 8543 1b1d 5b43
00000170: 62d7 3943 5cce 0843 0da7 6243 b4f4 5343
00000180: d4e6 9b43 3843 3543 659d 9443 24d5 1b43
00000190: ba7c 6143 eb7d e743 84f2 3843 3e2b b843
000001a0: 9f9f be43 e79a 8943 6588 0c44 167d ae43
000001b0: 1702 6543 3a91 5f43 37e4 8e43 2d3e 9a43
000001c0: 82fd 8f43 0b60 a443 2fc0 2d43 e62e e343
000001d0: b10c 6143 ab9f 8043 399a 4743 17c3 4743
000001e0: 139d 4d43 ad28 6e43 24de c542 34cf 6643
000001f0: ac8a 3543 6568 4443 6fce 8e43 136e 4b43
00000200: f8ee 7143 769d 9243 874f 3043 78fe 2e43
00000210: d53b c843 8846 3e43 6b61 6d43 bf78 7b43
00000220: dd1e 6843 d4f9 4543 8a7f 6e43 b604 2243
00000230: 389a 2b43 d3fb 6d43 0006 0043 fd3e a743
00000240: ebe9 6143 31dd 9743 e190 1243 19d4 b743
00000250: 8fe5 4f43 c268 1843 70bc a643 5dee 4d43
00000260: bbd2 9643 1828 3643 e1b9 ee42 277b 1b43
00000270: 1ddb b043 dc1f 0b44 4631 7b43 cc97 2743
00000280: 0f00 d043 7e03 1c43 691a 8643 0a48 0743
00000290: 2041 fe42 be2d 6943 aebf 7c43 cb81 b843
000002a0: 7bd9 1343 0719 4443 06f6 1243 5933 0343
000002b0: 3f37 3d43 4c4d 8243 776a b442 b0b9 9543
000002c0: af4c 5243 0fd5 aa43 a6a7 db43 7f5d 7443
000002d0: dfb0 8743 a7ba 6a43 5651 ce43 3ed8 9c41
000002e0: dc7c 4943 aa5a 6743 c57e 6c43 30d4 9643
000002f0: 4658 bc43 6877 9a43 f414 3143 1022 1844
00000300: 3f2d 5543 caaa 5843 2f9d 0b44 0db7 a443
00000310: c138 b043 ab4d e342 fa43 1f44 6c18 2543
00000320: b6d1 7643 eac9 6343 73f9 1943 ff5d b243
00000330: fe65 8f43 c47d d842 e29a da43 eff4 2a43
00000340: ab3f b943 b1fd be43 403b 4d43 d578 f743
00000350: ea39 3c43 be16 b043 bc15 3e43 7554 a543
00000360: c874 8a43 c1b2 3743 f6cf 7443 d087 0343
00000370: 073d 1443 ddc5 4f43 d332 8943 8a67 2d43
00000380: df18 bf43 9fc3 6a43 9e10 9343 62e9 7243
00000390: 8308 e743 8418 a642 24a5 3943 cbbc c843
000003a0: 1ba3 ff42 7ea3 8c43 1b4b 0c43 4e47 6a43
000003b0: 59e4 e943 a296 0a43 9326 3743 ebb6 3c44
000003c0: c3e0 6e43 b24c 1e43 33b5 8043 20b6 8743
000003d0: 6f89 d342 d3e2 1144 73db 8343 8bea 8b43
000003e0: 44da 9743 fd0d 6b43 5fe8 dc43 2eab a843
000003f0: 92b0 0e43 0c55 9943 eb0c 9643 657e 1b43
398.29233 359.6342 274.51453 343.17902 222.9571 450.71732 344.45615 335.8009
386.77884 346.29816 305.63315 102.86904 137.33182 305.93298 290.3819 494.01987
305.24124 172.28596 167.79768 132.8038 201.61243 170.82434 132.42284 236.21324
217.56877 173.69576 330.4445 340.30487 179.51846 469.13675 236.45393 248.90833
197.04326 248.39993 247.89317 337.28952 184.96855 168.62317 133.57431 99.593475
194.88461 203.3514 344.84058 299.0281 340.11792 135.20111 537.0724 200.30753
273.4996 344.73422 157.8651 173.82735 306.75705 295.84427 83.0649 320.96463
365.2848 222.0664 188.18617 212.85728 335.83835 255.2481 224.70872 358.96298
297.4315 367.63162 261.9074 221.89716 216.61902 369.69348 276.60425 216.30241
255.43474 272.2366 109.44416 215.08284 365.85016 400.93814 211.49036 213.95193
174.03088 122.35014 240.97774 365.45 592.9414 202.48567 368.23877 188.70403
415.36658 163.96132 267.8506 219.1137 185.84134 136.80609 226.65254 211.95587
311.80334 181.26257 297.22964 155.83258 225.48721 462.98373 184.94733 368.33783
381.24704 275.21017 562.13116 348.97723 229.00816 223.56729 285.78293 308.48575
287.98053 328.75034 173.75072 454.3664 225.04958 257.2474 199.60243 199.76207
205.61357 238.15889 98.93387 230.80939 181.54169 196.40779 285.61276 203.42998
241.93347 293.23016 176.31065 174.99402 400.46744 190.27551 237.38054 251.47166
232.12056 197.97589 238.4982 162.0184 171.60242 237.98369 128.02344 334.4921
225.91374 303.72806 146.56593 367.657 207.89671 152.40921 333.47217 205.9311
301.64633 182.15662 119.363045 155.48106 353.71182 556.4978 251.19247 167.59296
416.00046 156.01364 268.20633 135.2814 127.1272 233.17868 252.74875 369.014
147.84953 196.09776 146.96103 131.20058 189.2158 260.60388 90.20794 299.45068
210.29955 341.66452 439.30975 244.36522 271.3818 234.72911 412.63544 19.605587
201.48773 231.35416 236.4952 301.6577 376.68964 308.93286 177.08185 608.5322
213.17674 216.66714 558.456 329.43008 352.4434 113.651695 637.06213 165.0954
246.81918 227.78873 153.97441 356.73434 286.7968 108.245636 437.21002 170.95677
370.4974 381.98196 205.23145 494.944 188.22623 352.17767 190.0849 330.65982
276.91235 183.69826 244.81235 131.53052 148.23839 207.7729 274.39706 173.40445
382.1943 234.76414 294.12982 242.91165 462.0665 83.04788 185.64508 401.47495
127.818565 281.27728 140.29338 234.27853 467.78397 138.58841 183.15068 754.8581
238.87798 158.29959 257.41562 271.42285 105.768425 583.5441 263.71445 279.83237
303.7052 235.05464 441.8154 337.33734 142.68973 306.66443 300.10092 155.49373

fc2.weight f4 [128, 256]
00000000: cd16 8cbd e9a8 78be b896 2fbe d293 3b3e
00000010: e978 a7bd ea39 e63e 48ea 893d 3d7a d43e
00000020: 073a a53d a6b6 40be 4879 9d3e 482e 9ebd
00000030: 2d33 a93e 2958 ed3c 506c ff3d 10f4 5c3d
00000040: d1e2 98bd 6ce7 903a 5a18 613d 909a 7b3e
00000050: ac0b 1f3e 8c16 89be 0497 823d a868 58be
00000060: 976e 523e 3b4c 9d3c 57bd a5bd 89df 7e3d
00000070: 298f 7cbe 7d8d d1be 3845 b4be ed7d cc3e
00000080: d70e 58bd b113 f8bd 35a3 91be 43c9 ca3d
00000090: 1b77 eabd 68e6 d9be ee9a 833d 13d5 323e
000000a0: 6ae4 683e 9764 413e 084c 69be 4a48 7ebb
000000b0: bb4d 9e3d b9de 823e 217e aabd e207 943e
000000c0: 26be cc3e e215 d33d 92b2 803e 18aa 84be
000000d0: 46ab be3e 6b93 32bd a6da 173d c26a 0f3d
000000e0: b566 37be 9a19 003d a4ec eebd 9fe9 1a3e
000000f0: 9fc3 983d 8e3b 75bc 3fee 8e3e 1032 693e
00000100: 51a5 83bd dcc9 663e 9acd 9abd e322 863d
00000110: c450 9b3e 554c dd3d 00cd a4bc 1a3d b33d
00000120: 8d32 983e 33fc 8e3e c774 7c3c f5f6 04be
00000130: b920 293d 63dd 01be 59e1 613b c15c 2dbb
00000140: dbd9 563d beda 79be 88c6 46be 22e7 433d
00000150: 49bf 97bc f2ee 2c3e df05 5c3e dde1 b93e
00000160: fc23 5ebd ed22 cbbe f281 583e 91bd 8bbe
00000170: 6e7a 643e 2720 753e a7c9 d1bd cc8f 12be
00000180: a6f1 ddbd aa32 523d 05c5 e03e f13a 5c3e
00000190: 033e a4be 99d4 4bbe 5f8f 843e 4d61 56be
000001a0: 7366 de3b fa2a 593e 2444 2cbc 21a6 133e
000001b0: 4785 c3bd 14c5 54bc 6baa 963d a77a d83e
000001c0: c933 0c3e 0b69 a63e 11f8 18be f401 143e
000001d0: 6cb6 0bbf cb4a 2e3e afd6 b6be 898c 643d
000001e0: 00ec 08be 6319 653e 54d7 ccbd d284 dbbe
000001f0: a053 013f 570e f4bd 4c1b 723d fa09 70be
00000200: a05c 19be d394 dd3e 3971 073e 097b dcbe
00000210: 7116 2e3c 8cd8 34bc 8a95 193e 1655 9a3e
00000220: 6900 9cbe c503 473e 0f34 3d3e 2297 16bd
00000230: b6cb 7fbe bcaf 233e 1305 e23e b62c d63d
00000240: ab49 9a3e 8d51 80bc acb1 28be 0bd1 c5be
00000250: a930 953e 3b0a 89bd ac69 28be 93bd 25bc
00000260: 337e 9bbc ae42 c73c 3b3d 693e a94f a23e
00000270: b3b2 cb3d 33bb 8c3d c5a3 09be d109 be3d
00000280: f3b0 513d d1fe 143d bf8d a53b a460 24be
00000290: 4a11 7f3e 503b e8bc 0e36 85be 2c51 a8be
000002a0: c91e 8f3d 32c7 ef3d a3e4 1e3d 2983 42bd
000002b0: 4dda 173d 2b61 16bd 3a31 673e 7a03 ad3e
000002c0: c28b 073e 38f9 2f3e 53f6 4b3e 6e49 eabc
000002d0: 2be1 903c 1a59 27be ffbb 8d3e 10fd 633e
000002e0: d123 87bd e333 ab3e d62d 65be e754 e8bd
000002f0: 37b0 34be 41c8 e7bd 550d f63c 0de1 853e
00000300: 4ffd 40be 2c6a 6a3d 16fe 8a3d c3ce 673e
00000310: 15bd 873e 9ba8 a33e 63dd 673e e360 103e
00000320: 31b5 493e 1481 653e 8179 0abe a9e3 9f3e
00000330: f8b6 28be bd16 7bbe e184 2abe 7753 b13e
00000340: 7794 eb3d af2e 0f3e 0f6b 953d e297 1abe
00000350: c4f5 2e3e 6fd2 37bd 58f8 153d b419 813e
00000360: 5f60 833c 26ba f2be ab3c c53d cae5 ac3c
00000370: 3392 f13c c10a 08be 5bc8 c43e f25c 1e3f
00000380: 33bc b83e dac4 29be 3ec3 2d3e 5368 e9bd
00000390: 4e65 633e 1ae2 a4bc f869 ef3d 33b9 c03e
000003a0: 32af ff3d 4167 363e fb20 1a3e 9644 66bc
000003b0: ccfe 933e 4f18 543e 46ea 58be addc 2a3e
000003c0: 0157 8b3d dc37 f8bd f5dd 173e 19f6 6d3d
000003d0: 0456 733d 7f5a a43d cc63 aa3e c330 973e
000003e0: 622b 3dbd 94d4 ccbd 5db8 f9bd 9853 ee3e
000003f0: 66ce 0fbd aed3 1bbd d9d3 503e a2ec a63e
-0.068402864 -0.24283184 -0.17147338 0.18318108 -0.08177359 0.4496606 0.06734139 0.4149951
0.080677085 -0.18819675 0.30756593 -0.07723671 0.33046857 0.028972702 0.12471831 0.053943694
-0.07465137 0.0011055297 0.054954864 0.2457068 0.15531796 -0.26775014 0.0637646 -0.21133673
0.20549999 0.019201389 -0.08092754 0.0622249 -0.24663986 -0.4092826 -0.3520906 0.39939824
-0.052748527 -0.12113131 -0.2844483 0.09901669 -0.11448499 -0.425586 0.06426035 0.17464094
0.22743383 0.18886028 -0.2278291 -0.0038800412 0.0772967 0.2556055 -0.083248384 0.28912264
0.39988822 0.10306908 0.25136238 -0.2591102 0.37240046 -0.04359762 0.037073754 0.03501392
-0.17910273 0.031274416 -0.11666229 0.15128182 0.07459187 -0.014967812 0.27916142 0.22773004
-0.06428016 0.2253794 -0.07558747 0.06549623 0.30335057 0.10805575 -0.020117283 0.087518886
0.29726067 0.27926788 0.015408701 -0.12984832 0.041290972 -0.12682109 0.0034466593 -0.002645299
0.052453857 -0.2439985 -0.19411671 0.047827847 -0.018523829 0.16888025 0.21486615 0.36305133
-0.054233536 -0.39675084 0.2114332 -0.27293065 0.22312328 0.23938046 -0.1024354 -0.14312667
-0.108371064 0.05131785 0.43900314 0.2150686 -0.3207856 -0.19905318 0.25890633 -0.20935555
0.0067871152 0.212078 -0.010514293 0.14418842 -0.09546905 -0.01298644 0.073567234 0.42281076
0.1369163 0.32502016 -0.1493838 0.1445387 -0.5457523 0.17020719 -0.35710666 0.055798087
-0.13371277 0.22372966 -0.10002008 -0.4287477 0.50518227 -0.119167976 0.059108064 -0.23441306
-0.1497674 0.43277606 0.13226785 -0.43062618 0.010625468 -0.011037957 0.14998451 0.3014304
-0.30469063 0.19435032 0.1847689 -0.036765225 -0.24980053 0.15985006 0.44144496 0.10457747
0.3013433 -0.015663886 -0.16474026 -0.3863605 0.29138687 -0.066914044 -0.1644656 -0.010115999
-0.018981075 0.024323788 0.22777264 0.317014 0.099461935 0.06871643 -0.1344138 0.09279216
0.051194143 0.036375824 0.005052298 -0.1605249 0.24908939 -0.028348595 -0.26017803 -0.3287443
0.06988294 0.11707915 0.038792264 -0.047488365 0.037073422 -0.03671376 0.22577372 0.33791715
0.13236907 0.17184913 0.19918184 -0.028599467 0.017685493 -0.16342583 0.27682492 0.22264504
-0.06598628 0.33438024 -0.22380766 -0.11344319 -0.17645346 -0.11317492 0.030035654 0.26148263
-0.1884663 0.05723016 0.06786744 0.22637467 0.26511446 0.31964573 0.22643046 0.1409946
0.19698025 0.2241252 -0.13522913 0.31228378 -0.16476047 -0.24520393 -0.16652252 0.3463399
0.11502927 0.13982652 0.072958104 -0.15097001 0.1708594 -0.04487842 0.036613792 0.25214922
0.016037164 -0.47407645 0.09630712 0.021105666 0.029488659 -0.13285352 0.3843411 0.61860573
0.36081085 -0.16578999 0.1696901 -0.113968514 0.22206613 -0.020127345 0.11690134 0.37641296
0.12484588 0.17812826 0.15051644 -0.014054438 0.28905332 0.20712398 -0.21183118 0.16685744
0.06803704 -0.12120029 0.14830764 0.058096025 0.059408203 0.08025073 0.33279264 0.2952939
-0.04618395 -0.100014836 -0.12193368 0.46548152 -0.035108946 -0.03804367 0.20393313 0.32602412

fc2.bias f4 [128]
00000000: ba9e c93c 179a b03c 2a74 c43b ae3c 003d
00000010: 3113 54bd 12ca 323a 364c 53bd cb60 293c
00000020: b72e 47bb f7a7 8e3c 6802 c3bc 6211 583d
00000030: 0dd3 48bd 6e9e e13c 0dd6 fc3c dbd6 50bd
00000040: 1211 28bb 619d 4f39 f0f5 353d 2b1f efb9
00000050: 1fc3 b13c a03b 723c 1a30 1c3d bd0f 1c3d
00000060: 1b76 df3a 10c9 023c f38a 123d 2a6a 3ebd
00000070: b554 01bb 61bc 29bd 6293 2fbd d655 68bb
00000080: 1365 e3bc e391 383d 1188 38bc ebc1 70bd
00000090: 65f8 6fbd ea0e 393c 0ed9 7dbd 0d79 643d
000000a0: 3d65 3abc 2872 253d c969 7e3d afad 75bd
000000b0: e872 e93c 7671 4ebd c520 0cbd 840b 5ebd
000000c0: 54dc dbbc 39dc fcbc bb16 623d 7e7a 143d
000000d0: b75c 60bc b122 eebc e800 2ebd 6b03 49bc
000000e0: 9328 dabc 4291 093d 6a95 dd3c 0c19 443d
000000f0: 808c 233d 5587 793d bb62 263c 5d77 0d38
00000100: 7506 43bd 6cb3 f93c fcdb 77bc 0ed3 38b9
00000110: f7b7 1b3d a682 503d 04db 1a3d 21e6 413c
00000120: 5996 cf3c 3995 9ebb 276b d8bc aad7 babc
00000130: 3e33 583d 700d cfbb 1d56 2ebd 405f 683d
00000140: eb92 76bd 6e23 543d 475a 5abd a712 52bd
00000150: 32db 18bd 8791 9abc 8621 8bbc acc0 393d
00000160: 46d5 623d 455e c13c 532f 47bd 7eb3 3a3d
00000170: c020 85bc f6a0 213b 12f6 5e3b a7d7 813c
00000180: 3c32 75bd 45bb 57bd 99e3 613d 9dc2 d23c
00000190: 77f2 ebbc 4ab2 7b3d 84fe eebc fb61 20bc
000001a0: 7ed3 98bc 19df 82bc 5734 703d fa86 083c
000001b0: 9c97 fb3b e9c5 dabc 4752 ed3c c9c0 45bd
000001c0: a65b 5dbd dd90 9ebc fa46 b83c 1da6 383d
000001d0: 19e5 08bd 9a66 063d 6b19 2e3d c01d 623c
000001e0: 86e1 0fbd 5ee8 ebbb 8ec3 16bc 39e2 8abc
000001f0: c0e5 d53c 77ae ee3b 1d07 ea3c b067 6f3c
0.02461182 0.02155785 0.005995293 0.03130787 -0.051776115 0.0006820272 -0.051586352 0.010338019
-0.0030392834 0.017414076 -0.023804858 0.052750953 -0.0490294 0.027541365 0.030863786 -0.050986152
-0.002564494 0.00019799687 0.044423997 -0.00045608854 0.021699486 0.0147847235 0.03813181 0.038100947
0.0017048748 0.007982507 0.035777044 -0.046487965 -0.0019734327 -0.041439418 -0.042865165 -0.0035451553
-0.027758157 0.045061003 -0.0112629095 -0.058778685 -0.058586497 0.01129506 -0.061974578 0.055779506
-0.011376676 0.04039207 0.062112603 -0.05998009 0.028497174 -0.050401174 -0.03421094 -0.0542102
-0.02683846 -0.03086673 0.05519746 0.03624963 -0.01369398 -0.029069277 -0.042481333 -0.012268881
-0.026630675 0.033585794 0.027048785 0.04787545 0.039928913 0.06092008 0.010155375 3.3728185e-05
-0.04761358 0.030481063 -0.015128132 -0.00017626231 0.03801724 0.050905846 0.037806526 0.011834652
0.025340246 -0.004839566 -0.026418282 -0.022807915 0.052783243 -0.0063187405 -0.042562593 0.056731462
-0.060198706 0.0517916 -0.05330875 -0.05128732 -0.037318416 -0.018868221 -0.016983759 0.04534976
0.055379175 0.023604522 -0.048629116 0.045581333 -0.016250968 0.002466259 0.003402118 0.015849901
-0.05986236 -0.05266883 0.055148695 0.025727564 -0.02880214 0.061449327 -0.029174097 -0.009788985
-0.018655535 -0.015975522 0.058643665 0.008332962 0.0076779854 -0.026705699 0.028969897 -0.048279557
-0.05404248 -0.019356186 0.022494782 0.045080293 -0.03342161 0.032812692 0.04250471 0.013801038
-0.035127185 -0.007199331 -0.009201897 -0.016953574 0.02611053 0.0072839814 0.028567845 0.014612123

bn2.weight f4 [128]
00000000: 65e0 333f 1b97 813f 5e6b 883f 612a 5f3f
00000010: 74ba 4e3f d366 723f 3a70 413f ced0 373f
00000020: 3419 4a3f 859b 813f 76b5 763f bc62 473f
00000030: 1fa8 803f 26bf 203f 0411 783f fcc0 5e3f
00000040: 90a1 693f 0b9c 3e3f 664d 4a3f 95ff 963f
00000050: 206b 133f 6a86 3c3f cf16 543f 3752 793f
00000060: 2998 6f3f 5976 473f 1e34 5a3f 6b0d 643f
00000070: b031 033f 8549 7e3f d1e6 503f acc9 483f
00000080: 442c 243f 5cf7 403f 043e 553f abe3 6a3f
00000090: fc92 6e3f 8a81 753f 86ab 293f d63a 763f
000000a0: bdc5 643f 7069 533f 5eda 313f 0591 193f
000000b0: 69a2 513f 6041 813f 3876 673f 03ad 823f
000000c0: 5ae3 613f 81b8 5e3f 217b 593f 658f 803f
000000d0: 3d85 3b3f b083 203f 21ec 1b3f a26d 423f
000000e0: c98c 413f 6ab8 413f ec5c 263f bb88 5f3f
000000f0: eb8a 863f de7b 373f 3c77 853f ddfc 883f
00000100: f052 2f3f a1d6 633f 7811 2a3f 6a03 a23f
00000110: d7d9 5b3f 0c59 243f 1f64 243f 6af5 5f3f
00000120: 31d7 7c3f 5c02 8b3f f379 3a3f 65a4 443f
00000130: 41a5 413f 7744 383f 043b 653f c684 923f
00000140: 3cc1 643f 29ad 473f 0298 343f fecb 333f
00000150: 99e5 5b3f 4f25 393f 9da3 233f c418 6a3f
00000160: 23fe 303f 48e6 493f 9e26 5b3f cf1a 813f
00000170: b777 843f 8f27 3f3f 52d9 813f d3f2 3b3f
00000180: aa2f 1b3f 7d49 1e3f 7e45 393f f0b9 423f
00000190: c215 4e3f e9d0 383f c295 283f 607b 2f3f
000001a0: 2f05 623f 7e12 323f ba32 3e3f 420c 323f
000001b0: c85a 2e3f 4d32 4d3f 8c1f 623f dd44 253f
000001c0: da4c 813f 5498 2c3f 622e 893f 7960 423f
000001d0: 3788 583f d6a9 8b3f 42e2 583f b641 503f
000001e0: 3170 633f 540c 253f 0208 713f a43e 693f
000001f0: 4002 633f 168f 573f 6af4 6c3f 8340 6a3f
0.70264274 1.0124239 1.0657766 0.8717404 0.80753255 0.9468815 0.7556187 0.71802986
0.78944707 1.0125586 0.9637064 0.7788503 1.0051306 0.6279167 0.96900964 0.8701322
0.9126215 0.7445685 0.7902435 1.1796747 0.57585335 0.736426 0.82847303 0.97391075
0.9359155 0.7791496 0.85235775 0.89082974 0.5124769 0.9933093 0.816022 0.78432727
0.64130044 0.7537744 0.83297753 0.91753644 0.9319303 0.95900786 0.6627735 0.96183527
0.89364225 0.8258276 0.69473827 0.5998691 0.81888443 1.0098076 0.9041476 1.0209049
0.88237536 0.8700028 0.84953505 1.004376 0.7325018 0.6270094 0.6090718 0.75948536
0.75605446 0.7567202 0.6498554 0.8731801 1.0511144 0.7167338 1.0427012 1.0702168
0.6848593 0.8899937 0.66432905 1.2657292 0.8587927 0.64198375 0.6421527 0.8748385
0.98765856 1.0860095 0.7284233 0.76813346 0.7564278 0.7197947 0.89543176 1.1446769
0.8935735 0.77998596 0.70544446 0.7023314 0.85897213 0.72322553 0.6392153 0.9144404
0.6913778 0.78867006 0.856058 1.0086306 1.0349034 0.74669737 1.0144446 0.73417395
0.60619605 0.61830884 0.7237166 0.7606497 0.8050195 0.7219377 0.6585351 0.6854763
0.8828916 0.69559467 0.7429615 0.69549954 0.6810727 0.8015488 0.88329387 0.645582
1.0101578 0.67419934 1.071728 0.75928456 0.8458285 1.0911205 0.8472024 0.81350267
0.88843066 0.64471936 0.94152844 0.91111207 0.8867531 0.84202707 0.92560446 0.9150469
