checkpoint_2ndCritic.pth (torch_old, 192835 bytes, 13 tensors)

fcs1.weight f4 [256, 48]
0	0x3b749d80	0.0037325323
1	0x3faa8b88	1.3323832
2	0x3cbc06af	0.022952406
3	0x3e84c198	0.2592895
4	0x3ea62345	0.32448784
5	0xbe0fa01b	-0.14025919
6	0x3bdee494	0.006802151
7	0x3e945416	0.28970402
8	0x3d6491e0	0.05580318
9	0x3fc991ae	1.5747583
10	0xbd39ad7d	-0.045331467
11	0xbcc77fc6	-0.02435292
12	0x3e316c7a	0.17326537
13	0xbd890b59	-0.066916175
14	0x3d7a48d4	0.06110461
15	0xbd7ab03d	-0.06120323
16	0x3e03e0a7	0.12878667
17	0x3fed2840	1.8527908
18	0x3c1d9549	0.009618112
19	0x3e805bec	0.2507013
20	0xbda5e49c	-0.081002444
21	0x3f0fa676	0.56113374
22	0x3d4a8617	0.049444284
23	0x3e24f919	0.16110648
24	0xbc8c30be	-0.017113086
25	0xbe8ee74e	-0.27910846
26	0xbb8bd5aa	-0.004267414
27	0xbc672d6f	-0.014109953
28	0xbeca1814	-0.39471495
29	0xbe50f587	-0.20406161
30	0xbd268258	-0.04065165
31	0x3ca1edb8	0.019766673
32	0x3dbb3d95	0.09142605
33	0xbca4de78	-0.020125613
34	0xbac2e0f6	-0.0014868069
35	0xbe0103cd	-0.12599106
36	0xbe638f7b	-0.22222702
37	0xbd27a84e	-0.040931992
38	0xbcb82bef	-0.022481887
39	0xbd8ff2c5	-0.070287265
40	0x3e3ebb82	0.18626216
41	0x3d25760f	0.040395793
42	0xbcb6558b	-0.022257587
43	0xbeb42b51	-0.35189298
44	0x3d1c7dab	0.038205784
45	0x3f0f5d32	0.5600158
46	0xbc7b8ea6	-0.015353834
47	0xbe8cd35e	-0.2750501
48	0xbde87e28	-0.113521874
49	0x3ea624a4	0.3244983
50	0x3c823e66	0.015898895
51	0xbcbeb311	-0.023278745
52	0xbc353f1f	-0.0110624125
53	0xbc06eafe	-0.008234737
54	0xbc850809	-0.016239183
55	0x3d49b412	0.049243994
56	0xbc9f4186	-0.019440424
57	0x3ea21941	0.31659892
58	0xbd32f4c1	-0.043690447
59	0xbdade121	-0.084902056
60	0x3e1034c9	0.14082636
61	0xbdbbb151	-0.0916468
62	0xbd534823	-0.051582467
63	0xbd892c3f	-0.066978924
64	0xbc652127	-0.013984955
65	0x3e7717b2	0.24130133
66	0x3b939ddd	0.0045049028
67	0x3d94fcac	0.07274756
68	0x3e8b30b7	0.27185604
69	0xbebe567c	-0.37175357
70	0xbc67bbf2	-0.014143931
71	0xbc24323c	-0.010021742
72	0x3e4eff0e	0.20214483
73	0x3ef8d10c	0.4859699
74	0x3dab5ade	0.08366941
75	0x3c6f707b	0.01461422
76	0xbd8fbc24	-0.07018307
77	0x3c78db81	0.015189053
78	0x3d1839d3	0.03716452
79	0x3b867fc6	0.0041045872
80	0x3f09e95a	0.5387169
81	0x3eeded10	0.46469927
82	0x3d48a3b7	0.048984256
83	0x3e11eddd	0.14250894
84	0xbe4db0cb	-0.20086972
85	0xbd4c92cd	-0.049944688
86	0x3db4aa6e	0.088215694
87	0x3dd1d8b7	0.10246413
88	0x3f482ee5	0.78196555
89	0x3f41fe5c	0.75778747
90	0x3d2378c9	0.03991011
91	0x3f331c0f	0.6996469
92	0xbe880ad4	-0.2657076
93	0xbe9e11b8	-0.30872893
94	0x3c9d31b7	0.019188745
95	0x3f39511b	0.7238938
96	0x3d1ca356	0.038241707
97	0xbe47d8a9	-0.19516243
98	0x3dc22af5	0.0948085
99	0x3dc59cf0	0.09649074
100	0xbf5fe5d5	-0.8746007
101	0xbe6b7ab1	-0.22996022
102	0x3da549d6	0.08070724
103	0x3e439072	0.1909807
104	0x3cea3335	0.02858887
105	0x3d425a95	0.047449667
106	0xbc8a9ea1	-0.016921343
107	0x3e0d54d5	0.13801892
108	0xbf05f2b0	-0.52323437
109	0xbe7bd1f3	-0.24591808
110	0x3da84964	0.08217123
111	0x3deef314	0.11667457
112	0x3ddb01e3	0.10693719
113	0x3d6f90fe	0.058487885
114	0xbd096938	-0.03354761
115	0x3e24c8e4	0.16092259
116	0x3e17f9e9	0.14841427
117	0xbdebf50f	-0.115213506
118	0x3d6872fc	0.056750283
119	0x3e8c7e86	0.2744028
120	0x3dbe5d8e	0.09295188
121	0x3d4d1cf1	0.05007643
122	0xbc2de45a	-0.010613525
123	0xbd78c1f4	-0.060731843
124	0x3f612ae0	0.8795605
125	0xbe5cde44	-0.21569163
126	0x3d9012d3	0.070348404
127	0xbe0da52e	-0.13832542
128	0xbd6bbeac	-0.057554886
129	0x3c90728e	0.017632749
130	0x3e0e46c9	0.1389419
131	0x3c1bbaea	0.009505013
132	0x3f0c53e2	0.54815495
133	0xbe882262	-0.26588732
134	0x3e001012	0.1250613
135	0x3c924cf4	0.01785896
136	0x3e01a582	0.12660792
137	0x3dcac250	0.099003434
138	0xbd073b77	-0.033015694
139	0x3e2d3497	0.16914593
140	0xbe02eecf	-0.12786411
141	0xbda09445	-0.0784078
142	0xbc472f9b	-0.012157346
143	0x3e6f7a76	0.23386559
144	0x3dec41bb	0.115359746
145	0x3f3b9877	0.7327952
146	0xbdce2fc9	-0.10067708
147	0x3dad22cd	0.08453903
148	0xbf36f40b	-0.7146613
149	0x3e4b45ea	0.19850889
150	0xbe0d15ef	-0.13777898
151	0x3dddaaaa	0.10823567
152	0x3e094c91	0.13408114
153	0x3f4058e6	0.7513565
154	0xbc7e5469	-0.015523055
155	0xbd0dd87b	-0.03463028
156	0xbf29e29c	-0.66361403
157	0xbcb5aef4	-0.02217815
158	0x3d32e472	0.043674894
159	0xbe174436	-0.14772114
160	0x3d9660c9	0.07342679
161	0x3f2e5cb5	0.6811021
162	0x3cd74c24	0.026281424
163	0x3d6e8042	0.058227785
164	0xbf00e6c1	-0.503521
165	0xbe268444	-0.16261393
166	0xbd0e89e2	-0.034799464
167	0x3dd45694	0.10368076
168	0x3cb1e3d5	0.021715084
169	0xbe95ea22	-0.29280192
170	0xbc505336	-0.0127151515
171	0x3a5cd3eb	0.0008423912
172	0x3f2e90ce	0.68189704
173	0x3ddc0a56	0.10744159
174	0x3cba0966	0.02270956
175	0x3d4ca045	0.049957532
176	0xbdb1d977	-0.08684056
177	0xbef03a9b	-0.46919712
178	0x3d852ab8	0.065022886
179	0xbce50c78	-0.027960047
180	0x3f2a4a55	0.6651967
181	0x3c4a7b6a	0.012358526
182	0xbd2aa9e9	-0.041665945
183	0xbd902566	-0.07038383
184	0x3c0648be	0.008196054
185	0xbf01f6da	-0.5076729
186	0x3ca3520b	0.019936582
187	0xbcd05257	-0.025429888
188	0x3f085fd9	0.5327125
189	0xbe3bc93d	-0.18338485
190	0x3be88557	0.0070959735
191	0xbd2fe72f	-0.042945083
192	0xbd6091d9	-0.05482659
193	0xbeb4886b	-0.3526033
194	0x3cc70a27	0.024296833
195	0xbebf1d44	-0.37327015
196	0xbea06a58	-0.31331134
197	0xbe4dee7a	-0.20110503
198	0xbd48b362	-0.048999198
199	0xbecbdfb5	-0.39819112
200	0xbbf5417b	-0.0074846125
201	0xbeca342d	-0.39492932
202	0xbd96b079	-0.07357878
203	0xbeea5c17	-0.45773384
204	0xbe872bec	-0.26400697
205	0xbcb92e34	-0.02260504
206	0xbd78eb6c	-0.06077139
207	0xbebcd43c	-0.36880672
208	0xbd5cffee	-0.05395501
209	0xbf130278	-0.5742564
210	0xbdafae35	-0.08578149
211	0xbf0642d6	-0.52445734
212	0xbe855e87	-0.2604868
213	0x3dbb6c1c	0.091514796
214	0xbd2a7ace	-0.041621022
215	0xbf048c9f	-0.5177707
216	0x3da2157b	0.07914253
217	0x3e402ec7	0.18767844
218	0xbe40a204	-0.18811804
219	0xbec158a6	-0.37762946
220	0x3e95cab2	0.29256207
221	0xbe0bdf67	-0.1365944
222	0xbe3ca576	-0.18422493
223	0xbeb9f07d	-0.3631629
224	0x3def7067	0.11691361
225	0x3e8a4d16	0.27011937
226	0x3d67497c	0.056466565
227	0xbd33fa12	-0.043939658
228	0x3eb2b179	0.34901026
229	0xbddc5c72	-0.1075982
230	0x3e18ea37	0.14933096
231	0x3d5ebb15	0.054377634
232	0x3dac51d7	0.08414047
233	0x3e924e14	0.28575194
234	0xbd443af5	-0.04790779
235	0xbe05a988	-0.13052952
236	0x3e90b268	0.28261113
237	0x3ccc9a6f	0.024975983
238	0x3c42dd3e	0.011893569
239	0xbe412eb9	-0.1886548
240	0x3d3edf21	0.04659951
241	0xbe252bee	-0.16130039
242	0x3b5366b4	0.003225726
243	0x3e9012fc	0.28139484
244	0xbe711f88	-0.23547184
245	0x3f5e22dc	0.8677194
246	0x3c83617b	0.016037693
247	0x3ea9e51d	0.33182612
248	0x3dbe16ab	0.09281667
249	0x3aeb21ee	0.0017939189
250	0xbaa1147a	-0.0012289428
251	0xbce3c1b5	-0.027802328
252	0xbe70cb52	-0.2351506
253	0x3eb362d4	0.35036337
254	0x3c68b4db	0.014203276
255	0x3b6bace3	0.0035961203

fcs1.bias f4 [256]
0	0xbe9df39f	-0.3084993
1	0xbedb7459	-0.42862204
2	0x3dbeb136	0.09311144
3	0xbe86043b	-0.26175103
4	0xbe01c254	-0.12671787
5	0xbebd1007	-0.3692629
6	0xbe84e2c8	-0.2595427
7	0x3d4da07e	0.050201885
8	0xbe15cf51	-0.14629866
9	0x3d846a5c	0.06465599
10	0xbf05dc83	-0.522896
11	0xbe61b95a	-0.22043362
12	0xbd88133a	-0.06644292
13	0xbcb26986	-0.021778833
14	0xbe385b12	-0.1800349
15	0xbe1b3701	-0.15157701
16	0xbdbd36ee	-0.09238993
17	0xbe921adc	-0.28536117
18	0xbe114d4d	-0.14189644
19	0x3d0d99e8	0.034570605
20	0x3c0498f9	0.008093112
21	0xbe705319	-0.23469199
22	0x3dac1859	0.084030814
23	0x3cb65d8c	0.022261404
24	0xbde35068	-0.11099321
25	0x3e76fb58	0.24119318
26	0x3dd08732	0.101820365
27	0xbebc88fd	-0.36823264
28	0xbe279c10	-0.16368127
29	0xbe9ced33	-0.3064972
30	0xbe6a6ab9	-0.22892274
31	0xbbdea35b	-0.006794376
32	0xbe2f3cc1	-0.1711302
33	0xbe8cff96	-0.27538747
34	0xbddeb74c	-0.10874805
35	0xbe87604b	-0.26440653
36	0xbed52543	-0.4162999
37	0xbe9f4789	-0.31109264
38	0xbf0c9ebf	-0.5492973
39	0xbebdccb1	-0.3707023
40	0xbe41260d	-0.18862171
41	0xbdb56d90	-0.08858788
42	0xbdb321d3	-0.08746686
43	0xbde25a5d	-0.11052392
44	0xbe8ba1af	-0.27271792
45	0xbe977868	-0.2958405
46	0x3d989dcf	0.074519746
47	0xbea7a98a	-0.32746536
48	0x3dd55e15	0.10418335
49	0x3e944ac9	0.28963307
50	0xbeae8d29	-0.34092072
51	0xbe854bcd	-0.26034394
52	0xbe0e29d5	-0.13883145
53	0xbd58a153	-0.052888226
54	0xbe91e603	-0.28495798
55	0x3e2a0d40	0.16606617
56	0xbe6af965	-0.22946699
57	0xbba8d41f	-0.00515224
58	0xbe35fbab	-0.17771785
59	0xbe9e2381	-0.30886462
60	0xbe0199ce	-0.12656328
61	0xbe0d4b5b	-0.13798277
62	0xbef97a7c	-0.4872626
63	0xbe8d9ae4	-0.27657235
64	0xbd379b30	-0.044825733
65	0xbd80bc6b	-0.06285938
66	0xbd750c72	-0.059826322
67	0xbdf0b9bf	-0.11754178
68	0xbf11b67d	-0.5691908
69	0xbe66bc6f	-0.22532819
70	0xbdf2fb3e	-0.11864327
71	0xbf0e8ea2	-0.5568639
72	0xbddf08d5	-0.108903565
73	0xbe93f324	-0.2889644
74	0x3e0dcede	0.13848445
75	0x3d808ca1	0.06276823
76	0xbea4bdd4	-0.32176077
77	0xbec384c4	-0.3818723
78	0xbe84dc83	-0.25949487
79	0xbf0110d3	-0.50416297
80	0xbda97ebe	-0.08276127
81	0x3e84bd3e	0.2592563
82	0xbc208ec3	-0.009799662
83	0xbd45a498	-0.048252672
84	0x3d05ec7c	0.032696232
85	0xbe33711c	-0.17523617
86	0xbe232b04	-0.15934378
87	0xbe10a7e9	-0.14126553
88	0x3d7bed33	0.061505508
89	0x3e055671	0.13021256
90	0xbecab53b	-0.39591393
91	0xbdf7c726	-0.120985314
92	0xbe119443	-0.14216714
93	0x3dee33a1	0.11630941
94	0xbdfea4f7	-0.12433808
95	0xbee75d12	-0.45188195
96	0xbe31f146	-0.17377195
97	0x3e8e6d98	0.27817988
98	0x3df43651	0.119244225
99	0xbcf1f75b	-0.029536894
100	0xbea2836e	-0.31740898
101	0xbe8ffe45	-0.2812368
102	0xb936ff30	-0.00017451937
103	0xbe90869a	-0.28227693
104	0xbe8fef35	-0.28112188
105	0xbde62049	-0.11236627
106	0xbe0dee65	-0.13860472
107	0xbf0a91b9	-0.54128605
108	0x3da6bb10	0.08141148
109	0x3df5b0d9	0.11996622
110	0xbe41d4da	-0.18928853
111	0xbe269c4b	-0.16270559
112	0xbe1800a2	-0.14843991
113	0xbefbe00f	-0.4919438
114	0xbd918c59	-0.07106847
115	0xbed09d64	-0.4074508
116	0xbe9bd941	-0.3043919
117	0xbe8f46ed	-0.279838
118	0xbe129a95	-0.14316781
119	0xbe827ed5	-0.2548739
120	0xbeaf2f02	-0.34215552
121	0xbeeb7bcb	-0.45992884
122	0xbe48aaf9	-0.19596471
123	0xbdbd274f	-0.09236013
124	0xbdf41e98	-0.11919898
125	0xbeb4a739	-0.3528383
126	0xbdb60757	-0.08888119
127	0xbe9cc1c2	-0.30616575
128	0x3e3a63d8	0.1820215
129	0xbeab9222	-0.33509928
130	0xbe2307b7	-0.15920912
131	0xbdbad48f	-0.091225736
132	0xbe686cdd	-0.22697778
133	0xbe9270a7	-0.28601572
134	0xbdbb25b4	-0.09138051
135	0x3dcae80f	0.09907543
136	0x3d919909	0.07109267
137	0xbeffcf45	-0.49962822
138	0xbd9e71d3	-0.07736554
139	0xbef8c51b	-0.4858788
140	0xbe27ed34	-0.1639908
141	0xbf162908	-0.5865636
142	0x3d5fc704	0.054633155
143	0xbda236c9	-0.07920606
144	0x3d29de60	0.04147184
145	0xbdae33fe	-0.085060105
146	0x3dee93fa	0.11649318
147	0xbe78e9bb	-0.24307911
148	0x3db01575	0.085978426
149	0xbdc9fe16	-0.09862916
150	0x3d7854c5	0.060627718
151	0xbdbf7640	-0.09348726
152	0xbe5d37a0	-0.2160325
153	0xbe8ce342	-0.27517134
154	0x3db9e3d8	0.09076661
155	0xbeb3ab84	-0.35091794
156	0xbea54725	-0.3228084
157	0xbd9eecb3	-0.077599905
158	0xbeb96fa6	-0.36217993
159	0xbd21c676	-0.039495908
160	0xbfa8e2cb	-1.3194212
161	0x3cd16077	0.025558693
162	0xbf0262ff	-0.50932306
163	0xbec9a5a0	-0.39384174
164	0xbe3a5c97	-0.18199383
165	0xbee2f2fa	-0.44326
166	0xbea55c1d	-0.3229684
167	0x3e145de7	0.14488946
168	0xbdcb50f9	-0.09927554
169	0x3e2f08fb	0.1709327
170	0xbda9a5b7	-0.08283561
171	0xbe46bca2	-0.19407895
172	0x3dd0ca9b	0.10194894
173	0xbeb37a41	-0.3505421
174	0xbf0a00ae	-0.5390729
175	0xbebdf37d	-0.3709983
176	0xbdf64ebf	-0.120267384
177	0xbe400cfc	-0.18754953
178	0xbe115167	-0.14191209
179	0x3e607337	0.21918951
180	0x3d93cca1	0.07216764
181	0xbedfeee0	-0.43736935
182	0xbcc16aff	-0.02361059
183	0xbeabf3ba	-0.33584386
184	0xbe4b2e23	-0.19841819
185	0xbf0ed624	-0.557955
186	0x3db7e7c5	0.089797534
187	0x3de7e902	0.113237396
188	0xbe1beab9	-0.15226258
189	0xbdf42939	-0.11921925
190	0x3cb95f8d	0.02262857
191	0x3d88c51a	0.06678219
192	0xbc6dc424	-0.014512096
193	0xbe3b4733	-0.18288879
194	0x3dc85f00	0.09783745
195	0x3d828cf1	0.06374539
196	0xbeaebe6f	-0.34129664
197	0xbe2a74a9	-0.16646065
198	0xbe4a3c8e	-0.19749662
199	0xbe8adeba	-0.27123052
200	0xbdd3a086	-0.10333352
201	0xbe4dedca	-0.2011024
202	0xbe14aa36	-0.14518055
203	0xbe4bdf07	-0.19909297
204	0xbe5b7533	-0.21431427
205	0xbe8494e1	-0.25894836
206	0xbe29ff18	-0.16601217
207	0xbe02cc43	-0.12773232
208	0xbe7754c6	-0.24153432
209	0xbc925a7a	-0.017865408
210	0xbf211f4d	-0.62938386
211	0xbe36fba2	-0.17869428
212	0xbdb3e2b0	-0.087834716
213	0xbe0071ec	-0.12543458
214	0xbbc5b166	-0.0060331104
215	0xbb8b9111	-0.0042592366
216	0xbe902616	-0.28154057
217	0xbc596158	-0.013267837
218	0xbe621f88	-0.2208234
219	0xbe1d333b	-0.15351574
220	0xbd87ff25	-0.06640462
221	0xbcf44cca	-0.029821772
222	0xbe9a5a95	-0.30147234
223	0x3d6418eb	0.055687826
224	0xbe25fb42	-0.16209128
225	0x3c05c127	0.008163727
226	0xbd39ca9c	-0.04535924
227	0xbdefff0f	-0.117185704
228	0xbd8dc42e	-0.06922184
229	0xbf65c13f	-0.89747995
230	0xbe35615d	-0.17712922
231	0xbe007dae	-0.12547943
232	0xbf3bbd9f	-0.73336214
233	0xbe9f6e17	-0.3113868
234	0xbd43454a	-0.0476735
235	0xbea1b9c5	-0.31587043
236	0xbcea7008	-0.028617874
237	0xbe817029	-0.25280884
238	0x3be0bc09	0.006858353
239	0xbeeb4a43	-0.45955095
240	0x3da25656	0.079266235
241	0xbe7f6bb1	-0.24943425
242	0xbe92d2bf	-0.28676412
243	0xbe5932ec	-0.21210831
244	0xbed28219	-0.41114882
245	0xbe22ef72	-0.15911654
246	0xbeb5c724	-0.35503495
247	0xbe8b4c65	-0.27206722
248	0xbc89e492	-0.016832624
249	0xbeb8f390	-0.36123323
250	0xbee76499	-0.45193937
251	0xbe1a774c	-0.1508457
252	0xbd313731	-0.043265525
253	0xbd8fa42c	-0.07013735
254	0xbd9bd060	-0.07608104
255	0xbe40bd50	-0.18822217

bn1.weight f4 [256]
0	0x3f01e969	0.5074678
1	0x3eb882cb	0.36037287
2	0x3f245174	0.6418679
3	0x3ee56301	0.44802096
4	0x3eefd769	0.46844032
5	0x3e5059d0	0.20346761
6	0x3f677f10	0.90428257
7	0x3f1e161d	0.6175249
8	0x3dccbf2d	0.099974014
9	0x3e8c38e8	0.27387166
10	0x3fc386c5	1.5275503
11	0x3e33efe6	0.17571983
12	0x3d98c118	0.07458705
13	0x3df210e6	0.11819629
14	0x3e6a7b36	0.22898564
15	0x3eab5f4b	0.3347114
16	0x3e295842	0.16537574
17	0x3ebf86d7	0.37407562
18	0x3ec269b3	0.37971267
19	0x3ed406f8	0.41411567
20	0x3e73c995	0.23807366
21	0x3e188fee	0.14898655
22	0x3eeeaae6	0.4661476
23	0x3f099c80	0.53754425
24	0x3ead5f61	0.3386183
25	0x3e95c670	0.29252958
26	0x3edcfdba	0.43162328
27	0x3f6c9a4e	0.9242295
28	0x3e9cb2ed	0.3060526
29	0x3ec56d52	0.38559967
30	0x3e2a10c7	0.16607963
31	0x3ea28f25	0.31749836
32	0x3e6ffd04	0.23436362
33	0x3e2ad37c	0.16682237
34	0x3e427cf7	0.18992983
35	0x3ceee8d5	0.029163757
36	0x3e2fe2e2	0.17176393
37	0x3eab62b0	0.3347373
38	0x3e074c1d	0.13212629
39	0x3e94cc80	0.2906227
40	0x3e83979f	0.25701615
41	0x3f1936a9	0.5984903
42	0x3ec2bdcb	0.38035426
43	0x3de450cc	0.11148223
44	0x3f6e9cdc	0.932081
45	0x3f209d8c	0.627404
46	0x3ee3bf21	0.44481757
47	0x3ea0808b	0.3134807
48	0x3e66962c	0.22518224
49	0x3da53c19	0.08068103
50	0x3f3aaf3f	0.72923654
51	0x3e021580	0.12703514
52	0x3f06b13a	0.52614176
53	0x3ed84c7e	0.4224586
54	0x3ecc7ab1	0.39937356
55	0x3eea98dd	0.4581975
56	0x3e79f4fb	0.24409859
57	0x3dd5d164	0.10440329
58	0x3ec659af	0.38740298
59	0x3e8255cb	0.2545608
60	0x3f1c25c9	0.60995156
61	0x3e5ca1c1	0.21546079
62	0x3e424841	0.18972875
63	0x3e230520	0.15919924
64	0x3c566edd	0.013087955
65	0x3f0867c3	0.5328333
66	0x3e26ca7c	0.16288179
67	0x3eb869e3	0.36018285
68	0x3e9609ec	0.29304445
69	0x3e5fff57	0.21874748
70	0x3eb307f0	0.34966993
71	0x3e922bed	0.28549138
72	0x3f19968d	0.5999535
73	0x3f3b17ce	0.730832
74	0x3f09667b	0.53672
75	0x3dd00e53	0.10158982
76	0x3f22eee7	0.63645786
77	0x3e415ab5	0.18882258
78	0x3f10aaeb	0.565108
79	0x3e7f5043	0.24932961
80	0x3e9ee755	0.31035867
81	0x3e3b9188	0.18317235
82	0x3e881430	0.26577902
83	0x3f28a839	0.6588169
84	0x3ee2d2ff	0.44301602
85	0x3e1b2032	0.15149
86	0x3f396270	0.7241583
87	0x3eddefd0	0.43347025
88	0x3ddfcf0b	0.10928162
89	0x3ef680ff	0.4814529
90	0x3de47c58	0.11156529
91	0x3ee194b8	0.44058776
92	0x3e1bfa0a	0.15232101
93	0x3f0725cd	0.52792054
94	0x3e81afc9	0.25329426
95	0x3f092dc1	0.5358544
96	0x3e2b7e87	0.16747485
97	0x3f807cee	1.0038126
98	0x3f1a7d11	0.60347086
99	0x3e6658e4	0.22494847
100	0x3e2ebdb5	0.17064555
101	0x3e812078	0.25220084
102	0x3ee09608	0.43864465
103	0x3e4d9c9e	0.20079276
104	0x3e1a1f40	0.15050983
105	0x3e090cd6	0.13383803
106	0x3e7540e5	0.23950537
107	0x3f415a25	0.75528175
108	0x3e589325	0.21149881
109	0x3e3c5fcb	0.18395917
110	0x3ec7fc48	0.39059663
111	0x3ee70a87	0.4512522
112	0x3ebde9f2	0.3709255
113	0x3ebab79f	0.36468217
114	0x3ee999ae	0.4562506
115	0x3e076e71	0.13225724
116	0x3dc54b28	0.096334755
117	0x3f117b0c	0.5682838
118	0x3d6e5700	0.05818844
119	0x3e2d0f44	0.16900355
120	0x3df53702	0.119733825
121	0x3e3edddf	0.18639325
122	0x3ebab328	0.3646481
123	0x3ed53c52	0.41647583
124	0x3e57528c	0.21027583
125	0x3f0cf0af	0.55054754
126	0x3e265ded	0.16246767
127	0x3ed63e4e	0.4184441
128	0x3ebd2290	0.36940432
129	0x3e52b9d3	0.20578699
130	0x3e50171f	0.2032132
131	0x3e4e9530	0.20174098
132	0x3eafdb68	0.3434708
133	0x3e13926b	0.14411323
134	0x3e8dc3ee	0.27688545
135	0x3e7f13f5	0.24909957
136	0x3e9272e5	0.28603283
137	0x3f13ffc0	0.5781212
138	0x3e97e6a4	0.29668152
139	0x3efed20d	0.4976963
140	0x3df66b4f	0.12032186
141	0x3e401e35	0.18761523
142	0x3cc36ecf	0.023856549
143	0x3e83b66e	0.2572512
144	0x3e0c6368	0.13709795
145	0x3df26e23	0.11837413
146	0x3e9488fa	0.29010755
147	0x3e08881f	0.13333176
148	0x3e3b4f7d	0.18292041
149	0x3eb717cc	0.35760343
150	0x3ed09758	0.40740466
151	0x3eb3e1fb	0.35133347
152	0x3ec86b79	0.39144495
153	0x3e9fcad5	0.31209436
154	0x3ed067d9	0.4070423
155	0x3f3087ad	0.68957025
156	0x3e39117e	0.18073079
157	0x3e402882	0.18765453
158	0x3dc692f6	0.09695999
159	0x3ecfe9b8	0.40608
160	0x3ede2c5f	0.43393227
161	0x3e90e34d	0.28298417
162	0x3f016f11	0.505601
163	0x3ee9971b	0.45623097
164	0x3eeb7058	0.4598415
165	0x3f56521c	0.8371904
166	0x3e31ccfd	0.17363353
167	0x3ef511cc	0.4786514
168	0x3e9ce5e3	0.3064414
169	0x3f736b29	0.9508539
170	0x3ebaab6d	0.36458912
171	0x3e5f178b	0.21786325
172	0x3f0d92c3	0.55302066
173	0x3e5ff6b4	0.21871454
174	0x3f383783	0.71959704
175	0x3ee870a1	0.4539843
176	0x3ee5f261	0.44911483
177	0x3e35008c	0.1767599
178	0x3ec02e9c	0.3753556
179	0x3ec56c63	0.38559255
180	0x3ebd4771	0.36968568
181	0x3f711fb9	0.9418903
182	0x3ec931a7	0.39295694
183	0x3e5872c3	0.21137528
184	0x3e8b03aa	0.27151233
185	0x3e8dd4c3	0.27701387
186	0x3e6ebc61	0.23314048
187	0x3e8435ec	0.2582239
188	0x3f80e242	1.0069048
189	0x3ec82a62	0.39094836
190	0x3f167fb2	0.587886
191	0x3e36f101	0.17865373
192	0x3dffb6d6	0.12486045
193	0x3e6873c6	0.22700414
194	0x3e8c725a	0.27430993
195	0x3e906b0d	0.28206673
196	0x3f2df2c7	0.67948574
197	0x3f301c0f	0.68792814
198	0x3e45827e	0.1928806
199	0x3f6795cb	0.9046294
200	0x3ec16103	0.37769327
201	0x3ec5597f	0.38544843
202	0x3ca2ebe7	0.019887878
203	0x3ec5e883	0.38653955
204	0x3f1dc55f	0.6162929
205	0x3e320c44	0.17387491
206	0x3e324f15	0.1741298
207	0x3ee0b902	0.4389115
208	0x3ee37eec	0.4443277
209	0x3f29408f	0.66114134
210	0x3f8424cf	1.0323733
211	0x3e8beab4	0.27327502
212	0x3e60ac32	0.21940687
213	0x3e801339	0.25014666
214	0x3e9d213a	0.30689412
215	0x3e985a30	0.29756308
216	0x3eeacc4a	0.45858985
217	0x3e7f6ee4	0.24944645
218	0x3e928bb8	0.28622222
219	0x3e578f2a	0.21050707
220	0x3e48942d	0.19587775
221	0x3ec6f032	0.3885513
222	0x3eb43a4a	0.3520072
223	0x3ee02031	0.4377456
224	0x3f115c61	0.56781584
225	0x3f08d753	0.5345356
226	0x3eaf173e	0.3419742
227	0x3eb025da	0.34403878
228	0x3de13efc	0.109983414
229	0x3fa49c89	1.2860271
230	0x3ecf3c5e	0.40475744
231	0x3eab2ab7	0.33431026
232	0x3f07ca18	0.53042746
233	0x3d1f26d7	0.0388554
234	0x3e0a27e5	0.13491781
235	0x3e724d7e	0.23662373
236	0x3e7ed569	0.24886097
237	0x3f2a5dec	0.66549563
238	0x3ecfea41	0.4060841
239	0x3e1f3a26	0.15549526
240	0x3f203450	0.6257982
241	0x3e7026e5	0.23452337
242	0x3dbdf394	0.092749745
243	0x3edc99dd	0.43086138
244	0x3ec70a48	0.3887503
245	0x3e4ed960	0.2020011
246	0x3e8b8b46	0.27254695
247	0x3eedaebc	0.46422374
248	0x3eaa4cc0	0.3326168
249	0x3e8dc5db	0.27690014
250	0x3e5d98b2	0.2164028
251	0x3dec22c9	0.11530072
252	0x3e45a92e	0.19302818
253	0x3e636d7d	0.22209735
254	0x3e7f9c4c	0.24961966
255	0x3f162e0d	0.5866402

bn1.bias f4 [256]
0	0x3de27f0a	0.11059387
1	0x3e6e57cd	0.23275681
2	0x3ee358dd	0.44403735
3	0x3ea3d718	0.3200004
4	0x3e770dce	0.2412636
5	0xbd28994b	-0.041161817
6	0x3e939525	0.28824726
7	0x3eb3757e	0.35050577
8	0x3b2e7add	0.0026623525
9	0x3de31306	0.11087613
10	0x3ed84dde	0.42246908
11	0xbdff61e9	-0.12469847
12	0x3cdfcd45	0.02731956
13	0xbd92e71f	-0.07172989
14	0x3dab5210	0.083652616
15	0x3e1b2d56	0.15154013
16	0xbc978f6e	-0.01850101
17	0x3e5de257	0.21668373
18	0x3e0c62e3	0.13709597
19	0x3ed81f29	0.42211273
20	0x3df90670	0.12159431
21	0x3e566174	0.20935613
22	0x3eeea20d	0.4660801
23	0x3e8c8676	0.27446336
24	0x3dfec7b0	0.12440431
25	0x3e83ce69	0.25743416
26	0x3e4d29a7	0.2003542
27	0x3f2debc4	0.67937875
28	0x3e7908f8	0.24319828
29	0x3ef091fe	0.46986383
30	0x3d201e66	0.03909149
31	0x3e452016	0.19250521
32	0x3dc853fd	0.097816445
33	0x3d196aa9	0.037455235
34	0x3db288c5	0.08717493
35	0xbc02f789	-0.007993587
36	0x3d5efc5c	0.054439887
37	0x3de837c8	0.113387644
38	0xbcaa285b	-0.020771196
39	0x3d58e928	0.05295673
40	0x3e0ee4a4	0.13954407
41	0x3e143761	0.1447425
42	0x3e63d78c	0.22250193
43	0x3c8ea245	0.01741136
44	0x3f06ddc1	0.5268212
45	0x3e2c1846	0.16806135
46	0x3e9a4a23	0.30134687
47	0x3db0697a	0.08613868
48	0x3d952025	0.07281522
49	0x3c08cd5b	0.008349742
50	0x3e9248ac	0.2857107
51	0x3b962969	0.004582573
52	0x3e5e9cbe	0.2173948
53	0x3e18dcb0	0.14927936
54	0x3e688bbf	0.22709559
55	0x3e1fb5af	0.1559665
56	0x3dfd094e	0.1235529
57	0x3d244c50	0.04011184
58	0x3e4a2512	0.19740704
59	0x3db11eb5	0.08648435
60	0x3edf021d	0.435563
61	0x3cf32ad9	0.029683517
62	0x3e1f9a95	0.15586312
63	0xbdd2da51	-0.10295547
64	0x3c21e01f	0.009880095
65	0x3e77edb1	0.24211766
66	0xbe0070e1	-0.1254306
67	0x3e26f925	0.16305979
68	0x3e283162	0.16425088
69	0x3dc2b366	0.09506874
70	0x3e345423	0.1761022
71	0x3df2bf01	0.11852837
72	0x3e8a9519	0.27066877
73	0x3e9a5045	0.30139366
74	0x3eb743ab	0.35793814
75	0x3d43b203	0.047777187
76	0x3e9b604e	0.30346912
77	0x3c913c46	0.017728936
78	0x3eca1b9e	0.39474195
79	0xbd9e0db4	-0.077174574
80	0x3e0ab7a5	0.13546617
81	0x3d41a5f7	0.047277417
82	0x3deed19e	0.11661075
83	0x3e96ca10	0.29451036
84	0x3e7f0b67	0.24906693
85	0x3d21b09e	0.039475076
86	0x3edb8d94	0.42881453
87	0x3e2bc88e	0.16775724
88	0x3ca105de	0.019656118
89	0x3e870902	0.2637406
90	0xbd01245f	-0.031528827
91	0x3ddb6259	0.10712118
92	0x3d2db456	0.04240831
93	0x3e09f013	0.13470487
94	0x3e83d346	0.25747126
95	0x3da16489	0.07880504
96	0x3d7a24fe	0.061070435
97	0x3ef9347a	0.4867285
98	0x3e90e40f	0.28298995
99	0x3e3f47a5	0.18679674
100	0x3cf6faf4	0.03014896
101	0x3ca4ac64	0.020101734
102	0x3e30d09a	0.17267075
103	0x3c666afb	0.014063592
104	0x3d3b18de	0.045678012
105	0x3d17212d	0.036896873
106	0x3ca3461c	0.019930892
107	0x3e83f95e	0.2577619
108	0xbe18ee00	-0.1493454
109	0x3ebd4ac3	0.369711
110	0x3e90b754	0.28264868
111	0x3e697794	0.22799522
112	0x3e195883	0.14975171
113	0xbe19e57f	-0.15028952
114	0x3e56416d	0.20923395
115	0xbb9e3256	-0.004827778
116	0xbb985292	-0.004648515
117	0x3ebea406	0.37234515
118	0xbadffdfe	-0.0017089245
119	0x3d68612d	0.0567333
120	0x3ccd8f5c	0.025092773
121	0xbd3f6747	-0.046729352
122	0x3dce4b17	0.10072916
123	0x3e225d70	0.15855956
124	0x3db41a97	0.08794134
125	0x3ee28ea2	0.44249445
126	0x3cb746db	0.022372654
127	0x3e0ca6b6	0.1373547
128	0x3e46a4f0	0.19398856
129	0x3d7a3bf9	0.06109235
130	0x3d6f41d9	0.058412407
131	0x3d68680f	0.056739863
132	0x3ebda1d3	0.37037525
133	0x3d33865c	0.043829307
134	0x3dea42cc	0.11438522
135	0xbdefd56e	-0.1171063
136	0x3daa6d2f	0.08321606
137	0x3ea4210e	0.3205647
138	0x3d966668	0.07343751
139	0x3e8321e1	0.25611785
140	0x3a1960f0	0.00058509316
141	0x3d84154c	0.064493746
142	0x3b247c40	0.0025098473
143	0x3d8b8765	0.06812934
144	0x3c81199a	0.015759278
145	0x3ca9c4c6	0.020723712
146	0x3de2fe2d	0.110836364
147	0xbdfe2bef	-0.124107234
148	0x3cbb592d	0.02286967
149	0x3e89e13e	0.2692966
150	0x3e0c6ae4	0.1371265
151	0x3dcee687	0.10102563
152	0x3e733e71	0.23754288
153	0x3e22e8a9	0.15909065
154	0x3dd14e7f	0.1022005
155	0x3dea880b	0.114517294
156	0x3d4095f5	0.04701801
157	0x3bbfe8cd	0.0058566094
158	0x3bf53d23	0.0074840947
159	0x3e6cd542	0.23128226
160	0xbe3b7205	-0.18305214
161	0x3dd98624	0.106212884
162	0x3e0731af	0.13202547
163	0x3e4105c2	0.18849853
164	0x3e809887	0.2511637
165	0x3e74e077	0.23913752
166	0x3e2126b7	0.15737425
167	0x3e690edb	0.22759573
168	0x3e6ff8c6	0.23434743
169	0x3e5d3b6a	0.21604696
170	0x3de4c6cb	0.11170729
171	0x3d8cdea3	0.06878402
172	0x3e4c8895	0.19973977
173	0x3e1c09d4	0.15238124
174	0x3e89483e	0.2681293
175	0x3e20f1c3	0.15717225
176	0x3ea13c12	0.31491143
177	0xbd008304	-0.031374946
178	0x3ddeccce	0.10878907
179	0x3e029a05	0.12754066
180	0x3d896006	0.06707768
181	0x3f348ddb	0.70528954
182	0x3df9bf51	0.12194694
183	0x3d918726	0.07105856
184	0x3debcf0f	0.11514103
185	0xbd17437c	-0.036929592
186	0x3d8566da	0.06513758
187	0x3d8da1f2	0.06915654
188	0x3eb0c00e	0.34521526
189	0xbbb3493f	-0.005471378
190	0x3edd38b6	0.4320733
191	0x3d42c832	0.047554202
192	0xbd88318b	-0.066500746
193	0x3d874123	0.06604221
194	0x3da1eb97	0.07906263
195	0x3e3c821e	0.18409011
196	0xbc69bad5	-0.014265736
197	0x3e95e6f3	0.29277763
198	0x3dbd619c	0.09247133
199	0x3f042dc2	0.5163232
200	0x3e3c04b1	0.18361165
201	0x3dbdcc42	0.09267475
202	0xbb2cad20	-0.0026348308
203	0x3e2c0872	0.16800097
204	0x3e6d9391	0.23200823
205	0x3db86872	0.09004296
206	0x3ca28658	0.01983945
207	0x3e151942	0.14560416
208	0x3de8a0ee	0.1135882
209	0x3edbe178	0.42945457
210	0xbd052bd5	-0.032512505
211	0x3d9ef320	0.07761216
212	0x3df003de	0.117194876
213	0x3d5e1729	0.054221306
214	0x3e365ed5	0.17809613
215	0x3f165b59	0.58733135
216	0x3e9c7a25	0.3056194
217	0x3d9a84e7	0.0754488
218	0x3d4bd244	0.04976107
219	0x3f17b29c	0.5925691
220	0x3d949770	0.07255447
221	0x3e22e6c5	0.15908344
222	0x3e2ac61c	0.16677135
223	0x3e665139	0.22491921
224	0x3ecd22c6	0.40065593
225	0x3da1985c	0.07890388
226	0x3e06f39b	0.13178866
227	0x3d8ce4f1	0.068796046
228	0xbc804f5f	-0.015662847
229	0x3e7aa12c	0.24475545
230	0x3e938914	0.2881552
231	0x3dde33a0	0.108496904
232	0x3d7e96f5	0.062155683
233	0xbc56d559	-0.0131123895
234	0x3ce3b9c3	0.027798539
235	0x3d4fc569	0.050725374
236	0x3df1220b	0.11774071
237	0x3ee0973c	0.43865383
238	0x3e3a5299	0.18195571
239	0x3c9bce19	0.019019173
240	0x3eefa4d9	0.46805456
241	0x3d7675d5	0.060170967
242	0x3af5d3a7	0.0018755094
243	0x3ecae3f1	0.3962703
244	0x3e2d834b	0.16944616
245	0xbcebc126	-0.028778624
246	0xbbcce083	-0.00625235
247	0x3e0b264b	0.13588826
248	0x3e10a357	0.14124809
249	0x3db8d2a2	0.0902455
250	0x3dbee604	0.09321216
251	0x3cb0d4c8	0.021585837
252	0x3dcd97cc	0.100387186
253	0x3d9ebe55	0.07751147
254	0x3de7687e	0.11299227
255	0x3e876df3	0.26451072

bn1.running_mean f4 [256]
0	0x4022db75	2.5446446
1	0x3f8371c9	1.02691
2	0x40d64369	6.695729
3	0x40fb54a2	7.854081
4	0x4062daf9	3.544615
5	0x41515bea	13.08494
6	0x41199d3c	9.600887
7	0x3fee5829	1.8620654
8	0x40449234	3.0714235
9	0x3fc47dc9	1.5350887
10	0x41ab43b5	21.40806
11	0x417fe7cd	15.994092
12	0x40b3cfd7	5.619121
13	0x40ceba79	6.460263
14	0x3ff414e6	1.9068878
15	0x3e559860	0.20858908
16	0x40dd1bdb	6.9096503
17	0x4028adea	2.6356149
18	0x3f3a9267	0.7287964
19	0x41028268	8.156837
20	0x404ee478	3.2326946
21	0x400ea954	2.229085
22	0x40a62635	5.192164
23	0x4013aa84	2.3072824
24	0x3f956f8e	1.1674669
25	0x408edda7	4.464557
26	0x3fc6c84a	1.5529873
27	0x407a9cea	3.9158273
28	0x40f1afd1	7.552712
29	0x40c7ffc2	6.2499704
30	0x3f1ad4c5	0.6048091
31	0x40dc507b	6.8848243
32	0x3fdb4eb1	1.713339
33	0x3f173f4b	0.5908095
34	0x3ffe6184	1.987351
35	0x40f88c7f	7.7671504
36	0x3ea6d5b0	0.32584906
37	0x3fd1f0c9	1.6401607
38	0x40e0c7fe	7.024413
39	0x3f60ec99	0.8786102
40	0x4062bf25	3.5429165
41	0x3ecf9b24	0.4054805
42	0x4138c87b	11.548945
43	0x3f678a29	0.9044519
44	0x40a8940b	5.2680717
45	0x3e9cbae1	0.30611327
46	0x40a8e350	5.277748
47	0x3f2a8e30	0.6662321
48	0x3fd9e754	1.7023721
49	0x3ffb5726	1.963597
50	0x3f83c590	1.0294666
51	0x411335fd	9.200681
52	0x3ffd67a7	1.9797257
53	0x3fc87b42	1.5662615
54	0x3f86c0f9	1.052764
55	0x3fae2530	1.3605099
56	0x40811ce7	4.034778
57	0x4034defb	2.8261096
58	0x40121865	2.282739
59	0x3f91e0d7	1.1396741
60	0x40365a85	2.8492749
61	0x40fb0eda	7.845563
62	0x3d943928	0.07237464
63	0x4140e564	12.056004
64	0x41768e59	15.409753
65	0x3f9210fc	1.1411433
66	0x40dcedba	6.9040194
67	0x400a3008	2.1591816
68	0x408782b0	4.234703
69	0x3fa197eb	1.2624487
70	0x3f68810b	0.90821904
71	0x3fff9ec9	1.9970332
72	0x400cc616	2.1995902
73	0x416ba13e	14.726866
74	0x409460b6	4.6368055
75	0x4040c2f2	3.0118985
76	0x4012df8a	2.2948937
77	0x3f384c8b	0.71991795
78	0x41357f03	11.343509
79	0x40723ef9	3.7850935
80	0x3fbc51cb	1.4712461
81	0x3f019b91	0.50628
82	0x4017c540	2.3714142
83	0x3f938bc7	1.1527032
84	0x4025480a	2.582522
85	0x3fc08b03	1.5042423
86	0x3f6c81f1	0.92385775
87	0x3f630814	0.886842
88	0x40960d5f	4.689132
89	0x3fb8bc2e	1.4432428
90	0x4039ed52	2.90511
91	0x400d35da	2.2064118
92	0x40b406ec	5.625845
93	0x3f498ba7	0.7872872
94	0x3fd5bde2	1.6698573
95	0x40af003a	5.4687777
96	0x40a63912	5.1944666
97	0x3f697844	0.91199136
98	0x3f96e143	1.1787494
99	0x3fdc0eaf	1.7191981
100	0x3eeb74e1	0.4598761
101	0x4095dda9	4.683308
102	0x3fd54732	1.6662352
103	0x406eacfa	3.7293077
104	0x3f863f32	1.0488036
105	0x4115be20	9.358917
106	0x4015971b	2.3373477
107	0x3f73f23d	0.952915
108	0x40706920	3.7564163
109	0x40c793f2	6.2368097
110	0x418b2026	17.390697
111	0x3f61586e	0.8802556
112	0x3fa02db6	1.251395
113	0x409e4880	4.94635
114	0x400d5bcf	2.2087286
115	0x402ebbdf	2.7302167
116	0x411ea8e4	9.916233
117	0x3f9df16f	1.2339305
118	0x4080f325	4.0296807
119	0x40073839	2.1128066
120	0x3f3324d2	0.6997806
121	0x41c18838	24.191513
122	0x3eeb9286	0.46010226
123	0x3f2cc303	0.67485064
124	0x40274224	2.613412
125	0x40d17408	6.545414
126	0x40040a71	2.0631373
127	0x3f180d7a	0.59395564
128	0x40b13b41	5.538483
129	0x3fca17ba	1.5788491
130	0x3efe827f	0.49708936
131	0x3f0512e5	0.51981956
132	0x414c1de5	12.757298
133	0x4024a2e9	2.5724432
134	0x3fefbfc3	1.8730396
135	0x408a360e	4.3190985
136	0x3fe4720c	1.7847304
137	0x4001d35b	2.028525
138	0x3f0db275	0.5535043
139	0x3f8790b6	1.0591037
140	0x407b5ef2	3.92767
141	0x3fbc6396	1.4717891
142	0x41aa772d	21.308191
143	0x3f8e716a	1.1128361
144	0x3fe90a3a	1.8206246
145	0x3f9b6007	1.213868
146	0x401a7ed9	2.4139922
147	0x408f48ba	4.4776278
148	0x3ffe151b	1.9850191
149	0x4095df1d	4.6834855
150	0x3f6b4a56	0.919103
151	0x3f485e8e	0.7826928
152	0x408ef59f	4.467483
153	0x4080e8d1	4.02842
154	0x401aa14a	2.4160943
155	0x3f9f6047	1.2451257
156	0x3fb2547e	1.3932035
157	0x3f4d2d6a	0.8014742
158	0x3e735447	0.23762618
159	0x400529ff	2.0806882
160	0x41c8ff5b	25.124685
161	0x3ee21f78	0.44164634
162	0x4063954a	3.555987
163	0x3ff1934c	1.8873076
164	0x402ade2b	2.66981
165	0x3fce6455	1.6124369
166	0x3f21a169	0.6313692
167	0x40bf047e	5.9692984
168	0x41050a39	8.314996
169	0x3e923500	0.2855606
170	0x414161c4	12.086369
171	0x3fbadda1	1.4598886
172	0x3fbdf625	1.4840742
173	0x40bc84a4	5.8911915
174	0x40083ed1	2.128834
175	0x3f57cb68	0.8429475
176	0x40b1cd8c	5.556341
177	0x40993f97	4.7890124
178	0x3fd5f92a	1.6716664
179	0x405417ed	3.3139603
180	0x3fe88cdc	1.8167987
181	0x419fef3d	19.991816
182	0x3f261e91	0.6489039
183	0x3f6f4641	0.93466574
184	0x3f84094d	1.0315338
185	0x40555474	3.3332796
186	0x3f4b717e	0.7947005
187	0x3ef3454f	0.47513816
188	0x40076620	2.1156082
189	0x40d026ba	6.5047274
190	0x40e5d7a5	7.182574
191	0x3f7508b4	0.95716405
192	0x408d3c55	4.4136147
193	0x3faedbeb	1.3660864
194	0x3fcb4d5b	1.5882982
195	0x409ff7d2	4.9990015
196	0x414b57bd	12.7089205
197	0x3d65b976	0.056085072
198	0x40ca7388	6.326603
199	0x4004ad16	2.0730643
200	0x40085280	2.1300354
201	0x3f635f99	0.88817745
202	0x410a7541	8.653626
203	0x3ff8d275	1.9439226
204	0x408202be	4.0628347
205	0x402c6955	2.693929
206	0x4038c76f	2.8871725
207	0x3ec16612	0.37773186
208	0x3ed1a686	0.4094736
209	0x40aa9fe5	5.3320184
210	0x4128073f	10.501769
211	0x3fe0dfce	1.75683
212	0x409f155e	4.9713583
213	0x3fc0db7d	1.5066983
214	0x40afc083	5.49225
215	0x40b59a94	5.6751194
216	0x40abe316	5.3714705
217	0x40660663	3.5941398
218	0x401daf02	2.4638066
219	0x40bc2425	5.879412
220	0x401ca039	2.4472792
221	0x4041e6af	3.0297048
222	0x3ff82443	1.9386066
223	0x400f2f89	2.2372763
224	0x40595331	3.3957026
225	0x40417f8e	3.0234103
226	0x3fcb112c	1.5864615
227	0x3fabb08f	1.3413256
228	0x410596e4	8.349339
229	0x3fef14b3	1.8678192
230	0x4094962e	4.6433325
231	0x405464e4	3.3186579
232	0x4020b0b8	2.510786
233	0x403c440d	2.9416535
234	0x4023698e	2.5533175
235	0x3f4e4cee	0.80586135
236	0x4086f9f3	4.2180114
237	0x4158ef39	13.558404
238	0x404a4bf4	3.1608858
239	0x3fdf30b7	1.7436742
240	0x40b698d3	5.7061553
241	0x3f0e5a45	0.5560649
242	0x3f97e389	1.1866313
243	0x40a57ac9	5.1712384
244	0x3fa90e2c	1.320745
245	0x401b45a2	2.426125
246	0x402b07f5	2.6723607
247	0x3f3bbfdf	0.7333965
248	0x3fd0e32a	1.6319325
249	0x4053683b	3.3032367
250	0x4065486e	3.5825458
251	0x407cd456	3.95046
252	0x407c7592	3.944676
253	0x3feb3a72	1.8377211
254	0x40868921	4.2042394
255	0x3fb07914	1.378695

bn1.running_var f4 [256]
0	0x4192d51f	18.354063
1	0x40dfd649	6.994908
2	0x42a630a9	83.09504
3	0x42e61eb6	115.05998
4	0x4235e151	45.470036
5	0x42c841e5	100.1287
6	0x433148b1	177.28395
7	0x419a0235	19.251078
8	0x42511da7	52.278957
9	0x41ac8d13	21.568884
10	0x443b1dc7	748.4653
11	0x429126a4	72.57547
12	0x42abbb7f	85.8662
13	0x42a03272	80.098526
14	0x41814203	16.157232
15	0x3ff5b195	1.9194819
16	0x425e2e2e	55.545097
17	0x41923c32	18.279392
18	0x40bd2487	5.910709
19	0x427c57c8	63.085724
20	0x41e2fc9c	28.373344
21	0x41f41b08	30.513199
22	0x42a29b97	81.30389
23	0x420d47e8	35.32022
24	0x418ac4bb	17.34606
25	0x42430cc5	48.76247
26	0x41807ba6	16.060375
27	0x423c5940	47.08716
28	0x429864d6	76.196945
29	0x425d8a5c	55.385117
30	0x40b911ed	5.783438
31	0x42db1d9b	109.55782
32	0x41f02524	30.018135
33	0x40f6ed8e	7.7164984
34	0x41e2881b	28.316458
35	0x428a3328	69.099915
36	0x402fccde	2.746879
37	0x419d43ba	19.65807
38	0x42a3eb07	81.95904
39	0x41398d0d	11.596936
40	0x4213a0db	36.907085
41	0x408cafa0	4.3964386
42	0x4341c011	193.75026
43	0x415f8309	13.969491
44	0x42833002	65.593765
45	0x3fad7a4c	1.3552947
46	0x429da7df	78.82787
47	0x41084f3d	8.519345
48	0x41634bb7	14.205985
49	0x4174b865	15.295018
50	0x4120d81b	10.05276
51	0x42661a21	57.525517
52	0x41889fe6	17.078075
53	0x41ac4634	21.534279
54	0x41048317	8.282004
55	0x4164702b	14.277385
56	0x4206ab48	33.667267
57	0x42294527	42.31753
58	0x41b6cd42	22.850224
59	0x4126ebc2	10.432558
60	0x41b43e54	22.530434
61	0x42c7c611	99.88685
62	0x3eebf545	0.46085563
63	0x42d8329f	108.09887
64	0x43293abb	169.22942
65	0x4149c1c5	12.609807
66	0x42b5e6be	90.95067
67	0x419d6298	19.673141
68	0x420c929b	35.14317
69	0x41140343	9.250796
70	0x40bc1fc0	5.8788757
71	0x41a14f1d	20.16363
72	0x4214f7ae	37.241875
73	0x42914442	72.633316
74	0x4268871d	58.131947
75	0x4209e6f0	34.475525
76	0x41c03da5	24.0301
77	0x40d13372	6.53753
78	0x4327a19d	167.6313
79	0x42a50162	82.5027
80	0x414a5547	12.64582
81	0x4083006f	4.093803
82	0x41ca09fc	25.254875
83	0x4102320e	8.13722
84	0x41dc9f1e	27.577694
85	0x4197f393	18.993933
86	0x40de7373	6.951593
87	0x40bd9517	5.9244494
88	0x4202dfbf	32.718502
89	0x4192c7b0	18.347504
90	0x41b8c96f	23.098356
91	0x41f2f780	30.37085
92	0x4245c8d4	49.44612
93	0x41176df2	9.464342
94	0x418f45a8	17.909012
95	0x421df845	39.49245
96	0x4292f642	73.48097
97	0x4112147d	9.130002
98	0x412a7b6e	10.655134
99	0x41a27abb	20.309927
100	0x40900e86	4.501773
101	0x41f2b784	30.339607
102	0x4192ea05	18.364267
103	0x425c6ef5	55.108356
104	0x4151503e	13.08209
105	0x42fa5854	125.172516
106	0x41bad636	23.354595
107	0x403bf003	2.9365242
108	0x42146ca3	37.10609
109	0x42fa0aae	125.02086
110	0x4360bccc	224.73749
111	0x40ca8a06	6.3293486
112	0x41644bfa	14.268549
113	0x41a0c58a	20.096455
114	0x41fa0b49	31.25551
115	0x41e80a00	29.004883
116	0x42ca335c	101.10031
117	0x40e15ab8	7.042324
118	0x4240c9dc	48.19713
119	0x41c19205	24.196299
120	0x410db83c	8.857479
121	0x429e8389	79.256905
122	0x4077e7ec	3.8735304
123	0x409a12e6	4.814807
124	0x41d7235c	26.892265
125	0x42abacfe	85.837875
126	0x41d97a46	27.184704
127	0x40900f20	4.5018463
128	0x42a2e3d0	81.44495
129	0x41bc7c97	23.560835
130	0x403eb90b	2.9800441
131	0x409c394e	4.881995
132	0x43684b54	232.29425
133	0x42105a24	36.088028
134	0x41f8373d	31.026972
135	0x420b928c	34.893112
136	0x41d82bf8	27.02147
137	0x415d6ecd	13.839551
138	0x40d00cad	6.5015473
139	0x412d2ce8	10.823463
140	0x42834183	65.62795
141	0x41883c3a	17.029408
142	0x4282e76a	65.45198
143	0x41439f47	12.226386
144	0x41ce651f	25.799376
145	0x41663454	14.387775
146	0x41f512b0	30.634125
147	0x425c1408	55.01956
148	0x41b3818c	22.438255
149	0x4281dc5d	64.9304
150	0x412bd9c3	10.7406645
151	0x40f5eeee	7.685416
152	0x423071b8	44.111053
153	0x42137381	36.862797
154	0x4178e436	15.555716
155	0x411893c5	9.536077
156	0x419d881e	19.691463
157	0x410cf65d	8.810147
158	0x3ff669ee	1.9251077
159	0x418b1912	17.387241
160	0x4243969e	48.897087
161	0x406f8678	3.7425823
162	0x41ecd7c6	29.605358
163	0x41b1c8c1	22.223024
164	0x41c315f6	24.385723
165	0x40ad1f28	5.4100533
166	0x40cb3468	6.3501472
167	0x429df2fd	78.97459
168	0x4309d4ed	137.83174
169	0x40421e79	3.03311
170	0x42d813cb	108.03866
171	0x417892fb	15.535884
172	0x417e3d79	15.890008
173	0x429347fd	73.6406
174	0x4185a562	16.705753
175	0x40d90fef	6.783195
176	0x4278dd4c	62.21611
177	0x42cedfbc	103.43698
178	0x4164af1f	14.292754
179	0x4222b74e	40.67901
180	0x415a1462	13.629976
181	0x44262576	664.5853
182	0x409452bd	4.6351
183	0x4122ba3b	10.170466
184	0x41568192	13.406633
185	0x41cfb24b	25.962057
186	0x410d056d	8.813825
187	0x407501be	3.8282313
188	0x40d72261	6.7229466
189	0x42ba29f7	93.08196
190	0x42a122b5	80.56779
191	0x417b61f2	15.711412
192	0x423a771b	46.616314
193	0x41709e08	15.038582
194	0x41556969	13.338235
195	0x424bd6a2	50.959602
196	0x4397becc	303.4906
197	0x3ef0d16f	0.47034785
198	0x428d84ce	70.759384
199	0x41a5683c	20.675896
200	0x419915b0	19.13559
201	0x412f74d5	10.966023
202	0x42d4625b	106.1921
203	0x41783f29	15.51542
204	0x41828ee1	16.319765
205	0x41eea757	29.831709
206	0x4212e31d	36.72179
207	0x4051e436	3.279554
208	0x40866ff1	4.2011647
209	0x42816945	64.705605
210	0x4347679d	199.40474
211	0x41578c0f	13.471694
212	0x4256c13b	53.6887
213	0x41c5c68b	24.721945
214	0x429541c2	74.62843
215	0x42cd3167	102.59649
216	0x41fc028d	31.501245
217	0x422b3568	42.802155
218	0x41f6df1f	30.858946
219	0x428fafbc	71.84323
220	0x41ce4042	25.781376
221	0x425d5fda	55.343605
222	0x4194e3d3	18.611242
223	0x4190b246	18.087048
224	0x421eaf4b	39.671185
225	0x412083f5	10.032216
226	0x418cc6af	17.597013
227	0x416e7a81	14.904908
228	0x42e7ede9	115.96467
229	0x41225350	10.14534
230	0x425c95bb	55.14622
231	0x41f27e19	30.311571
232	0x41210343	10.063296
233	0x4248ed39	50.231663
234	0x41e15c1f	28.169981
235	0x413392f9	11.223382
236	0x423d3c03	47.308605
237	0x4387565e	270.67474
238	0x41f7b1e3	30.961859
239	0x41920ec2	18.257206
240	0x42954413	74.63296
241	0x409e667e	4.9500113
242	0x4120c9a0	10.049225
243	0x4272197c	60.524887
244	0x4183aab1	16.458345
245	0x41aafe96	21.37431
246	0x41dd830f	27.688993
247	0x40dbdb05	6.870486
248	0x418e9c84	17.826424
249	0x41b1f007	22.2422
250	0x420cc108	35.188507
251	0x423b13a6	46.769188
252	0x422e03ec	43.50383
253	0x41c8ef01	25.116701
254	0x4297d56c	75.91684
255	0x417ddcec	15.866436

fc2.weight f4 [128, 260]
0	0xbd18f1b7	-0.037339892
1	0xbca6b5dc	-0.02035039
2	0xbdc18753	-0.09449639
3	0xbdca4776	-0.09876911
4	0xbde8a6f2	-0.11359967
5	0x3d17820c	0.036989257
6	0xbccf7e00	-0.025328636
7	0xbe510cc9	-0.20415033
8	0xba01261c	-0.0004926638
9	0xbe095f3a	-0.13415232
10	0xbd20dd89	-0.039273772
11	0x3d88c0ef	0.06677424
12	0xbcfe5261	-0.03104514
13	0x3dd51c1f	0.10405754
14	0xba16b806	-0.00057494675
15	0x3d24faaf	0.040278133
16	0x3dc344de	0.0953462
17	0xbcc88bd7	-0.024480743
18	0xbdd30549	-0.103037424
19	0xbc66e87a	-0.014093513
20	0xbc03d835	-0.008047153
21	0xbde11da7	-0.10991984
22	0xbdc2b109	-0.09506423
23	0xbc97b935	-0.01852093
24	0x3d810899	0.06300468
25	0xbe0aecb6	-0.1356686
26	0xbda10599	-0.07862396
27	0xbd0a6c50	-0.0337947
28	0xbd81f52c	-0.06345591
29	0xbda1ab01	-0.078939445
30	0x3cf4afc8	0.029868975
31	0xbd86be62	-0.065792814
32	0x3c9b62d8	0.01896803
33	0xbd440fd0	-0.047866642
34	0xbcc817ad	-0.024425352
35	0xbca7f2c5	-0.020501504
36	0x3ca1a66d	0.019732678
37	0x3c8daf2d	0.017295444
38	0x3d8820e1	0.06646896
39	0x3d87ffce	0.06640588
40	0xbd4c6ada	-0.04990659
41	0xbd09f264	-0.033678427
42	0xbd80922f	-0.06277882
43	0xbd68c0d5	-0.056824524
44	0xbd72a6fb	-0.059241276
45	0xbd2477e8	-0.040153414
46	0xbbdc3c84	-0.006721081
47	0x3d507e5d	0.05090176
48	0xbdc90981	-0.09816266
49	0xbcdb58a3	-0.026775664
50	0x3d1ca4b4	0.03824301
51	0x3dc277f9	0.09495539
52	0x3e132e8d	0.14373226
53	0xbb847b0b	-0.004042988
54	0xbd0f6a0a	-0.035013236
55	0xbd8cfff3	-0.06884756
56	0xbd6333c0	-0.055469275
57	0xbd58cfd5	-0.05293258
58	0x3d15d25e	0.036577575
59	0x3d03b1ed	0.032152105
60	0xbd50e8c7	-0.051003244
61	0xbca07bc1	-0.01959026
62	0xbda133d8	-0.078712165
63	0x3da7d79e	0.081954226
64	0xbcfeb3f3	-0.031091666
65	0xbdcebd30	-0.100946784
66	0x3d6cdf8c	0.05783038
67	0xbd87af19	-0.06625194
68	0xbd8996ce	-0.06718217
69	0xbd8d3344	-0.06894544
70	0xbdab63ac	-0.0836862
71	0xbdbf8a14	-0.09352508
72	0x3d6aca45	0.057321806
73	0xbc517db7	-0.01278632
74	0xbdc95a70	-0.09831703
75	0x3c1a21b4	0.0094074495
76	0xbc518b04	-0.012789492
77	0x3b8d86f3	0.0043190657
78	0xbddf00aa	-0.108887985
79	0x3da8f1c6	0.082492396
80	0x3c1988df	0.0093710115
81	0xbc963854	-0.018337406
82	0xbb4746d3	-0.0030407205
83	0xbc7ff065	-0.015621279
84	0xbe139c63	-0.14415126
85	0xbd3402d4	-0.04394801
86	0xbb64660f	-0.003485087
87	0xbd5fbd00	-0.054623604
88	0x3cfb0564	0.030642219
89	0xbc590ce4	-0.013247702
90	0x3c849a8d	0.016186977
91	0xbd5d1f5d	-0.05398499
92	0x3cbdb5c0	0.023157954
93	0xbcf6b2ee	-0.030114617
94	0xbde01b18	-0.10942668
95	0x3dc1b7e9	0.09458906
96	0xba8074b3	-0.0009800404
97	0xbdcbaed9	-0.09945459
98	0xbcbbd525	-0.022928784
99	0xbdb43b26	-0.08800344
100	0xbd0712c0	-0.032976866
101	0x3d28d774	0.041221097
102	0xbbb1e8a4	-0.0054293443
103	0xbd34a211	-0.04409987
104	0x3d90a656	0.07062976
105	0xbd578923	-0.05262102
106	0xbd44030b	-0.047854465
107	0xbcd18ee0	-0.025580823
108	0xbc55e292	-0.013054507
109	0xbdac9402	-0.08426668
110	0xbdf41f1b	-0.119199954
111	0xbc094de9	-0.008380392
112	0xbd29807c	-0.041382298
113	0xbcc7387c	-0.024318926
114	0xbd074170	-0.03302139
115	0xbd3948f7	-0.0452356
116	0x3dfc6821	0.123245485
117	0x3b0a924a	0.0021144324
118	0x3cacbe5e	0.021086868
119	0xbdbce6c6	-0.09223704
120	0x3dd14a1d	0.10219214
121	0xbd03ea1e	-0.032205693
122	0x3db66130	0.08905256
123	0xbdf284e8	-0.11841756
124	0xbd5113c4	-0.05104424
125	0xbd02e5ea	-0.031957544
126	0x3dd61ff8	0.10455316
127	0xbdb565fb	-0.08857342
128	0x3ca9b895	0.020717898
129	0x3b53c235	0.0032311801
130	0x3d3672d9	0.04454312
131	0xbe08c29f	-0.13355492
132	0x3cce7c7e	0.025205847
133	0x3d3c8569	0.046025667
134	0x3cb478e5	0.022030303
135	0x3d4bdb02	0.04976941
136	0xbdd08ea1	-0.10183454
137	0xbd23b619	-0.039968584
138	0x3d508c31	0.050914947
139	0x3cad0f62	0.0211255
140	0x3d91286a	0.070877865
141	0xbcb45844	-0.022014745
142	0xbc8ce9a2	-0.017201249
143	0xbd57ddd2	-0.05270178
144	0xbc3f9afb	-0.011694665
145	0x3d75c5be	0.060003035
146	0x3c53d33d	0.012928781
147	0xbc069a3c	-0.008215483
148	0x3dfc700c	0.12326059
149	0x3d9c19f7	0.0762214
150	0x3dd9bada	0.10631342
151	0xbd712165	-0.058869738
152	0xbdddba5e	-0.10826562
153	0xbcfcfb3d	-0.030881518
154	0x3d19cc4f	0.03754836
155	0xbbf98f68	-0.0076159723
156	0x3ddda3af	0.10822236
157	0x3b2f09c7	0.0026708709
158	0x3bafb15d	0.0053617195
159	0xbc22b847	-0.00993163
160	0x3b26776e	0.0025400775
161	0xbbf842ae	-0.007576308
162	0x3b1b242a	0.0023672679
163	0x3c947afe	0.018125053
164	0xbcd5c7de	-0.02609628
165	0x3caeca29	0.021336632
166	0xbe0be4ab	-0.13661449
167	0x3daca8c3	0.08430626
168	0x3df2ca1d	0.11854956
169	0x3d72569a	0.05916462
170	0xbd048bfd	-0.032360066
171	0x3d0cab56	0.034343086
172	0xbd625a9e	-0.0552622
173	0x3dbe870f	0.09303104
174	0x3cf2381b	0.029567769
175	0x3d1d2058	0.038360924
176	0xbdbd127b	-0.092320405
177	0xbc4e12a2	-0.012577685
178	0x3c61de12	0.013785856
179	0xbcec6961	-0.028858842
180	0xbc627486	-0.013821727
181	0xbc93b3d3	-0.018030083
182	0x3c8c4490	0.017122537
183	0x3d59d10b	0.053177875
184	0xbd1ad5cc	-0.03780155
185	0x3a233237	0.0006225439
186	0xbdabb32c	-0.08383784
187	0xbcd0b057	-0.02547471
188	0xbcf079b6	-0.029354911
189	0x3da6067a	0.08106704
190	0xbdd5a0ea	-0.104310825
191	0xbd61eefa	-0.055159546
192	0x3ddaad49	0.10677583
193	0x3cd0e9e0	0.025502145
194	0xbd920c27	-0.07131224
195	0xbd979169	-0.07400782
196	0xbd81ff3b	-0.063475095
197	0xbcdf6e69	-0.027274327
198	0xbc97db4a	-0.018537182
199	0xbe286730	-0.16445613
200	0xbd392776	-0.04520365
201	0xbc01f9f8	-0.007933132
202	0xbd8f03b9	-0.06983132
203	0xbc142172	-0.009041177
204	0x3bfe6a70	0.007764153
205	0x3c904ee7	0.017615749
206	0x3c4ecd70	0.012622222
207	0x3c858019	0.016296433
208	0xbb28d207	-0.0025759952
209	0x3d25ad82	0.040448673
210	0xbc870ffa	-0.01648711
211	0x3d381ed7	0.044951286
212	0x3da09fc8	0.07842976
213	0x3bf14e8c	0.0073641
214	0xbd5a2754	-0.053260162
215	0xbe00bd54	-0.12572223
216	0xbdea79a1	-0.1144898
217	0xbda4760a	-0.08030327
218	0x3d24a0ef	0.04019254
219	0xbdeb5032	-0.114899054
220	0x3c5817cc	0.013189267
221	0x3c927c10	0.017881423
222	0xbd87a05c	-0.06622383
223	0xbdaa919a	-0.083285525
224	0xbda17137	-0.07882922
225	0xbcc90ac4	-0.024541266
226	0xbd8219ff	-0.063526146
227	0xbcd4c6d3	-0.025973713
228	0xbd6bd7bd	-0.05757879
229	0xbcc046b6	-0.023471218
230	0xbd080761	-0.033210162
231	0xbb3b93b0	-0.0028621964
232	0x3de58a4e	0.1120802
233	0xbd00795c	-0.031365737
234	0x3c763213	0.015026587
235	0x3cb98356	0.022645634
236	0x3d912494	0.07087055
237	0xbdb65c78	-0.08904356
238	0x3d430dbd	0.047620524
239	0x3d267126	0.04063525
240	0xbcd6ae16	-0.026206058
241	0x3d02b45f	0.031910297
242	0xbd16d89a	-0.03682766
243	0xbd731556	-0.05934652
244	0x3dba6b16	0.09102456
245	0x3d234e98	0.039869875
246	0x3d2c6ae7	0.042094138
247	0xbcb14a2f	-0.021641819
248	0xbd4ef5d9	-0.050527427
249	0xbd9db82e	-0.07701145
250	0x3d7abc5c	0.06121479
251	0xbc1fcbbe	-0.009753166
252	0x3ddac7ba	0.10682626
253	0x3da62cba	0.08114
254	0x3d88038d	0.06641302
255	0xbc94b301	-0.018151762

fc2.bias f4 [128]
0	0xbe1d3dcd	-0.15355606
1	0xbeb74b47	-0.3579962
2	0xbea85419	-0.3287666
3	0xbe32b269	-0.1745087
4	0xbe4b7611	-0.19869258
5	0xbd9d3f84	-0.0767813
6	0xbed0eeca	-0.40807182
7	0xbe637236	-0.22211537
8	0xbd8295eb	-0.06376251
9	0xbeb74859	-0.35797384
10	0xbe62aac9	-0.22135462
11	0xbe1749c4	-0.14774233
12	0xbe3bc0e4	-0.183353
13	0xbdfd8af8	-0.12380022
14	0xbdc9358d	-0.09824667
15	0xbe4c294c	-0.19937629
16	0xbdecfc3e	-0.11571549
17	0xbe947d8f	-0.29002044
18	0xbeab7e75	-0.33494917
19	0xbe7b2257	-0.24524818
20	0xbe5e1fd2	-0.21691826
21	0xbe66a04e	-0.22522089
22	0xbe8a4f45	-0.27013603
23	0xbe2d7e1f	-0.16942643
24	0xbe315d15	-0.17320664
25	0xbec8f758	-0.39251208
26	0xbe8ecd1d	-0.27890864
27	0xbe3c64dd	-0.18397851
28	0xbe395a7c	-0.18100923
29	0xbe276fe8	-0.16351283
30	0xbe3966e1	-0.18105651
31	0xbe809f6c	-0.2512163
32	0x3d9ff21e	0.07809852
33	0xbe2c2a91	-0.16813113
34	0xbe52f7e7	-0.2060238
35	0xbe977636	-0.29582375
36	0xbe4b2a2e	-0.19840309
37	0xbe4a6738	-0.19765937
38	0xbe39c543	-0.18141656
39	0xbe857813	-0.26068172
40	0xbea0a8d6	-0.31378812
41	0xbe77179f	-0.24130104
42	0xbe2173bc	-0.15766805
43	0xbeab1a59	-0.3341854
44	0xbe9c5d4a	-0.30539924
45	0xbea471eb	-0.32118163
46	0xbe543537	-0.20723425
47	0xbe206c1d	-0.15666242
48	0xbe894121	-0.26807502
49	0xbe544f93	-0.2073348
50	0xbdacdb4a	-0.084402636
51	0xbe49642b	-0.19667117
52	0xbe625efd	-0.22106548
53	0xbe71c471	-0.23610093
54	0xbe43b753	-0.19112901
55	0xbebab2f8	-0.36464667
56	0xbe67a162	-0.22620156
57	0xbe5203b8	-0.20509231
58	0xbc683ad4	-0.014174182
59	0xbe71794a	-0.23581424
60	0xbe3ff9de	-0.1874766
61	0xbe750019	-0.23925819
62	0xbe93fd7a	-0.28904325
63	0xbe796cc9	-0.24357904
64	0xbe6ce672	-0.23134783
65	0xbe0aa63a	-0.13539973
66	0xbe816b3f	-0.25277135
67	0xbe296730	-0.16543269
68	0xbe8a164e	-0.26970142
69	0xbe4dcd53	-0.20097856
70	0xbe892a31	-0.26790002
71	0xbe89c036	-0.26904458
72	0xbe806422	-0.25076395
73	0xbe8d15d4	-0.27555716
74	0xbe176dda	-0.14787999
75	0xbe855a99	-0.26045683
76	0xbe3a8e3c	-0.1821832
77	0xbe698727	-0.22805463
78	0xbe13a88e	-0.14419767
79	0xbe24310f	-0.1603434
80	0xbe81d746	-0.25359553
81	0xbe1398af	-0.14413713
82	0xbe3e94fd	-0.18611522
83	0xbe29ae8d	-0.16570492
84	0xbe8ac3c5	-0.27102485
85	0xbe648aad	-0.22318526
86	0xbe6e7502	-0.23286822
87	0xbe355ff3	-0.17712383
88	0xbe86bb36	-0.26314706
89	0xbe7abc29	-0.2448584
90	0xbe65235b	-0.22376768
91	0xbe3c1e37	-0.18370901
92	0xbe6261e0	-0.22107649
93	0xbeb5243e	-0.35379213
94	0xbe7d047d	-0.24708743
95	0xbe8a57ff	-0.2702026
96	0xbe65d7d0	-0.22445607
97	0xbe2f2dd0	-0.1710732
98	0xbe88ce23	-0.2671977
99	0xbe43f2f3	-0.19135647
100	0xbe95b0ff	-0.292366
101	0xbe0ba0cf	-0.13635562
102	0xbe854360	-0.26027966
103	0xbe3bfa0d	-0.18357106
104	0xbe5c17a5	-0.21493395
105	0xbe703f63	-0.2346168
106	0xbe22e37d	-0.15907092
107	0xbe236437	-0.15956198
108	0xbeb77696	-0.3583266
109	0xbe4a18a1	-0.19735958
110	0xbe9469fb	-0.28987107
111	0xbe7e290f	-0.2482035
112	0xbe17ff8f	-0.14843582
113	0xbeaf3210	-0.34217882
114	0xbe69816b	-0.22803275
115	0xbe965983	-0.29365167
116	0xbe81f936	-0.25385445
117	0xbe7858ba	-0.24252596
118	0xbe2858f8	-0.16440189
119	0xbe2774f8	-0.16353214
120	0xbe150598	-0.14552915
121	0xbeb5f9de	-0.35542196
122	0xbe565576	-0.20931038
123	0xbe4fdfb8	-0.20300186
124	0xbec0faac	-0.37691247
125	0xbe4b1f19	-0.19836082
126	0xbeb735dc	-0.3578328
127	0xbe896bc8	-0.26840043
