checkpoint_1stActor.pth (torch_old, 191963 bytes, 18 tensors)

fc1.weight f4 [256, 48]
0.42066333 0.7318974 0.06593302 0.082643144 -0.3445394 -0.57176113 0.070988856 0.1359872
0.37878647 0.9355743 -0.20396878 0.19963026 -0.21550617 -0.6563144 -0.14214504 0.2903601
0.22543219 0.49831387 0.0239848 -0.60848385 0.030004857 0.07481829 0.06254203 -0.53838086
-0.07697399 0.27494067 -0.19469355 -0.13895051 0.34222105 -0.6246588 -0.09989586 -0.13343918
-0.01628806 0.31773806 -0.007901254 -0.16734985 0.19556698 -0.6545825 -0.04075225 -0.1203108
-0.24319598 0.13022088 0.022235608 -0.34056497 -0.020838149 0.07982126 0.06888702 -0.30829898
0.24979137 0.33263266 -0.28436762 -0.11411311 -0.3218036 -0.13128334 -0.2514004 -0.09022053
0.04866666 0.30297112 -0.32213217 -0.06680854 -0.24386626 -0.23715837 -0.23294367 -0.027915316
-0.029684253 0.10472469 0.10571768 -0.56645596 -0.12568294 -0.0027352069 0.09132635 -0.611282
0.057480246 0.30848315 -0.21142548 0.3159593 0.2743548 -0.13665158 -0.21529932 0.26645935
0.031398833 0.20126487 -0.021587359 0.16526285 0.23877451 -0.34532532 -0.048461664 0.09970316
-0.05770552 0.16222517 0.03625372 -0.17409617 0.022425573 0.022027098 -0.034546398 -0.1343253
-0.1863349 -0.27975208 0.13394542 -0.24837396 -0.09176531 -0.20954512 0.10614686 -0.15555835
-0.12015935 -0.15825714 -0.06761174 0.25407147 -0.10550464 -0.35245043 -0.098332115 0.17200366
-0.29357615 -0.025671473 -0.12288688 0.49260053 -0.02294405 -0.14291608 -0.13858631 0.5074164
0.32408205 -1.2186762 -0.06657209 -0.18171115 0.05619034 -0.21020468 0.0015827141 -0.2051352
0.24935053 -1.0363132 0.00034637246 0.14000943 0.05994544 -0.33561066 0.062118184 0.041602045
0.27526242 -1.2342081 0.21304648 -0.17427367 0.0072801993 -0.17691143 0.31963453 -0.20601967
0.34115916 -0.36054686 0.17212506 -0.20259546 -0.126325 0.4363738 0.21987337 -0.2682584
0.31175873 -0.42900267 0.11777864 -0.2273655 0.1653804 0.40777373 0.095344074 -0.20467052
0.18642035 -0.5462432 0.19067615 0.18211785 0.5283173 0.6331702 0.09658072 0.20309736
-0.20634069 0.70375437 0.114683025 -0.023784295 0.027939767 0.39855474 0.14216484 -0.026487615
-0.012579456 0.69909173 0.010971281 -0.10082234 -0.13490514 0.3632443 0.04531326 -0.16610691
-0.0052240747 0.6460213 -0.013850683 -0.09565777 -0.46903452 0.7440392 -0.097889535 -0.10828849
0.3496159 0.12439148 -0.0005900273 -0.03927558 -0.48637775 -0.33183554 0.066146135 -0.06532887
0.35673252 0.030602818 0.06983575 -0.032799605 -0.044261336 0.38491938 0.0026449382 0.0076735145
0.14226803 0.06801738 -0.069251925 0.749483 0.28732303 0.875596 -0.026836893 0.6832894
-0.34224296 0.51130754 -0.13754381 -0.4037464 0.4157581 -0.29484403 -0.07804196 -0.283448
-0.2984617 0.2891313 0.008013531 -0.103408165 0.037597768 0.31069952 0.062113136 -0.16544192
-0.34126905 0.2897569 -0.18108569 0.09956285 -0.22929747 0.8500874 -0.118828855 0.04590843
0.2988416 -0.41697687 0.014836684 -0.41233847 -0.52883536 -0.32328418 0.032005552 -0.4138061
0.37143293 -0.518733 0.05869796 -0.3665379 -0.49946907 0.11229962 0.0382781 -0.3706302
00000000: 2f61 d73e a15d 3b3f e407 873d cf40 a93d
00000010: 7867 b0be f05e 12bf 9b62 913d 3b40 0b3e
00000020: 4df0 c13e cc81 6f3f 31dd 50be e06b 4c3e
00000030: a6ad 5cbe 3804 28bf 788e 11be 14aa 943e
00000040: b2d7 663e ff22 ff3e c57b c43c 99c5 1bbf
00000050: bfcc f53c 553a 993d 0916 803d 54d3 09bf
00000060: 8aa4 9dbd 06c5 8c3e bf5d 47be 0b49 0ebe
00000070: 9937 af3e a4e9 1fbf 3396 ccbd 48a4 08be
00000080: 8a6e 85bc 90ae a23e 4374 01bc c25d 2bbe
00000090: b642 483e b892 27bf d5eb 26bd 8265 f6bd
000000a0: 5e08 79be 9f58 053e 7327 b63c 885e aebe
000000b0: c4b4 aabc 5479 a33d a314 8d3d 5dd9 9dbe
000000c0: 4fc9 7f3e d44e aa3e a298 91be 22b4 e9bd
000000d0: 71c3 a4be 246f 06be 8eb7 80be 8bc5 b8bd
000000e0: b156 473d 081f 9b3e 82ee a4be ead2 88bd
000000f0: 14b8 79be a5d9 72be c988 6ebe a9ae e4bc
00000100: 642c f3bc e679 d63d 8382 d83d 4203 11bf
00000110: 07b3 00be 2841 33bb 4f09 bb3d fa7c 1cbf
00000120: 6870 6b3d 81f1 9d3e ec7f 58be 6bc5 a13e
00000130: 3b78 8c3e 64ee 0bbe 6d77 5cbe 5c6d 883e
00000140: 109c 003d 6118 4e3e f9d7 b0bc aa3a 293e
00000150: 4e81 743e 7bce b0be bd7f 46bd 2c31 cc3d
00000160: a05c 6cbd 5b1e 263e c87e 143d 4446 32be
00000170: d6b5 b73c 2c72 b43c 8680 0dbd 928c 09be
00000180: 93ce 3ebe aa3b 8fbe fd28 093e be55 7ebe
00000190: 73ef bbbd ff92 56be 8663 d93d b04a 1fbe
000001a0: 1b16 f6bd 290e 22be 0678 8abd a815 823e
000001b0: d112 d8bd 6274 b4be 5962 c9bd ba21 303e
000001c0: 9d4f 96be fb4c d2bc 1eac fbbd 2336 fc3e
000001d0: 29f5 bbbc 9858 12be 92e9 0dbe 0be6 013f
000001e0: 15ee a53e 95fd 9bbf f356 88bd 7d12 3abe
000001f0: d827 663d e53f 57be 1373 cf3a f60e 52be
00000200: bf55 7f3e e9a5 84bf 5399 b539 a25e 0f3e
00000210: 5a89 753d 29d5 abbe a36f 7e3d e866 2a3d
00000220: 32ef 8c3e 88fa 9dbf db28 5a3e cc74 32be
00000230: bd8e ee3b 4528 35be 23a7 a33e d2f6 52be
00000240: 6aac ae3e 9999 b8be 8d41 303e 2f75 4fbe
00000250: 575b 01be 636c df3e 7c26 613e 2a59 89be
00000260: d79e 9f3e 3da6 dbbe ed35 f13d 80d2 68be
00000270: 7b59 293e b8c7 d03e c143 c33d 2695 51be
00000280: fae4 3e3e 98d6 0bbf 9c40 433e 1a7d 3a3e
00000290: cd3f 073f 7117 223f 1dcc c53d c1f8 4f3e
000002a0: f94a 53be 3f29 343f efde ea3d 48d7 c2bc
000002b0: f0e1 e43c 5e0f cc3e a993 113e 8efc d8bc
000002c0: 101a 4ebc adf7 323f e3c0 333c f17b cebd
000002d0: 9324 0abe 28fb b93e 669a 393d ee17 2abe
000002e0: b72e abbb a761 253f faed 62bc 39e8 c3bd
000002f0: 4b25 f0be 5a79 3e3f 4f7a c8bd 5bc6 ddbd
00000300: db00 b33e f6c0 fe3d 10ac 1aba 6edf 20bd
00000310: 8106 f9be 59e6 a9be a077 873d 25cb 85bd
00000320: a5a5 b63e c3b2 fa3c 0c06 8f3d e158 06bd
00000330: 604b 35bd 2714 c53e b356 2d3b 1b72 fb3b
00000340: b6ae 113e b24c 8b3d f4d3 8dbd 1ede 3f3f
00000350: 011c 933e 0f27 603f 0bd9 dbbc 0eec 2e3f
00000360: 783a afbe 0de5 023f 49d8 0cbe d9b7 cebe
00000370: 3fde d43e ccf5 96be 77d4 9fbd 1920 91be
00000380: f9cf 98be 0509 943e 2f4b 033c a9c7 d3bd
00000390: 1e00 1a3d 0214 9f3e 586a 7e3d 9b69 29be
000003a0: d1ba aebe 045b 943e 876e 39be 9ce7 cb3d
000003b0: f5cc 6abe 549f 593f 8b5c f3bd 7a0a 3c3d
000003c0: c401 993e fe7d d5be 9015 733c 071e d3be
000003d0: c161 07bf 8185 a5be 4118 033d 65de d3be
000003e0: 752c be3e b0cb 04bf 466d 703d dbaa bbbe
000003f0: 69ba ffbe 58fd e53d 7fc9 1c3d 3ec3 bdbe

fc1.bias f4 [256]
0.014926862 0.018018568 -0.0029698675 -0.111082494 -0.044236474 0.032714352 -0.0666647 0.13752921
-0.024630122 -0.033820443 -0.07887894 0.0735241 0.13937174 0.12762563 -0.1309589 -0.012597264
-0.031493217 -0.036096975 -0.13005394 0.14418213 0.11687481 -0.10158239 0.090995155 -0.042555396
0.13170183 -0.0042683296 0.07536415 -0.008994597 -0.042911187 -0.1335431 -0.10836661 0.13632372
0.13390829 0.13864098 0.10478897 -0.13008179 -0.09225476 0.031591225 -0.1333901 -0.0055752825
0.04704828 -0.04508757 0.024914287 0.010086977 -0.055506837 0.017306106 0.03043786 -0.12077
0.13306439 0.1433088 -0.11858916 -0.03458294 -0.004014213 -0.001246327 -0.050951187 0.009586293
0.042763058 0.043362554 0.081345245 0.027383102 0.049139716 -0.01934414 -0.037899345 0.06653847
0.11369679 0.001510351 -0.11194045 0.04651499 -0.11340286 0.046706483 0.1376277 -0.09765284
-0.019961793 0.13521717 0.058320902 0.13792747 -0.06808689 -0.01622135 -0.09884045 -0.0782954
0.031031983 0.116909474 0.12902008 -0.053763874 0.122408584 -0.102958016 -0.13519007 0.019053617
0.13447204 0.11040071 -0.10531756 -0.030090861 0.1277075 0.075484015 0.0030638515 -0.06443785
0.091382936 0.12190305 0.09319538 0.06067106 -0.065246835 -0.14024271 0.13005935 0.03374019
0.018201746 0.054113317 -0.054434758 -0.104618795 0.07879448 -0.017398262 -0.1381255 -0.027123703
-0.02169742 -0.10538254 -0.11427105 -0.03337966 -0.11991301 0.07333631 -0.13940883 -0.06550353
-0.105041355 -0.051317908 -0.14319429 -0.040437568 -0.095739685 0.08873226 -0.12058378 0.13542335
0.13579573 0.038012892 -0.01307841 -0.08552731 -0.06414952 -0.0976585 0.021839675 0.1368906
-0.048289128 -0.05991231 0.03204242 -0.13510275 -0.04905933 -0.10042429 -0.103889756 -0.043576654
0.11207844 0.06140492 0.040142436 0.12030129 0.0842878 -0.001702344 0.035758536 -0.01991751
0.0705674 0.032368157 0.05764362 -0.13503237 -0.019564098 0.076745234 0.054029725 0.035977557
-0.058698177 0.09347763 -0.030901458 -0.07833477 -0.10307516 0.0012693091 -0.113964625 0.09030058
0.019194264 -0.030564819 0.12477431 -0.002531872 0.017073618 0.09461592 0.024410978 0.00070646603
0.13202122 -0.11085609 0.07136708 0.03660749 -0.022376953 0.047183562 0.011824071 -0.08976436
-0.09754536 -0.072461784 0.13029842 0.11269578 -0.015435067 0.072849624 0.08740477 0.12161763
0.038225643 0.110129505 -0.03866875 0.03037634 -0.08793313 -0.12054026 -0.031283323 -0.116201475
0.047929022 0.094808556 0.029011501 -0.13815661 0.06129488 0.1288429 0.022948816 -0.13069253
-0.029498732 0.14010479 -0.08264768 -0.11135511 0.10667906 0.11129826 0.0016996743 0.13508363
-0.12452632 0.088893384 -0.13615033 -0.04412108 0.114877515 -0.07094849 -0.10785191 0.025267636
0.14346078 -0.053056218 -0.1281237 0.081890434 0.118154794 -0.092476256 -0.073093615 0.06956309
0.032452162 -0.11099279 -0.028154219 0.026416566 0.014552562 0.10670967 0.077981636 0.015099175
0.10244007 -0.13633679 0.024751158 -0.004010118 -0.091890596 -0.025436496 -0.044141546 -0.13877042
0.010810401 0.14385103 -0.097153835 -0.016571075 -0.032959055 -0.08061703 0.06500935 -0.13819595
00000000: cc8f 743c ad9b 933c 1ca2 42bb 387f e3bd
00000010: 4e31 35bd 7cff 053d 8187 88bd 75d4 0c3e
00000020: 1cc5 c9bc 4e87 0abd 488b a1bd ce93 963d
00000030: 77b7 0e3e 4bb0 023e 171a 06be c164 4ebc
00000040: 08ff 00bd 6cda 13bd dc2c 05be 7ba4 133e
00000050: 0f5c ef3d 6e0a d0bd ab5b ba3d 914e 2ebd
00000060: d8dc 063e 58dd 8bbb 8558 9a3d 135e 13bc
00000070: a4c3 2fbd 86bf 08be 50ef ddbd 7298 0b3e
00000080: 411f 093e e7f7 0d3e 999b d63d 2934 05be
00000090: 10f0 bcbd cd65 013d 6a97 08be dcb0 b6bb
000000a0: b2b5 403d bead 38bd 0c19 cc3c d943 253c
000000b0: 235b 63bd 89c5 8d3c d258 f93c 4356 f7bd
000000c0: 0842 083e 8bbf 123e e0de f2bd d7a6 0dbd
000000d0: a989 83bb cb5b a3ba 31b2 50bd d40f 1d3c
000000e0: 5128 2f3d ef9c 313d 5698 a63d 8752 e03c
000000f0: ba46 493d 9a77 9ebc 583c 1bbd 5245 883d
00000100: ddd9 e83d f8f6 c53a 0941 e5bd 8186 3e3d
00000110: c23f e8bd 4c4f 3f3d 47ee 0c3e 36fe c7bd
00000120: ea86 a3bc 5f76 0a3e e6e1 6e3d dc3c 0d3e
00000130: 2471 8bbd a3e2 84bc dd6c cabd 5759 a0bd
00000140: c936 fe3c 3c6e ef3d d71d 043e 8237 5cbd
00000150: 5ab1 fa3d a7db d2bd 446f 0abe 5516 9c3c
00000160: 0ab3 093e c419 e23d bcb0 d7bd 1c81 f6bc
00000170: c1c5 023e 5d97 9a3d e6ca 483b fef7 83bd
00000180: fa26 bb3d 4ea8 f93d 38dd be3d 3882 783d
00000190: 22a0 85bd c99b 0fbe 472e 053e 2733 0a3d
000001a0: d41b 953c eda5 5d3d fbf6 5ebd 6142 d6bd
000001b0: 005f a13d cd86 8ebc c570 0dbe 8732 debc
000001c0: cabe b1bc cdd2 d7bd f106 eabd 1cb9 08bd
000001d0: f494 f5bd 5931 963d 30c1 0ebe b726 86bd
000001e0: ec1f d7bd ba32 52bd 86a1 12be dda1 25bd
000001f0: 2b13 c4bd 42b9 b53d a1f4 f6bd 6bac 0a3e
00000200: 090e 0b3e 68b3 1b3d d446 56bc f128 afbd
00000210: d360 83bd 2e01 c8bd 1ee9 b23c 0d2d 0c3e
00000220: d2ca 45bd 9c66 75bd ea3e 033d 6058 0abe
00000230: 70f2 48bd 40ab cdbd 27c4 d4bd 6f7d 32bd
00000240: 6289 e53d ba83 7b3d 656c 243d 8660 f63d
00000250: 159f ac3d 3021 dfba 8b77 123d 0c2a a3bc
00000260: a485 903d 7994 043d b71b 6c3d ed45 0abe
00000270: e344 a0bc 9b2c 9d3d 464e 5d3d 345d 133d
00000280: 806d 70bd 3371 bf3d 0e25 fdbc fb6d a0bd
00000290: 1219 d3bd f25e a63a 4966 e9bd 83ef b83d
000002a0: 4a3d 9d3c 1263 fabc ac89 ff3d c3ed 25bb
000002b0: f9dd 8b3c fec5 c13d 88f9 c73c 2232 393a
000002c0: 9230 073e 8508 e3bd e728 923d bcf1 153d
000002d0: df4f b7bc 8d43 413d c0b9 413c 60d6 b7bd
000002e0: ddc5 c7bd d866 94bd f36c 053e 0ccd e63d
000002f0: 5de3 7cbc 2f32 953d 4601 b33d aa12 f93d
00000300: 7e92 1c3d 948b e13d 2063 1ebd cdd7 f83c
00000310: 4916 b4bd d0dd f6bd f122 00bd 0afb edbd
00000320: 3951 443d fd2a c23d 87a9 ed3c ed78 0dbe
00000330: 5710 7b3d 65ef 033e 28ff bb3c 43d4 05be
00000340: 53a7 f1bc a177 0f3e 3043 a9bd 260e e4bd
00000350: 8d7a da3d 58f0 e33d 9bc7 de3a 5d53 0a3e
00000360: a807 ffbd bc0d b63d fe6a 0bbe 4eb8 34bd
00000370: e744 eb3d 714d 91bd 76e1 dcbd 13fe ce3c
00000380: 62e7 123e 7a51 59bd dc32 03be 2cb6 a73d
00000390: 24fb f13d 3164 bdbd 1bb2 95bd 1877 8e3d
000003a0: 8fec 043d 3050 e3bd ada3 e6bc 8e67 d83c
000003b0: de6d 6e3c 998a da3d d6b4 9f3d 8862 773c
000003c0: 19cc d13d df9b 0bbe f1c2 ca3c 4f67 83bb
000003d0: 2331 bcbd 3360 d0bc c4cd 34bd d519 0ebe
000003e0: 1c1e 313c af4d 133e 97f8 c6bd 10c0 87bc
000003f0: 1300 07bd 8b1a a5bd 9f23 853d 3d83 0dbe

bn1.weight f4 [256]
0.7890387 0.83124393 0.8354303 0.9069596 0.87881184 0.8227322 1.0249907 0.82026035
0.57823354 0.86903095 0.89832294 0.7950442 1.098301 0.77761555 1.071783 1.0107571
0.5893473 0.646006 1.2115624 1.1829729 0.82417923 1.4460739 0.9036005 0.53618187
0.7848908 0.84111446 0.69790757 1.0510637 0.7991704 0.930804 0.6924549 0.715907
1.0680227 0.8848319 0.8226095 0.8421131 1.0494035 1.3134366 1.2292991 0.92581195
1.0276556 0.6632378 0.6868367 0.6896454 0.9935794 0.76064867 0.94303423 0.7853717
0.80289197 0.7043379 0.66499543 0.9793961 1.2619423 0.9473767 0.707627 0.8767328
0.9029328 1.1333625 0.90978056 0.69462764 0.8256901 0.90204525 0.7073747 0.67544967
0.8409652 1.3379244 0.8320877 1.0350004 0.95700157 0.67990524 0.972681 0.94939333
2.1713512 0.80341005 0.94512045 0.6853599 1.0336522 0.9723003 0.9450778 0.94839215
1.1045868 0.85795766 0.8480777 0.86708766 0.8095829 0.94085264 0.8893131 0.82853043
0.9623738 1.0994426 1.38615 1.0317615 1.3291477 0.79282343 0.7687268 1.0747042
1.1319478 0.9962508 1.3791627 0.6732602 0.82149875 0.91942924 0.9066306 1.340609
1.1224827 0.8985427 0.8196552 0.83501464 0.9609127 1.017859 0.7854973 0.89237684
1.3552991 0.857124 0.9824971 0.8387887 1.1628644 0.8355131 1.1692951 0.9450481
0.77989465 1.0195413 0.878638 0.71688235 1.0710834 0.9499357 0.90026504 0.86763704
0.9588809 1.033985 0.6414587 0.87322205 1.0401682 0.7982601 0.9817587 0.87733704
1.0477284 1.1472205 0.96450853 0.91702354 0.9043229 1.023198 0.893846 1.0811139
0.93527526 0.83210725 0.8824556 0.6180327 1.4256704 0.95815766 0.774412 0.90711856
1.0968133 0.72016597 0.7776471 0.8882294 0.78395265 0.9014863 0.9903621 1.0984027
0.76070565 0.8490732 0.7732378 0.94497675 0.82442975 0.7994916 0.92239654 1.0251923
0.8187049 0.90044504 0.8052153 0.8985225 0.96234024 0.80427283 1.1729544 0.9262546
0.94483644 0.60983926 0.6545987 0.8760667 0.9774351 1.1215366 0.7680704 1.1657944
0.6582309 0.9305131 0.8794642 0.84522486 0.5743194 1.1560718 0.7598829 0.9403608
1.0518614 0.85231906 1.0294048 0.97272927 0.8065418 0.8504096 0.7099836 0.8144814
0.9846978 0.8275433 0.66994315 1.1567422 0.9117455 0.79440325 1.0184083 0.75531334
1.039894 0.79529434 1.046912 0.84703517 0.8963245 1.2105982 1.0359664 0.7011197
0.74766135 1.1846683 0.9992379 1.2979352 0.9539958 1.3330845 0.9060721 0.7842978
0.79887915 1.1036588 0.655261 0.93774796 0.79977536 1.3659478 1.3269542 0.8574951
0.6685744 0.68361294 0.7927099 1.1365769 0.80342036 0.99620885 1.0055522 1.080788
0.8955018 0.76444244 0.80328554 0.8263758 0.7329306 0.7998115 0.95239484 0.9336636
0.9605353 0.865389 0.5858798 1.2826837 0.7309463 0.9495142 0.92452353 0.88176954
00000000: 71fe 493f 67cc 543f c3de 553f 812e 683f
00000010: d0f9 603f 949e 523f e532 833f 95fc 513f
00000020: 1d07 143f d078 5e3f 7ef8 653f 0488 4b3f
00000030: 2195 8c3f d011 473f 2f30 893f 7d60 813f
00000040: 77df 163f a660 253f 7a14 9b3f a86b 973f
00000050: 69fd 523f f318 b93f 5d52 673f 3743 093f
00000060: 9aee 483f 4753 573f 12aa 323f 4189 863f
00000070: 6e96 4c3f 2c49 6e3f b944 313f ae45 373f
00000080: f8b4 883f 5884 623f 8996 523f b994 573f
00000090: db52 863f b11e a83f ac59 9d3f 0302 6d3f
000000a0: 388a 833f f4c9 293f 88d4 2f3f 9a8c 303f
000000b0: 385b 7e3f dfb9 423f b16a 713f 1f0e 493f
000000c0: 548a 4d3f 7d4f 343f 243d 2a3f b4b9 7a3f
000000d0: 5387 a13f 4887 723f 0b27 353f 9071 603f
000000e0: 9b26 673f 0612 913f 61e7 683f 1ed3 313f
000000f0: 6d60 533f 70ec 663f 8216 353f 45ea 2c3f
00000100: 7f49 573f 1b41 ab3f b303 553f e57a 843f
00000110: 0efe 743f 450e 2e3f 9f01 793f 710b 733f
00000120: 6bf7 0a40 48ac 4d3f 6af3 713f bf73 2f3f
00000130: b74e 843f ace8 783f 9ef0 713f d4c9 723f
00000140: 1a63 8d3f 1da3 5b3f 9f1b 593f 75f9 5d3f
00000150: d340 4f3f b8db 703f 06aa 633f 921a 543f
00000160: 215e 763f 89ba 8c3f 5d6d b13f c310 843f
00000170: 8321 aa3f 7af6 4a3f 48cb 443f e88f 893f
00000180: aae3 903f 4b0a 7f3f 6788 b03f c85a 2c3f
00000190: be4d 523f b75f 6b3f f118 683f 1399 ab3f
000001a0: 83ad 8f3f e506 663f ecd4 513f 85c3 553f
000001b0: 60fe 753f 3449 823f 5a16 493f cf72 643f
000001c0: 717a ad3f 7a6c 5b3f ee84 7b3f dbba 563f
000001d0: bed8 943f 30e4 553f 76ab 953f acee 713f
000001e0: 2da7 473f 5480 823f 6cee 603f 9a85 373f
000001f0: 4319 893f fc2e 733f c577 663f 761d 5e3f
00000200: 3879 753f 9f59 843f a336 243f 7b8b 5f3f
00000210: 3b24 853f c65a 4c3f 8a54 7b3f 2999 603f
00000220: f71b 863f 1fd8 923f 08ea 763f 0ec2 6a3f
00000230: b581 673f 27f8 823f 17d3 643f f161 8a3f
00000240: 336e 6f3f fb04 553f 9ce8 613f 6437 1e3f
00000250: 5e7c b63f d249 753f dd3f 463f ec38 683f
00000260: 6164 8c3f cc5c 383f e113 473f 0163 633f
00000270: 1fb1 483f cec7 663f 5f88 7d3f 7698 8c3f
00000280: 9bbd 423f dc5c 593f eaf2 453f ffe9 713f
00000290: d40d 533f 7bab 4c3f 2e22 6c3f 8039 833f
000002a0: a596 513f 9183 663f 9722 4e3f 9205 663f
000002b0: ee5b 763f d3e4 4d3f 5f23 963f 051f 6d3f
000002c0: cde0 713f 6d1e 1c3f c893 273f e845 603f
000002d0: 3039 7a3f 838e 8f3f 43a0 443f c038 953f
000002e0: d281 283f 1b36 6e3f 9124 613f a860 583f
000002f0: 9906 133f 29fa 933f b087 423f 7cbb 703f
00000300: 65a3 863f 9531 5a3f 89c3 833f c904 793f
00000310: 8679 4e3f 72b4 593f 7cc1 353f da81 503f
00000320: 2815 7c3f e1d9 533f 6581 2b3f 2110 943f
00000330: 2768 693f 035e 4b3f 345b 823f 375c 413f
00000340: 3f1b 853f 6998 4b3f 3601 863f 4cd7 583f
00000350: 8675 653f e2f4 9a3f 8c9a 843f 957c 333f
00000360: bc66 3f3f 36a3 973f 0ece 7f3f be22 a63f
00000370: 1239 743f 83a2 aa3f 57f4 673f bec7 483f
00000380: 5883 4c3f b144 8d3f 2fbf 273f 4010 703f
00000390: 14be 4c3f 61d7 ae3f a3d9 a93f cd84 5b3f
000003a0: b127 2b3f 4201 2f3f 09ef 4a3f 5a7b 913f
000003b0: f5ac 4d3f 8b07 7f3f efb5 803f 4357 8a3f
000003c0: 9b3f 653f 80b2 433f 1fa4 4d3f 5d8d 533f
000003d0: 57a1 3b3f 72c0 4c3f 26d0 733f 9404 6f3f
000003e0: a4e5 753f 228a 5d3f 38fc 153f fb2e a43f
000003f0: 4c1f 3b3f 5d13 733f 93ad 6c3f a6bb 613f

bn1.bias f4 [256]
-0.6149512 -0.5323314 -0.39838257 -0.48692444 -0.4110021 -0.53420454 -0.6879885 -0.564946
-0.6192286 -0.43195727 -0.5129354 -0.51322097 -0.5095794 -0.7131314 -0.23196657 -0.27127066
-0.50720173 -0.36985493 -0.1747835 -0.34983996 -0.5773273 0.0025923245 -0.4027759 -0.6468082
-0.2975015 -0.43252108 -0.73714226 -0.35337827 -0.52984816 -0.6453703 -0.547785 -0.3339156
-0.34681928 -0.5005182 -0.57647324 -0.37254953 -0.32271183 -0.42887092 -0.2874077 -0.4427788
-0.646319 -0.45670944 -0.57082534 -0.35714278 -0.52230704 -0.433214 -0.42862564 -0.22312035
-0.15242787 -0.5560801 -0.7626059 -0.34133875 -0.37690496 -0.44568554 -0.19824024 -0.41259876
-0.43893328 -0.40789807 -0.54605234 -0.6312634 -0.29342553 -0.022585338 -0.5766436 -0.46835113
-0.21841443 -0.19245437 -0.26466256 -0.2850032 -0.47947198 -0.5218077 -0.31697378 -0.5281634
-0.021447988 -0.4323468 -0.31323618 -0.6184515 -0.19043726 -0.5296822 -0.5245031 -0.53834236
-0.33165923 -0.4745785 -0.48492157 -0.4427391 -0.5101513 -0.7105126 -0.4552238 -0.6460615
-0.35309482 -0.06057145 -0.17346023 -0.6052298 -0.28907067 -0.54263747 -0.57440144 -0.4217951
-0.22696015 -0.6039996 -0.1623665 -0.5898696 -0.52328116 -0.4720361 -0.4301619 -0.38272277
-0.45626336 -0.44713444 -0.5819418 -0.39043516 -0.4115655 -0.51117855 -0.46094173 -0.44458452
-0.03716441 -0.21592887 -0.5161087 -0.55323565 -0.061210774 -0.4389516 -0.36189476 -0.52215064
-0.811642 -0.14841612 -0.38734064 -0.08548566 -0.34533805 -0.4422013 -0.3684265 -0.27612853
-0.24509405 -0.76014495 -0.2623532 -0.56677794 -0.592282 -0.63459086 -0.3095172 -0.58687466
-0.25998566 -0.34552476 -0.46169928 -0.5124618 -0.48820055 -0.17914383 -0.4849406 -0.40541133
-0.5800517 -0.47778067 -0.4622006 -0.5168627 -0.2088614 -0.5073375 -0.5074678 -0.15449685
-0.6797302 -0.65400577 -0.31111175 -0.36504155 -0.48428857 -0.6260908 -0.5453309 -0.35995734
-0.72091854 -0.66086715 -0.664236 -0.305986 -0.46811506 -0.48090103 -0.35167646 -0.5733452
-0.5139781 -0.51468796 -0.50319284 -0.1879 -0.13123198 -0.3985208 -0.28459284 -0.3127425
-0.3447252 -0.4644253 -0.19625609 -0.391194 -0.5095922 -0.15160757 -0.18327884 -0.40987587
-0.5538893 -0.62673795 -0.6117302 -0.8118721 -0.43012905 -0.3791184 -0.4935065 -0.24797551
-0.39460436 -0.50092894 -0.5298811 -0.40770423 -0.72732234 -0.3478353 -0.41219378 -0.32908642
-0.58292955 -0.317221 -0.24528722 -0.2865472 -0.44022617 -0.4947592 -0.49279082 -0.80022526
-0.29356673 -0.46421608 -0.38218036 -0.77114964 -0.69352794 -0.23345295 -0.19867074 -0.57894903
-0.52182776 -0.43655467 -0.4128632 -0.28512123 -0.44949338 -0.46790013 -0.53505063 -0.58644336
-0.63136953 -0.42282647 -0.55575186 -0.51774085 -0.43311656 -0.2992315 -0.21586557 -0.6341925
-0.6574731 -0.584018 -0.811946 -0.23874095 -0.493878 -0.11140805 -0.33187172 -0.29925138
-0.4879241 -0.34137708 -0.4578305 -0.4370021 -0.49154434 -0.6204407 -0.30681753 -0.09992209
-0.65011203 -0.59305006 -0.4276158 -0.25941062 -0.40508863 -0.3499266 -0.24383514 -0.64506084
00000000: 716d 1dbf df46 08bf cdf8 cbbe 294e f9be
00000010: de6e d2be a1c1 08bf 0420 30bf 4da0 10bf
00000020: c485 1ebf 8129 ddbe bc4f 03bf 7362 03bf
00000030: cc73 02bf c88f 36bf a588 6dbe fde3 8abe
00000040: f9d7 01bf a05d bdbe 72fa 32be 391e b3be
00000050: b9cb 13bf fde3 293b a538 cebe 3995 25bf
00000060: 1e52 98be 6773 ddbe 5bb5 3cbf ffed b4be
00000070: 21a4 07bf fd36 25bf a33b 0cbf fcf6 aabe
00000080: 4c92 b1be f621 00bf c093 13bf d0be bebe
00000090: 7c3a a5be f894 dbbe 1a27 93be e7b3 e2be
000000a0: 2975 25bf d2d5 e9be 9c21 12bf 6bdb b6be
000000b0: eab5 05bf 3ace ddbe d274 dbbe a979 64be
000000c0: 0d16 1cbe 445b 0ebf 243a 43bf f4c3 aebe
000000d0: b0f9 c0be e530 e4be 7dff 4abe 2540 d3be
000000e0: ddbb e0be 04d8 d0be 16ca 0bbf 7a9a 21bf
000000f0: df3b 96be e304 b9bc ea9e 13bf b8cb efbe
00000100: 08a8 5fbe c212 45be da81 87be f0eb 91be
00000110: 5a7d f5be 3095 05bf 634a a2be b735 07bf
00000120: b1b3 afbc 8f5c ddbe 7e60 a0be d652 1ebf
00000130: fc01 43be 4199 07bf d645 06bf ced0 09bf
00000140: 3dcf a9be f4fb f2be a447 f8be b3ae e2be
00000150: 4799 02bf 27e4 35bf 1813 e9be 4964 25bf
00000160: d8c8 b4be c519 78bd 8f9f 31be 57f0 1abf
00000170: 1201 94be 4aea 0abf f90b 13bf 87f5 d7be
00000180: 3e68 68be b89f 1abf 6743 26be b201 17bf
00000190: c1f5 05bf b7ae f1be 2e3e dcbe 3df4 c3be
000001a0: 5a9b e9be ceee e4be 23fa 14bf 1ee7 c7be
000001b0: b7b8 d2be 99dc 02bf 8e00 ecbe 95a0 e3be
000001c0: b539 18bd 751c 5dbe b31f 04bf daa0 0dbf
000001d0: 26b8 7abd 44be e0be 454a b9be aaab 05bf
000001e0: c5c7 4fbf 65fa 17be 8351 c6be 1b13 afbd
000001f0: 26d0 b0be 3568 e2be 66a2 bcbe b860 8dbe
00000200: eff9 7abe dc98 42bf 2953 86be 5c18 11bf
00000210: cb9f 17bf 8c74 22bf 0a79 9ebe 6b3d 16bf
00000220: d71c 85be 9fe8 b0be d963 ecbe b230 03bf
00000230: 6cf5 f9be 7b71 37be 224a f8be 1392 cfbe
00000240: 457e 14bf ab9f f4be 8fa5 ecbe 1d51 04bf
00000250: c3df 55be dfe0 01bf 69e9 01bf 6c34 1ebe
00000260: cc02 2ebf ec6c 27bf 0a4a 9fbe bae6 babe
00000270: acf4 f7be 7d47 20bf ce9a 0bbf 544c b8be
00000280: 1e8e 38bf 972e 29bf 5f0b 2abf 32aa 9cbe
00000290: c7ac efbe a938 f6be f00e b4be c0c6 12bf
000002a0: 1294 03bf 97c2 03bf 3fd1 00bf dc68 40be
000002b0: ad61 06be eb0a ccbe 27b6 91be c91f a0be
000002c0: d27f b0be 27c9 edbe 5bf7 48be 944a c8be
000002d0: a274 02bf 043f 1bbe 73ad 3bbe 40db d1be
000002e0: b0cb 0dbf e671 20bf 5a9a 1cbf dad6 4fbf
000002f0: e039 dcbe cf1b c2be e2ac fcbe 4bed 7dbe
00000300: 9509 cabe e13c 00bf 4aa6 07bf 9cbe d0be
00000310: cc31 3abf 7817 b2be 100b d3be 047e a8be
00000320: df3a 15bf ca6a a2be 932c 7bbe 51b6 92be
00000330: 5365 e1be 1451 fdbe 144f fcbe 90db 4cbf
00000340: 614e 96be bbad edbe 25ad c3be 106a 45bf
00000350: 0c8b 31bf 4a0e 6fbe 5870 4bbe 0136 14bf
00000360: 8196 05bf 1884 dfbe ce62 d3be 69fb 91be
00000370: ff23 e6be 9b90 efbe 14f9 08bf 2721 16bf
00000380: 6fa1 21bf b67c d8be c145 0ebf aa8a 04bf
00000390: 74c1 ddbe df34 99be dd0b 5dbe 715a 22bf
000003a0: 2850 28bf 3482 15bf b1db 4fbf 8278 74be
000003b0: 94dd fcbe e729 e4bd 17eb a9be 7a37 99be
000003c0: 30d1 f9be fac8 aebe c268 eabe bdbe dfbe
000003d0: b3ab fbbe 34d5 1ebf 3017 9dbe f4a3 ccbd
000003e0: be6d 26bf 21d2 17bf 75f0 dabe 78d1 84be
000003f0: c767 cfbe 9429 b3be ebaf 79be b522 25bf

bn1.running_mean f4 [256]
-19.154165 -14.135172 3.2805307 9.086151 -0.67327815 1.3157169 -17.361347 10.158586
3.4885104 3.4914486 21.190516 15.1834135 -15.026607 -5.789616 26.970211 0.1288057
-4.898999 18.019938 18.699507 -3.6234565 0.75380015 8.584633 -2.7606866 -17.074266
7.687383 2.1751797 -3.6816487 4.471181 -15.300047 0.9717892 -10.5254545 -2.6691082
-21.95558 -19.177132 -13.410107 10.424147 -7.369677 12.657745 11.440747 -13.654079
-18.40574 5.270734 -4.7196755 6.3070636 -6.975052 13.82256 4.6936083 23.972357
13.687546 -10.054412 -5.961001 9.827686 0.022746306 -16.261578 15.239619 5.685201
7.9098005 2.8214438 0.48519906 9.095729 9.405585 9.947268 1.826443 -8.367302
4.050917 3.007725 13.482753 3.6724885 3.3519275 24.089672 -13.432964 5.2241297
1.7426482 15.964161 3.69688 -2.3774474 11.337011 -5.332739 2.802245 21.164663
-7.455865 -8.872932 0.5839119 11.475966 -0.5344018 0.036147628 0.8463638 -12.654701
19.133348 -5.911928 16.443253 -15.963544 4.573489 -6.130379 0.58374715 3.9659245
-22.76289 3.09635 2.8309627 -6.953304 21.780909 -12.478442 5.5437856 24.456646
3.8028479 -8.689082 -3.2217436 0.0055916533 -6.7777753 -4.465443 10.650706 7.4663386
15.169293 -11.718954 -3.0633118 4.459315 0.8548906 22.543911 -12.689603 -15.269503
-17.634127 3.138983 -6.984317 5.2456284 -24.524261 11.432716 -15.184142 6.8764334
-10.020812 -29.082426 -7.6168265 -33.0485 -8.162537 -18.564081 -9.909461 0.6044836
12.674471 -5.3673396 8.334669 -7.1840496 1.8139004 8.277408 -8.647086 -1.3059913
-18.30536 -2.5370874 10.079388 1.1174285 17.48493 -9.573965 -1.0203285 19.473495
-8.955663 -27.638498 8.936099 19.670177 -8.207576 -2.2469378 -14.53439 5.102567
8.731591 -6.265025 -15.424956 6.9121065 4.231934 -15.835873 -10.785047 2.4859688
4.467044 0.9540051 11.700425 5.957994 0.28807226 -17.933855 28.368732 15.470331
0.5787614 7.496363 10.733559 17.00743 -2.5478065 6.85557 25.204456 -4.4655
-7.7560587 -6.551232 6.465637 -17.645828 -14.572596 24.587423 -15.90479 16.46401
11.016229 12.171053 -1.4419746 3.5592418 -5.1447396 3.8913612 22.876219 3.4548514
-11.362492 13.731378 -2.4375722 7.347145 -29.09229 17.116535 12.706879 -11.221883
7.5017776 -9.847632 14.595259 -0.76752126 14.859773 6.3497624 5.65206 -3.3316848
-12.568144 0.85065454 11.918937 3.506125 -11.060641 3.0816302 -4.929915 6.1986322
-16.896479 -18.059254 7.9832025 5.4564543 -14.548278 -2.0540714 -0.25728664 -13.712052
-13.573955 1.343321 -1.8617852 -10.111834 5.3459334 16.165466 -7.540952 -6.10062
-2.6333365 13.043545 4.0657363 -1.9222635 -3.8048115 5.754079 -16.505785 -27.189484
4.161535 13.900901 17.413416 12.439408 14.869958 5.8456683 -3.8517306 -15.257937
00000000: bb3b 99c1 aa29 62c1 37f4 5140 e060 1141
00000010: f55b 2cbf 6969 a83f 0ae4 8ac1 9189 2241
00000020: c143 5f40 e573 5f40 2d86 a941 43ef 7241
00000030: fb6c 70c1 8944 b9c0 fec2 d741 a4e5 033e
00000040: 9ac4 9cc0 d528 9041 9798 9541 b6e6 67c0
00000050: 0cf9 403f a85a 0941 17af 30c0 1998 88c1
00000060: 0bff f540 2536 0b40 22a0 6bc0 ea13 8f40
00000070: fecc 74c1 2dc7 783f 4368 28c1 abd2 2ac0
00000080: 07a5 afc1 c46a 99c1 cc8f 56c1 4ec9 2641
00000090: 65d4 ebc0 2086 4a41 4d0d 3741 1c77 5ac1
000000a0: f53e 93c1 daa9 a840 9507 97c0 77d3 c940
000000b0: a033 dfc0 3529 5d41 0a32 9640 63c7 bf41
000000c0: 3000 5b41 dfde 20c1 85c0 bec0 343e 1d41
000000d0: 7656 ba3c b617 82c1 7bd5 7341 2bed b540
000000e0: 161d fd40 8992 3440 036c f83e 1b88 1141
000000f0: 477d 1641 0228 1f41 e2c8 e93f 78e0 05c1
00000100: 1da1 8140 917e 4040 5bb9 5741 0d0a 6b40
00000110: fb85 5640 a6b7 c041 6ced 56c1 122c a740
00000120: 190f df3f 346d 7f41 af99 6c40 1928 18c0
00000130: 6664 3541 cca5 aac0 fb57 3340 3b51 a941
00000140: 7296 eec0 88f7 0dc1 407b 153f 8f9d 3741
00000150: 8ece 08bf 890f 143d 4cab 583f a879 4ac1
00000160: 1911 9941 842e bdc0 c88b 8341 ad6a 7fc1
00000170: 065a 9240 112c c4c0 7470 153f b5d1 7d40
00000180: 661a b6c1 992a 4640 7e2e 3540 7781 dec0
00000190: 4d3f ae41 b3a7 47c1 b166 b140 36a7 c341
000001a0: dc61 7340 7b06 0bc1 0c31 4ec0 303a b73b
000001b0: 89e3 d8c0 e9e4 8ec0 4b69 2a41 3fec ee40
000001c0: 6db5 7241 d680 3bc1 4d0d 44c0 b5b2 8e40
000001d0: 1cda 5a3f ee59 b441 9d08 4bc1 e24f 74c1
000001e0: b112 8dc1 19e5 4840 867f dfc0 30dc a740
000001f0: b031 c4c1 68ec 3641 3ff2 72c1 be0b dc40
00000200: 3f55 20c1 cfa8 e8c1 0bbd f3c0 aa31 04c2
00000210: c099 02c1 3d83 94c1 278d 1ec1 70bf 1a3f
00000220: a2ca 4a41 3fc1 abc0 ce5a 0541 bce3 e5c0
00000230: e32d e83f 4370 0441 775a 0ac1 b92a a7bf
00000240: 6171 92c1 a45f 22c0 2c45 2141 e607 8f3f
00000250: 23e1 8b41 f62e 19c1 209a 82bf b8c9 9b41
00000260: 654a 0fc1 a51b ddc1 43fa 0e41 865c 9d41
00000270: 3b52 03c1 d4cd 0fc0 dd8c 68c1 3b48 a340
00000280: 99b4 0b41 167b c8c0 9fcc 76c1 fa2f dd40
00000290: 016c 8740 bc5f 7dc1 8d8f 2cc1 1d1a 1f40
000002a0: 06f2 8e40 ae39 743f f134 3b41 e3a7 be40
000002b0: 357e 933e 8978 8fc1 2af3 e241 7a86 7741
000002c0: b529 143f 35e2 ef40 a8bc 2b41 370f 8841
000002d0: 430f 23c0 d460 db40 baa2 c941 60e5 8ec0
000002e0: a231 f8c0 b1a3 d1c0 80e6 ce40 a82a 8dc1
000002f0: 5a29 69c1 0bb3 c441 057a 7ec1 4bb6 8341
00000300: 7942 3041 a2bc 4241 a092 b8bf 9eca 6340
00000310: b5a1 a4c0 100c 7940 7f02 b741 491c 5d40
00000320: c4cc 35c1 b9b3 5b41 2f01 1cc0 d01b eb40
00000330: 03bd e8c1 aaee 8841 604f 4b41 d58c 33c1
00000340: 900e f040 e78f 1dc1 2e86 6941 467c 44bf
00000350: a1c1 6d41 4131 cb40 addd b440 533a 55c0
00000360: 1e17 49c1 7fc4 593f f7b3 3e41 5a64 6040
00000370: 63f8 30c1 6e39 4540 ddc1 9dc0 325b c640
00000380: fd2b 87c1 5a79 90c1 6576 ff40 469b ae40
00000390: bfc5 68c1 e875 03c0 13bb 83be 9164 5bc1
000003a0: eb2e 59c1 f1f1 ab3f fa4e eebf 12ca 21c1
000003b0: e311 ab40 e052 8141 7b4f f1c0 4738 c3c0
000003c0: 9688 28c0 5cb2 5041 831a 8240 bb0c f6bf
000003d0: 0882 73c0 6a21 b840 d90b 84c1 1084 d9c1
000003e0: 4b2b 8540 176a 5e41 ad4e 8b41 d107 4741
000003f0: 59eb 6d41 b70f bb40 c182 76c0 8320 74c1

bn1.running_var f4 [256]
143.44278 489.10788 329.23547 274.25345 147.81561 561.2773 291.82504 192.63524
319.85455 167.0259 213.87148 280.45227 262.28564 511.09903 224.14526 777.50543
655.1876 301.77454 131.1412 134.13286 284.3798 176.31966 177.82747 440.1471
99.77461 313.53177 388.1574 312.8271 251.9646 139.98567 371.48486 337.16913
212.51253 678.02893 230.99706 460.5088 513.8994 188.49855 335.72366 199.06697
258.60687 388.72925 373.60092 302.51578 404.9562 350.53854 136.20906 138.40585
524.3408 186.16702 460.40854 306.0337 268.1138 138.40865 122.41769 270.2967
231.112 377.16974 405.4396 285.633 260.86523 173.56602 337.74167 516.26575
225.83228 1023.8432 88.98489 121.74821 215.00963 396.74698 230.87181 840.5671
21.550354 218.22198 177.56383 467.40366 96.86557 206.71072 365.16962 234.3201
207.516 109.76876 123.87266 281.9748 301.1088 407.9503 587.6439 136.87029
179.08798 103.91353 191.27692 309.00983 704.31 254.40508 494.29068 146.46568
132.21767 369.3181 217.04701 483.1936 244.77562 224.73979 404.49216 243.8897
310.31213 541.90955 202.64421 225.99536 335.2881 313.97342 263.52396 192.03055
190.06822 354.6058 289.77335 132.9154 314.76468 136.9761 192.47958 160.81189
195.93971 196.31572 369.2888 519.0183 167.82753 615.65454 226.93849 192.09872
178.70001 137.44525 308.75977 139.89421 120.37721 323.66486 87.97333 157.75804
196.14163 467.53833 367.61505 319.322 279.79828 336.23923 243.86095 369.2486
108.99954 196.91678 728.9728 428.73215 205.68533 164.46964 208.18626 210.65306
76.6667 255.3904 173.33672 662.89026 334.97394 277.6128 199.96724 113.75682
111.7968 235.33426 263.1006 217.69194 317.29266 308.6553 252.9957 417.5254
182.35274 122.660164 256.0726 190.52809 733.56006 309.2675 156.99266 237.71945
161.68546 111.57665 291.081 201.35902 371.57785 398.2221 319.18497 211.93944
256.2926 246.05435 413.04895 108.39216 648.1877 121.71409 268.34195 130.26886
270.60596 323.911 209.97038 146.58212 259.64554 169.09567 129.88123 288.12613
203.42317 308.40616 190.94708 83.152504 140.9249 632.2474 169.74147 369.7205
387.23413 445.24243 164.2755 247.19429 336.6512 71.81886 492.64337 206.87811
650.68823 135.6882 213.79352 59.232834 177.7592 252.04323 562.63635 460.17508
165.33603 320.0697 285.1788 211.41238 170.88809 145.49567 259.36475 342.94623
338.2586 411.22296 246.22478 137.4831 215.26242 300.58856 184.42534 219.66988
279.17245 233.12332 446.0257 367.2007 440.95605 122.7978 144.3896 177.32617
185.8728 357.0958 688.1182 134.99944 156.80914 587.3321 436.57654 164.2659
00000000: 5a71 0f43 cf8d f443 249e a443 7120 8943
00000010: ccd0 1343 bf51 0c44 9be9 9143 9fa2 4043
00000020: 62ed 9f43 a106 2743 19df 5543 e439 8c43
00000030: 9024 8343 ad8c ff43 3025 6043 5960 4244
00000040: 02cc 2344 24e3 9643 2624 0343 0322 0643
00000050: 9d30 8e43 d551 3043 d5d3 3143 d412 dc43
00000060: 9a8c c742 11c4 9c43 2614 c243 de69 9c43
00000070: f0f6 7b43 55fc 0b43 10be b943 a695 a843
00000080: 3583 5443 da81 2944 3fff 6643 2041 e643
00000090: 9079 0044 a17f 3c43 a1dc a743 2511 4743
000000a0: ae4d 8143 585d c243 ebcc ba43 0542 9743
000000b0: 657a ca43 ef44 af43 8535 0843 e667 0a43
000000c0: d015 0344 c22a 3a43 4b34 e643 5004 9943
000000d0: 910e 8643 9d68 0a43 dbd5 f442 fa25 8743
000000e0: ac1c 6743 ba95 bc43 45b8 ca43 06d1 8e43
000000f0: c06e 8243 e790 2d43 efde a843 0211 0144
00000100: 10d5 6143 f7f5 7f44 44f8 b142 157f f342
00000110: 7702 5743 9d5f c643 2fdf 6643 4b24 5244
00000120: 2067 ac41 d438 5a43 5790 3143 abb3 e943
00000130: 2cbb c142 f2b5 4e43 b695 b643 f251 6a43
00000140: 1984 4f43 9b89 db42 cdbe f742 c6fc 8c43
00000150: ed8d 9643 a3f9 cb43 36e9 1244 cbde 0843
00000160: 8616 3343 bad3 cf42 e446 3f43 4281 9a43
00000170: d713 3044 b367 7e43 3525 f743 3777 1243
00000180: b937 0443 b8a8 b843 090c 5943 c898 f143
00000190: 8fc6 7443 63bd 6043 ff3e ca43 c3e3 7343
000001a0: f427 9b43 367a 0744 eba4 4a43 d0fe 6143
000001b0: e0a4 a743 99fc 9c43 11c3 8343 d207 4043
000001c0: 7711 3e43 8b4d b143 fde2 9043 58ea 0443
000001d0: e161 9d43 e2f9 0843 c67a 4043 d8cf 2043
000001e0: 91f0 4343 d350 4443 f7a4 b843 2cc1 0144
000001f0: d9d3 2743 e4e9 1944 41f0 6243 4619 4043
00000200: 34b3 3243 fc71 0943 4061 9a43 ebe4 0b43
00000210: 22c1 f042 1ad5 a143 58f2 af42 0fc2 1d43
00000220: 4224 4443 e8c4 e943 bace b743 37a9 9f43
00000230: 2ee6 8b43 9f1e a843 67dc 7343 d29f b843
00000240: c4ff d942 b2ea 4443 423e 3644 b75d d643
00000250: 72af 4d43 3a78 2443 af2f 5043 2fa7 5243
00000260: 5a55 9942 f163 7f43 3356 2d43 fab8 2544
00000270: aa7c a743 70ce 8a43 9df7 4743 7e83 e342
00000280: f697 df42 9255 6b43 e08c 8343 23b1 5943
00000290: 76a5 9e43 e153 9a43 e6fe 7c43 40c3 d043
000002a0: 4d5a 3643 0152 f542 4b09 8043 3187 3e43
000002b0: d863 3744 3da2 9a43 1ffe 1c43 2eb8 6d43
000002c0: 7aaf 2143 3f27 df42 5e8a 9143 e95b 4943
000002d0: f7c9 b943 6e1c c743 ad97 9f43 7ff0 5343
000002e0: 7425 8043 ea0d 7643 4486 ce43 c9c8 d842
000002f0: 030c 2244 9d6d f342 c52b 8643 d444 0243
00000300: 904d 8743 9cf4 a143 6bf8 5143 0695 1243
00000310: a1d2 8143 7e18 2943 98e1 0143 2510 9043
00000320: 556c 4b43 fd33 9a43 74f2 3e43 154e a642
00000330: c6ec 0c43 d50f 1e44 d1bd 2943 39dc b843
00000340: f89d c143 089f de43 8746 2443 bd31 7743
00000350: 5b53 a843 42a3 8f42 5a52 f643 cce0 4e43
00000360: 0cac 2244 2eb0 0743 24cb 5543 6cee 6c42
00000370: 5bc2 3143 110b 7c43 baa8 0c44 6916 e643
00000380: 0656 2543 ec08 a043 e396 8e43 9269 5343
00000390: 5ae3 2a43 e47e 1143 b0ae 8143 1e79 ab43
000003a0: 1a21 a943 8a9c cd43 8b39 7643 ac7b 0943
000003b0: 2e43 5743 564b 9643 e36c 3843 7dab 5b43
000003c0: 1396 8b43 921f 6943 4a03 df43 b199 b743
000003d0: 607a dc43 7998 f542 bd63 1043 8053 3143
000003e0: 70df 3943 438c b243 9107 2c44 dbff 0643
000003f0: 24cf 1c43 41d5 1244 cc49 da43 1244 2443

fc2.weight f4 [128, 256]
-0.18335308 0.29801536 0.21461976 0.019134147 -0.0463282 0.019706644 -0.377183 -0.27578738
0.36661842 -0.30889478 -0.3729729 0.077447005 -0.6688437 0.26409397 -0.105181046 -0.12455352
-0.49320298 0.18984394 -0.25157607 -0.39546388 0.0011238214 -0.08584483 0.10227049 0.036410913
0.16241452 -0.06739211 0.18800192 -0.07527218 0.082986824 -0.42928055 0.022090893 -0.2558212
-0.37736434 -0.0977794 0.026075246 0.055804215 -0.06087146 0.09579866 0.056291092 -0.12665778
-0.25189966 0.3068549 -0.0045110653 -0.15722238 0.031419795 -0.31923962 -0.09619632 0.07040605
0.08329364 0.07069395 0.17631316 -0.040517744 -0.28454363 -0.5879694 0.22144598 -0.13070758
0.119064435 -0.0014776431 -0.17480695 0.28953415 -0.03509771 0.06950316 0.262736 0.08240858
0.21089187 0.13006991 0.02903379 -0.06514793 -0.13041674 -0.2563434 -0.22254276 -0.22313593
0.3427825 0.29030585 -0.2736022 0.17968845 -0.05936359 0.017503034 -0.21978278 0.031798836
-0.33763444 0.10821777 -0.042476185 0.12608804 0.23818226 0.22535905 -0.3268295 0.28217348
-0.22302225 0.09150398 0.11658842 -0.38851953 0.0045725172 0.04872118 -0.473036 -0.044370275
-0.013540765 0.06714161 -0.07202651 -0.15749489 0.110562935 -0.17876989 -0.040889353 0.035669588
-0.41033545 0.047925256 0.23816708 0.1823316 -0.21456338 -0.046074815 0.103120305 0.26599136
0.12981744 -0.28803882 -0.60654515 0.102999575 -0.14249264 0.22310424 -0.12179109 -0.46562725
-0.0005978845 -0.3463986 -0.34398255 -0.16794798 0.043292385 -0.7280813 0.0907615 0.38882372
-0.40932554 0.42584208 -0.25306728 -0.17145531 -0.1515526 0.011918873 0.08430377 -0.36578256
0.06816897 -0.22498508 -0.3011795 -0.24038081 0.34034577 0.0136720855 0.36137548 -0.46463263
-0.076313 0.24894853 0.3173256 -0.24727137 0.1857912 -0.15117377 -0.2507313 -0.013587775
-0.2042676 -0.16124664 -0.13818957 0.4168515 -0.40222135 0.014197416 -0.34489906 0.100557216
-0.16237925 -0.18552728 -0.29023117 0.03909163 -0.20325857 -0.039906003 0.16055277 0.06189491
0.20082733 -0.2901408 0.07428428 -0.00018636025 -0.07181047 -0.34347925 -0.19809124 -0.0773917
-0.040608224 -0.1489507 0.12172302 0.029414881 0.019628141 -0.2816941 0.036643386 0.06762952
0.1539362 0.40209427 0.31918705 -0.60641575 -0.038724385 0.15339771 0.11402432 -0.032506336
-0.117311694 0.08634458 -0.26889265 -0.14698601 -0.15715086 0.38070974 -0.11461937 -0.4828101
-0.0995689 -0.07946965 -0.15779139 0.19229218 -0.32799128 -0.0058369692 0.026948208 0.1229559
-0.39884 -0.17354456 -0.048991084 0.046442185 -0.2638092 0.21360938 -0.14707421 0.01846944
-0.058281787 -0.11398165 0.12363381 0.12610638 -0.09664328 0.048650447 -0.11704328 -0.1193881
0.11344339 -0.08200842 0.47460756 -0.16805643 0.26356038 -0.32964835 -0.10787542 -0.18799369
0.09427602 0.20489098 -0.32018188 -0.20889308 -0.09000594 0.25054568 -0.50058347 -0.39779118
-0.11519424 0.34628743 -0.11826001 -0.09766862 -0.1261936 0.45802763 -0.31743383 -0.1325907
0.017564027 0.26241773 -0.18621166 0.20833673 -0.17082332 -0.009755999 -0.19748603 0.12646817
00000000: e9c0 3bbe 7895 983e 48c5 5b3e 37bf 9c3c
00000010: a3c2 3dbd d46f a13c 211e c1be 0134 8dbe
00000020: 69b5 bb3e 7527 9ebe 4ef6 bebe 899c 9e3d
00000030: 5739 2bbf 5337 873e 2969 d7bd ea15 ffbd
00000040: 1a85 fcbe 7366 423e 94ce 80be 3e7a cabe
00000050: 304d 933a 6acf afbd 3173 d13d 9c23 153d
00000060: fe4f 263e e004 8abd 9383 403e 4d28 9abd
00000070: fff4 a93d a9ca dbbe f6f7 b43c fffa 82be
00000080: e635 c1be 9140 c8bd c19b d53c f692 643d
00000090: 5a54 79bd 1632 c43d 7d91 663d 94b2 01be
000000a0: fef8 80be 161c 9d3e 8fd1 93bb e7fe 20be
000000b0: 0bb2 003d 6073 a3be 9402 c5bd 0c31 903d
000000c0: db95 aa3d fdc7 903d 708b 343e eff5 25bd
000000d0: b4af 91be 2a85 16bf bcc2 623e 35d8 05be
000000e0: 0ed8 f33d 7aad c1ba 9800 33be d23d 943e
000000f0: 9ec2 0fbd ac57 8e3d 5585 863e d4c5 a83d
00000100: 0af4 573e 0c31 053e 45d8 ed3c 476c 85bd
00000110: f78b 05be 713f 83be 40e2 63be bf7d 64be
00000120: 3081 af3e f8a2 943e 9615 8cbe 4000 383e
00000130: 3c27 73bd 8662 8f3c bd0e 61be 7f3f 023d
00000140: 6cde acbe 47a1 dd3d 82fb 2dbd 391d 013e
00000150: 0de6 733e 86c4 663e 3256 a7be 0b79 903e
00000160: f25f 64be 7066 bb3d e9c5 ee3d 08ec c6be
00000170: 0ed5 953b dc8f 473d c631 f2be 9bbd 35bd
00000180: 16da 5dbc 8a81 893d a382 93bd 5746 21be
00000190: d26e e23d 740f 37be 987b 27bd 461a 123d
000001a0: 7d17 d2be 464d 443d 12e2 733e 23b5 3a3e
000001b0: 81b6 5bbe f2b8 3cbd bd30 d33d 0530 883e
000001c0: ddee 043e d379 93be 8b46 1bbf 71f1 d23d
000001d0: 97e9 11be 7075 643e 9b6d f9bd b266 eebe
000001e0: 59bb 1cba 285b b1be 7b1e b0be 8efa 2bbe
000001f0: 5b53 313d 8963 3abf 2ae1 b93d e713 c73e
00000200: 1e93 d1be f907 da3e 0992 81be fb91 2fbe
00000210: 9b30 1bbe 6047 433c 74a7 ac3d da47 bbbe
00000220: 2c9c 8b3d 7d62 66be 3334 9abe 6326 76be
00000230: cd41 ae3e e200 603c 3506 b93e 54e4 edbe
00000240: fd49 9cbd 5dec 7e3e 8078 a23e b534 7dbe
00000250: 0c40 3e3e 4ccd 1abe da5f 80be 429f 5ebc
00000260: 872b 51be d71d 25be 9181 0dbe 8f6d d53e
00000270: f5ef cdbe 479c 683c 9c96 b0be f1f0 cd3d
00000280: bf46 26be ddfa 3dbe 2e99 94be 8c1e 203d
00000290: 0423 50be 7a74 23bd f267 243e 8485 7d3d
000002a0: aea5 4d3e 568d 94be 5b22 983d b369 43b9
000002b0: 5e11 93bd 83dc afbe 6ed8 4abe 8a7f 9ebd
000002c0: cf54 26bd 8886 18be eb49 f93d 7af7 f03c
000002d0: 32cb a03c 363a 90be 6017 163d 5981 8a3d
000002e0: 74a1 1d3e 4ddf cd3e 7c6c a33e 103e 1bbf
000002f0: 769d 1ebd 4a14 1d3e 9585 e93d 5d25 05bd
00000300: 1d41 f0bd 6dd5 b03d 4cac 89be 8083 16be
00000310: 28ec 20be 63ec c23e 8fbd eabd e332 f7be
00000320: c8ea cbbd fcc0 a2bd 1194 21be 3ee8 443e
00000330: 79ee a7be 0c44 bfbb 7dc2 dc3c 4ed0 fb3d
00000340: c234 ccbe aab5 31be e0aa 48bd 293a 3e3d
00000350: 0012 87be 6bbc 5a3e 9f9a 16be 394d 973c
00000360: e2b8 6ebd 366f e9bd b933 fd3d 0822 013e
00000370: e9ec c5bd b145 473d 63b4 efbd c081 f4bd
00000380: 0255 e83d 08f4 a7bd c3ff f23e fc16 2cbe
00000390: 63f1 863e abc7 a8be caed dcbd 6b81 40be
000003a0: c913 c13d f1ce 513e e1ee a3be 11e8 55be
000003b0: 0955 b8bd 8647 803e 3d26 00bf 49ab cbbe
000003c0: f5ea ebbd 964c b13e 4e32 f2bd 7c06 c8bd
000003d0: e538 01be 9982 ea3e b086 a2be dbc5 07be
000003e0: 6fe2 8f3c 9e5b 863e 45ae 3ebe 3956 553e
000003f0: 4fec 2ebe a0d7 1fbc c739 4abe df80 013e

fc2.bias f4 [128]
0.024630526 0.021604229 0.0059611863 0.03127494 -0.051939424 0.000641309 -0.051304508 0.010380305
-0.0028493404 0.017424032 -0.02365448 0.05274273 -0.048992433 0.027431559 0.030796738 -0.050898064
-0.0025396347 0.00026260348 0.044393227 -0.00040443902 0.021697743 0.014649497 0.03818878 0.038071215
0.001719428 0.007883475 0.03568318 -0.046385795 -0.002037223 -0.04133457 -0.04287347 -0.003636471
-0.027709818 0.045022257 -0.011242639 -0.058740027 -0.05860502 0.011484053 -0.061960656 0.055767123
-0.011415728 0.040551756 0.062056582 -0.05991196 0.028391901 -0.050431084 -0.034263764 -0.054227434
-0.026688708 -0.03089117 0.055228204 0.03617122 -0.013682156 -0.029014165 -0.04251704 -0.012279572
-0.02661385 0.033609968 0.027132228 0.047791973 0.039943207 0.06100392 0.010132147 0.00021537332
-0.04769871 0.030363519 -0.015167484 -0.00056786597 0.038052984 0.05090148 0.038025726 0.01161992
0.025456756 -0.0048442194 -0.026427606 -0.022902207 0.05280239 -0.006502212 -0.042635303 0.05672095
-0.060302895 0.051717628 -0.053348377 -0.05119674 -0.03738648 -0.01891359 -0.0168967 0.04538052
0.05565996 0.023609638 -0.04859385 0.045650516 -0.016191162 0.0026016932 0.003700687 0.015811194
-0.05993099 -0.052705023 0.055278502 0.025731323 -0.028713906 0.06145977 -0.029181011 -0.009842148
-0.018638488 -0.01596645 0.05870491 0.00825178 0.007654712 -0.026667578 0.028950732 -0.048191056
-0.05409806 -0.019309042 0.02252295 0.04509751 -0.033438087 0.032819953 0.04259503 0.013653526
-0.034952614 -0.007207192 -0.009045046 -0.017025227 0.026273321 0.0073897936 0.02863345 0.014541512
00000000: f5c5 c93c 5afb b03c 0e56 c33b 271a 003d
00000010: 6fbe 54bd 851d 283a ad24 52bd 2812 2a3c
00000020: 00bc 3abb d8bc 8e3c 0ac7 c1bc c308 583d
00000030: 4aac 48bd 26b8 e03c 7149 fc3c 7d7a 50bd
00000040: 0070 26bb 0bae 8939 acd5 353d e30a d4b9
00000050: 77bf b13c 7204 703c d76b 1c3d 90f0 1b3d
00000060: 6e5e e13a b129 013c 8728 123d 08ff 3dbd
00000070: ee82 05bb 704e 29bd 179c 2fbd dc51 6ebb
00000080: b3ff e2bc 4269 383d 0c33 38bc 6299 70bd
00000090: d10b 70bd 9c27 3c3c 75ca 7dbd 116c 643d
000000a0: 0909 3bbc 9919 263d 0b2f 7e3d 3e66 75bd
000000b0: 2296 e83c d390 4ebd 2958 0cbd 961d 5ebd
000000c0: 47a2 dabc 7b0f fdbc f836 623d 4628 143d
000000d0: 1f2b 60bc 1daf edbc 5926 2ebd 4230 49bc
000000e0: 4a05 dabc 9baa 093d 6844 de3c 84c1 433d
000000f0: 7d9b 233d 3fdf 793d 4e01 263c d6d5 6139
00000100: b95f 43bd eabc f83c 0a81 78bc d7dc 14ba
00000110: 72dd 1b3d 127e 503d ddc0 1b3d 7a61 3e3c
00000120: b08a d03c 42bc 9ebb b57e d8bc 699d bbbc
00000130: 5247 583d 8210 d5bb 5ba2 2ebd 3a54 683d
00000140: 2b00 77bd ddd5 533d d483 5abd acb3 51bd
00000150: 9122 19bd acf0 9abc f36a 8abc ede0 393d
00000160: b3fb 633d 0069 c13c 580a 47bd 09fc 3a3d
00000170: 54a3 84bc 2b81 2a3b 3a87 723b 7a86 813c
00000180: 337a 75bd 39e1 57bd b66b 623d 7fca d23c
00000190: 6d39 ebbc 3dbd 7b3d 040d efbc f640 21bc
000001a0: beaf 98bc 13cc 82bc 8f74 703d 7932 073c
000001b0: 61d4 fa3b f775 dabc 162a ed3c fc63 45bd
000001c0: ed95 5dbd ff2d 9ebc 0d82 b83c 2bb8 383d
000001d0: 60f6 08bd 376e 063d 2078 2e3d 0ab3 5f3c
000001e0: 792a 0fbd 4f2a ecbb ac31 14bc 7d78 8bbc
000001f0: 263b d73c 1526 f23b b290 ea3c 863f 6e3c

bn2.weight f4 [128]
0.78719115 0.8560559 0.86765677 0.7137858 0.9257312 1.1094836 0.8909465 0.86618865
1.1022958 0.8190976 0.917856 0.66505665 0.78190714 0.7283239 0.69957185 0.8710619
0.84738547 0.6839863 0.80917907 0.56526625 0.81803393 0.80340075 0.7933325 0.8887788
1.0192769 0.8636149 0.8058174 0.9711101 0.6312171 0.61124194 0.6570134 0.8555332
0.8295059 0.60077876 0.7843975 0.62929726 0.8760642 0.73106134 0.7574672 0.6861633
0.7984888 0.7554807 0.80454975 1.0497444 0.8012106 0.80625254 0.79586565 0.93563944
0.6631002 0.89798594 0.66715497 0.6955267 0.8230677 0.8285332 0.7936193 0.9176375
0.77731544 0.61930704 0.91062117 0.99102545 0.9258935 0.7816443 0.92430395 0.8534092
0.7018636 0.8408701 0.7474723 0.67787313 1.0493066 1.034939 0.72966903 0.69722515
0.6806601 0.72209924 0.6933399 0.706983 0.722665 0.68128777 0.8868878 0.6322527
0.80155647 0.9326507 0.88657933 0.8338981 0.8160068 1.0756155 0.9035006 0.9523234
0.8055085 0.8564956 0.74603367 1.0200354 0.8879421 0.75833654 0.69554263 0.8060014
0.90127856 0.5999619 0.8311632 0.88649005 0.7626282 0.5843789 0.9631714 0.7348417
0.75791204 0.799357 1.071278 0.8589613 0.8458599 0.7830936 0.7260639 0.9455991
0.7185346 0.69270974 0.8365486 0.928665 0.7731452 0.78914064 0.79767144 0.7425634
0.6236858 0.7575381 0.99577343 0.61675596 0.76800776 0.63282704 0.8647359 0.8357157
00000000: 5c85 493f 7b26 5b3f c11e 5e3f abba 363f
00000010: b8fc 6c3f 8f03 8e3f 1215 643f 8abe 5d3f
00000020: 0718 8d3f 61b0 513f 9cf8 6a3f 2741 2a3f
00000030: 112b 483f 6f73 3a3f 2417 333f eafd 5e3f
00000040: 41ee 583f ba19 2f3f 5c26 4f3f 4ab5 103f
00000050: ac6a 513f acab 4d3f d717 4b3f 0287 633f
00000060: aa77 823f de15 5d3f 0d4a 4e3f ac9a 783f
00000070: 7297 213f 5a7a 1c3f 0832 283f 3904 5b3f
00000080: 805a 543f a3cc 193f 46ce 483f a019 213f
00000090: be45 603f d626 3b3f 5fe9 413f 66a8 2f3f
000000a0: c369 4c3f 2f67 413f f9f6 4d3f 065e 863f
000000b0: 231c 4d3f 9166 4e3f dabd 4b3f 1186 6f3f
000000c0: efc0 293f 68e2 653f abca 2a3f 0a0e 323f
000000d0: 91b4 523f c01a 543f a22a 4b3f 4bea 6a3f
000000e0: 25fe 463f e88a 1e3f 781e 693f d8b3 7d3f
000000f0: 5b07 6d3f d719 483f 2f9f 6c3f 0679 5a3f
00000100: 55ad 333f 4343 573f 585a 3f3f 1889 2d3f
00000110: ae4f 863f e278 843f 97cb 3a3f 597d 323f
00000120: be3f 2e3f 7fdb 383f b97e 313f d6fc 343f
00000130: 9300 393f e068 2e3f 140b 633f 50db 213f
00000140: ce32 4d3f 32c2 6e3f ddf6 623f 597a 553f
00000150: d2e5 503f c5ad 893f d14b 673f 77cb 733f
00000160: ce35 4e3f 4c43 5b3f 10fc 3e3f 8590 823f
00000170: 2c50 633f 5822 423f 150f 323f 1c56 4e3f
00000180: 31ba 663f 1a97 193f 1dc7 543f 03f1 623f
00000190: 9a3b 433f db99 153f 6792 763f 961e 3c3f
000001a0: 8606 423f a9a2 4c3f a31f 893f e3e4 5b3f
000001b0: 468a 583f d278 483f 53df 393f c812 723f
000001c0: e2f1 373f 6d55 313f 0d28 563f fdbc 6d3f
000001d0: d8ec 453f 1f05 4a3f 3234 4c3f a318 3e3f
000001e0: dfa9 1f3f 04ee 413f 02eb 7e3f b8e3 1d3f
000001f0: 289c 443f f400 223f 555f 5d3f 77f1 553f
