checkpoint_1stCritic.pth (torch_old, 192835 bytes, 13 tensors)

fcs1.weight f4 [256, 48]
0	0x3db2a667	0.08723145
1	0x3e416926	0.18887767
2	0x3b2d2a78	0.0026423018
3	0xbca10249	-0.01965441
4	0x3e34fdc7	0.17674933
5	0xbe0a452c	-0.1350295
6	0xbc5d5167	-0.013508177
7	0x3c30498e	0.010759724
8	0x3e10cf74	0.14141637
9	0x3f0c494a	0.5479933
10	0xbd16e256	-0.036836945
11	0x3d75ea05	0.06003763
12	0xb9d40988	-0.00040442892
13	0x3e55118f	0.2080748
14	0x3d8e89c1	0.06959868
15	0x3cbdf40f	0.023187665
16	0x3e85b7e6	0.26116866
17	0x3ec06cfc	0.37583148
18	0xbcea051d	-0.028566891
19	0xbf06f177	-0.52712196
20	0xbe84034e	-0.2578377
21	0x3f9306fc	1.1486506
22	0x3c387aa8	0.011259712
23	0xbf1de11a	-0.616716
24	0x3e0615f6	0.13094315
25	0x3d022b72	0.031779714
26	0xbb4b4abb	-0.0031019885
27	0x3c1086cb	0.0088212
28	0xbe7ce727	-0.24697553
29	0xbe4b9aad	-0.19883223
30	0xbd21bbf9	-0.039485905
31	0x3d2ee3a7	0.042697575
32	0x3d950487	0.07276254
33	0x3e26ac62	0.16276696
34	0x3c26573d	0.010152635
35	0xbd971641	-0.073772915
36	0xbd46e569	-0.048558626
37	0x3e6fad2b	0.23405902
38	0xbc31a5bd	-0.010842738
39	0xbc94058d	-0.018069053
40	0x3ddcc8ef	0.107805125
41	0x3df6cdae	0.12050949
42	0xbcef3fbc	-0.029205196
43	0xbe2d2bb9	-0.1691121
44	0x3e5c337d	0.21504016
45	0x3f92e25c	1.1475329
46	0xbcb6b170	-0.022301406
47	0xbdbcf81c	-0.092270106
48	0x3e5fd412	0.21858242
49	0xbe3bbdda	-0.18334141
50	0x3b57fe7f	0.0032958088
51	0x3e9ac25c	0.3022641
52	0xbf3a1c00	-0.72698975
53	0xbe62b335	-0.22138675
54	0xbcec461d	-0.028842026
55	0x3ebfe468	0.37478948
56	0x3e71fdc2	0.23631957
57	0x3db769e5	0.08955745
58	0xbdd056a0	-0.101727724
59	0x3eebacfd	0.46030417
60	0xbebcc5d3	-0.36869678
61	0xbe3a5484	-0.18196303
62	0xbde0803d	-0.109619595
63	0x3ef4da62	0.47822863
64	0x3e23c223	0.15992026
65	0x3e3e01f1	0.18555428
66	0xbccce698	-0.0250123
67	0x3f32452e	0.6963681
68	0xbcc5e228	-0.024155691
69	0xbe537d6a	-0.2065331
70	0xbd32d5fe	-0.04366111
71	0x3f1d14d9	0.61359936
72	0xbd9f3753	-0.07774224
73	0x3cbf5999	0.023358153
74	0xbccdac45	-0.025106559
75	0xbe17a740	-0.14809895
76	0x3f254fb2	0.6457473
77	0xbe4ab6a3	-0.19796233
78	0xbd92a877	-0.07161038
79	0xbe226a4e	-0.15860865
80	0x3d5b3f76	0.053527318
81	0xbd8c540f	-0.068519704
82	0xbca3c6af	-0.0199922
83	0xbc47af06	-0.012187725
84	0x3e9e07d2	0.3086534
85	0xbe0fa08f	-0.14026092
86	0x3c9d9ca7	0.019239737
87	0xbd55f290	-0.05223328
88	0x3e0d58d1	0.13803412
89	0x3d1ef86a	0.038811125
90	0xbc91ded8	-0.017806455
91	0x3db7664a	0.08955057
92	0x3cf841bf	0.030304788
93	0xbe12f36e	-0.14350674
94	0xbd1dcf5b	-0.038527828
95	0x3de90f12	0.113798276
96	0xbe3d2b0c	-0.18473452
97	0x3fa29936	1.2703006
98	0xbb535529	-0.0032246804
99	0x3e58f93f	0.2118883
100	0xbdd3409b	-0.10315057
101	0xbe9291a0	-0.28626728
102	0xbc8def2a	-0.017325956
103	0x3e9cddb7	0.30637905
104	0xbd26e662	-0.040747054
105	0x3fb4bd4e	1.4120271
106	0xbd47fe33	-0.048826408
107	0xbd586d08	-0.052838355
108	0xbe54c24d	-0.20777245
109	0xbed61ae2	-0.41817385
110	0x3d4de3b4	0.050265983
111	0xbd97ed6b	-0.07418331
112	0xbc9ff024	-0.019523688
113	0x3f85cc7a	1.0453026
114	0xbddbbe06	-0.107296035
115	0xbf1113b4	-0.5667069
116	0xbe7783bb	-0.24171345
117	0xbea713d6	-0.3263232
118	0xbc8b3e08	-0.016997352
119	0xbee80d84	-0.45322812
120	0x3d2d069c	0.04224263
121	0x3ed63741	0.4183903
122	0xbd0189e7	-0.031625655
123	0x3dd635d8	0.10459489
124	0x3ddd68c8	0.10811001
125	0xbe8b4341	-0.27199748
126	0x3d4a1478	0.049335927
127	0x3cdd3344	0.027001984
128	0x3dcd9ed0	0.10040057
129	0x3ec56ce9	0.38559654
130	0x3bab060f	0.005219228
131	0xbe1b4cb4	-0.15165979
132	0x3e6e4760	0.23269415
133	0xbee05444	-0.4381429
134	0xbc0de8e3	-0.008661482
135	0xbe12bec8	-0.1433059
136	0x3e398090	0.18115449
137	0x3e8d0d05	0.27548996
138	0xbd0e77ef	-0.034782346
139	0xbeb121d8	-0.34596133
140	0x3e86476c	0.26226366
141	0xbe943bae	-0.28951782
142	0xbc642061	-0.013923735
143	0xbe8ffeb6	-0.28124017
144	0x3e5bf791	0.21481158
145	0x3e84f880	0.2597084
146	0x3d145424	0.036213055
147	0xbd86822a	-0.065677956
148	0x3c872301	0.016496183
149	0xbe675047	-0.22589217
150	0xba688490	-0.0008869851
151	0xbd2bf4ca	-0.041981496
152	0x3e71e660	0.23623037
153	0x3f046279	0.5171276
154	0xbd844191	-0.06457818
155	0x3de66940	0.112505436
156	0x373dd7ff	1.1315568e-05
157	0xbe913687	-0.28361914
158	0xbbb04c70	-0.005380206
159	0xba19afa5	-0.000586266
160	0x3e8f70c1	0.28015712
161	0x3eabb7ff	0.33538815
162	0x3e25f0b4	0.16205102
163	0xbeaee352	-0.34157807
164	0x3e08f108	0.13373196
165	0xbe0cd018	-0.13751256
166	0x3dcec9fd	0.1009712
167	0xbe979d89	-0.29612377
168	0xbd522eb4	-0.05131407
169	0xbf02ab9b	-0.510431
170	0xbe2c1f10	-0.16808724
171	0x3d5f8d52	0.054578133
172	0xbd49c4fd	-0.04926013
173	0xbea248d8	-0.316962
174	0xbe07d8ac	-0.13266248
175	0x3dd45d69	0.10369379
176	0x3d08fecc	0.03344612
177	0xbed9bc83	-0.42526636
178	0xbbe4886a	-0.0069742696
179	0x3d770d81	0.060315613
180	0x3acdfaff	0.0015715061
181	0xbe7f0f89	-0.2490827
182	0xbde8c87c	-0.11366364
183	0x3c929040	0.01789105
184	0x3e775098	0.24151838
185	0xbea3c41d	-0.3198556
186	0x3ebc7578	0.36808372
187	0x3ebc2795	0.3674895
188	0xbdd61b0e	-0.10454379
189	0xbe2214ff	-0.15828322
190	0x3eb5e26b	0.35524306
191	0x3eb32faf	0.34997317
192	0xbcc5a5af	-0.024126856
193	0xbe14e9db	-0.14542334
194	0x3d8e6077	0.06951993
195	0xbddb11f5	-0.106967844
196	0x3ec335e7	0.38127062
197	0x3d74ce72	0.059767194
198	0xbb7783bc	-0.0037767729
199	0xbe070da5	-0.13188799
200	0x3d32a24f	0.04361182
201	0xbedf17e7	-0.43572924
202	0xbe071924	-0.13193184
203	0xbe2379cf	-0.15964435
204	0x3f03aebc	0.514385
205	0x3e708864	0.23489529
206	0xbdf3f74a	-0.11912401
207	0xbd90d471	-0.0707177
208	0x3d9d2eb6	0.07674925
209	0xbf0b6f70	-0.54466915
210	0xbd9f5de4	-0.0778158
211	0x3e4214d7	0.18953262
212	0x3f5409e4	0.8282759
213	0x3e2f9a94	0.1714881
214	0xbd09d9e9	-0.03365508
215	0x3e48ede4	0.19621998
216	0xbd07e14b	-0.03317384
217	0x3e45730f	0.19282173
218	0xbc333131	-0.010937021
219	0xbe6a8abf	-0.2290449
220	0xbecdd5b6	-0.4020211
221	0x3dfe84ee	0.12427698
222	0xbbe6d0c1	-0.0070439284
223	0xbe5bba7f	-0.21457861
224	0xbdd7cba2	-0.10536887
225	0x3d79a067	0.060943987
226	0xbd4d7294	-0.0501581
227	0xbe8d8d9d	-0.27647105
228	0xbedbd843	-0.42938432
229	0x3e198045	0.14990337
230	0x3d2eecdb	0.04270635
231	0xbe366db6	-0.17815289
232	0xbe3f368d	-0.18673153
233	0xbe01c31a	-0.12672082
234	0xbe0a5566	-0.1350914
235	0xbeab8a9d	-0.3350419
236	0xbf4e5ffd	-0.80615216
237	0x3dd6efa0	0.104949236
238	0xbd9a317c	-0.0752897
239	0xbec94d24	-0.39316666
240	0x3e4ca77b	0.19985764
241	0xbeb685d4	-0.35648978
242	0xbcfd27e2	-0.030902807
243	0xbe56c44c	-0.20973319
244	0x3e549ef4	0.20763761
245	0xbeeeb4b9	-0.46622255
246	0xbc9432eb	-0.018090686
247	0xbe231fe4	-0.15930134
248	0x3e5213fc	0.20515436
249	0xbf1816ba	-0.5940968
250	0x3c128452	0.00894268
251	0xbe1a3c7b	-0.15062134
252	0x3cff7e0f	0.03118804
253	0x3c874557	0.016512556
254	0x3cc7adda	0.024374891
255	0xbdf42b58	-0.1192233

fcs1.bias f4 [256]
0	0xbe0c3ba7	-0.1369463
1	0xbe687c96	-0.22703776
2	0xbe3db823	-0.18527274
3	0xbefe411f	-0.49659058
4	0xbdfa1a83	-0.12212088
5	0xbe899326	-0.26870078
6	0xbea2f21a	-0.31825334
7	0x3e3e975d	0.18612428
8	0xbd00a3c0	-0.031406164
9	0xbde1910b	-0.11013993
10	0xbda43607	-0.080181174
11	0xbd91b2f7	-0.07114213
12	0x3df1f80b	0.118148886
13	0xbdb9c3e0	-0.09070563
14	0xbe9eab0a	-0.30989867
15	0x3d140c38	0.036144465
16	0xbe847b6e	-0.2587542
17	0xbe545ca2	-0.20738462
18	0xbe0dbcdd	-0.13841577
19	0x3dead66c	0.11466679
20	0xbd4372ae	-0.04771679
21	0xbebe6ce2	-0.37192446
22	0xbd0671f4	-0.032823518
23	0xbe482fd3	-0.19549493
24	0x3d97c27d	0.074101426
25	0xbe87b4a7	-0.26505014
26	0x3d510ff1	0.051040594
27	0xbf12fa35	-0.57413036
28	0xbe48f1b7	-0.19623457
29	0xbf12fff0	-0.5742178
30	0xbed62457	-0.418246
31	0xbd440957	-0.04786047
32	0xbe800107	-0.25000784
33	0xbe69273f	-0.22768877
34	0xbe92cfdc	-0.2867421
35	0xbf327e76	-0.69724214
36	0xbe749d82	-0.2388821
37	0xbea8c69f	-0.32964036
38	0xbe547f41	-0.20751669
39	0xbd04e14d	-0.032441426
40	0xbec444e8	-0.3833382
41	0x3cf5ed48	0.030020371
42	0xbf0dfc05	-0.55462676
43	0xbea657f8	-0.3248899
44	0xbf04e57c	-0.51912665
45	0xbe918a33	-0.2842575
46	0xbd93903f	-0.07205247
47	0xbdf9e9d7	-0.122028045
48	0xbd79d4c7	-0.060993936
49	0xbd26985a	-0.040672638
50	0xbf100e4a	-0.56271803
51	0xbea1c0db	-0.3159245
52	0xbecc7d4b	-0.3993934
53	0x3e85ac40	0.2610798
54	0xbe6d9eb6	-0.23205075
55	0xbe6cd5a3	-0.23128371
56	0xbee5bc2b	-0.44870123
57	0xbe18abff	-0.14909361
58	0xbd88502c	-0.066559166
59	0xbdf57aa4	-0.119862825
60	0xbebbeb76	-0.3670308
61	0xbe7ce8ba	-0.24698153
62	0xbe124ec7	-0.14287864
63	0xbf3e7e46	-0.7441143
64	0x3e0dc585	0.13844879
65	0x3c8f9e3a	0.017531503
66	0xbe648acd	-0.22318573
67	0x3c860f0b	0.016364595
68	0xbf03dd29	-0.5150934
69	0xbd58db96	-0.05294379
70	0x3d15ad99	0.03654251
71	0xbe83db1f	-0.25753114
72	0xbe3c041f	-0.18360947
73	0x3e958971	0.29206422
74	0xbd882f54	-0.06649652
75	0xbe21df61	-0.15807869
76	0xbe0b5901	-0.13608171
77	0xbd45536a	-0.048175253
78	0xbe9d9f71	-0.30785707
79	0xbe850e10	-0.2598729
80	0xbcde09b1	-0.02710423
81	0xbe9d12f6	-0.3067853
82	0xbd439603	-0.047750484
83	0xbf613a02	-0.8797914
84	0x3d41ee97	0.047346678
85	0xbe521f7b	-0.20519821
86	0xbee3581b	-0.44403157
87	0xbf06fa11	-0.5272532
88	0xbe0a22d5	-0.1348985
89	0xbd0c97a5	-0.034324307
90	0xbe4c032f	-0.1992309
91	0xbef5e5ad	-0.4802679
92	0xbd86c0fb	-0.06579777
93	0xbe7de9b3	-0.2479618
94	0xbc554e58	-0.013019167
95	0xbe8435a2	-0.2582217
96	0x3e08e9a3	0.13370375
97	0x3e9995da	0.2999714
98	0xbbaa08cc	-0.005189037
99	0xbe4da0f3	-0.20080929
100	0xbdaaa012	-0.08331312
101	0xbe0473b0	-0.12934756
102	0xbe0bfe91	-0.13671328
103	0x3d0a0132	0.033692546
104	0xbd9c8445	-0.07642416
105	0xbd1844cd	-0.03717499
106	0xbf1a1c57	-0.60199493
107	0xbe0fdd83	-0.14049344
108	0xbd109e42	-0.035307176
109	0xbec7c52b	-0.39017615
110	0xbe9f6fe0	-0.3114004
111	0xbe817ba2	-0.25289637
112	0xbe81c338	-0.25344253
113	0xbea1129e	-0.31459516
114	0xbe41e527	-0.18935071
115	0xbeff7bcc	-0.49899137
116	0xbe236162	-0.15955117
117	0xbe4fd7f8	-0.2029723
118	0xbeba2b53	-0.3636118
119	0xbe6e789c	-0.23288196
120	0xbec4e0c9	-0.38452747
121	0xbe2b663c	-0.16738218
122	0xbe7501f9	-0.23926534
123	0x3e06cc5d	0.13163896
124	0xbf33d7d6	-0.70251215
125	0xbdf1409f	-0.117799036
126	0xbed0d5a5	-0.40787998
127	0xbca96bb5	-0.020681242
128	0xbe994b13	-0.2994009
129	0xbe103d9b	-0.14086
130	0xbe770f26	-0.24126872
131	0xbeae7a56	-0.3407771
132	0xbe8ca6c0	-0.2747097
133	0xbe8eea79	-0.27913263
134	0xbf2f4180	-0.6845932
135	0x3cdaaf3d	0.026694888
136	0xbe0046cf	-0.12527011
137	0xbec421cd	-0.38307038
138	0xbdee8ef1	-0.11648358
139	0xbeb02b85	-0.34408203
140	0xbe506567	-0.20351182
141	0xbeaa39d9	-0.3324726
142	0xbf1d7d00	-0.6151886
143	0xbbb4a69c	-0.0055130254
144	0xbe2e5f63	-0.17028575
145	0x3b815379	0.0039467183
146	0xbb09bc08	-0.0021016616
147	0xbe34ed48	-0.1766864
148	0xbe4df58a	-0.20113197
149	0xbefeba38	-0.4975145
150	0xbe305774	-0.1722086
151	0xbd391443	-0.04518534
152	0xbd72c602	-0.059270866
153	0x3d9b3d81	0.0758009
154	0xbc5e53a2	-0.013569744
155	0xbf10c3e5	-0.5654891
156	0xbe5859e3	-0.21128039
157	0xbdbf3095	-0.09335438
158	0xbea6eb78	-0.32601523
159	0xbe16e8b2	-0.14737204
160	0xbe18a17e	-0.14905354
161	0x3d0980cb	0.033570092
162	0xbeb698b6	-0.35663384
163	0xbeaaf446	-0.3338949
164	0xbeb342b2	-0.35011822
165	0xbea7de7a	-0.32786924
166	0xbed19dc6	-0.40940684
167	0xbd53eb92	-0.05173833
168	0x3dc48c37	0.09597056
169	0xbe8d342c	-0.27578866
170	0x3b7a24ed	0.0038168982
171	0xbe7aab91	-0.2447951
172	0xbe110199	-0.14160766
173	0xbd75ed80	-0.06004095
174	0xbe97e71a	-0.29668504
175	0xbe0cda73	-0.13755207
176	0x3dd592f7	0.10428422
177	0xbeb95078	-0.36194205
178	0xbe2b727e	-0.16742894
179	0xbed767bc	-0.4207133
180	0xbd450322	-0.04809869
181	0xbe3d3160	-0.18475866
182	0xbe518780	-0.20461845
183	0xbed11c5c	-0.4084195
184	0xbe55e991	-0.2088988
185	0xbe24827c	-0.16065401
186	0xbcb46c2a	-0.022024233
187	0xbd0135d6	-0.031545483
188	0xbcb64995	-0.022251884
189	0xbe208d86	-0.15678987
190	0xbdbb6956	-0.091509506
191	0x3dc9c5ed	0.098522045
192	0x3d508ef4	0.05091758
193	0xbd9cd56a	-0.07657893
194	0xbe59e8d2	-0.2128022
195	0xbe5ef710	-0.21773934
196	0xbef9fd8e	-0.4882626
197	0xbe158c46	-0.14604291
198	0xbe6e6f9d	-0.23284765
199	0xbecb6066	-0.39721984
200	0xbdfc9a3f	-0.123341076
201	0xbdd38751	-0.10328544
202	0xbe6d50c3	-0.2317534
203	0xbed0ba6d	-0.40767232
204	0xbdfd41f0	-0.12366092
205	0x3e0e4b82	0.13895991
206	0xbc12492f	-0.008928581
207	0xbe99eb62	-0.30062395
208	0xbd6989b0	-0.057016075
209	0x3e2862db	0.1644396
210	0xbed93eb9	-0.42430666
211	0xbe79751e	-0.24361083
212	0x39137ad5	0.00014064771
213	0xbd227329	-0.039660607
214	0xbd1b1323	-0.037860047
215	0x3d533bd2	0.05157072
216	0xbdde977d	-0.10868738
217	0x3e1d5614	0.15364867
218	0xbe9d48fb	-0.30719742
219	0xbde62ec1	-0.11239386
220	0xbdf684ad	-0.12037025
221	0xbe9cb269	-0.30604866
222	0xbe9e08aa	-0.30865985
223	0x3d264bfd	0.04059981
224	0xbe05942d	-0.13044806
225	0xbe6f966a	-0.23397222
226	0xbdebbc5d	-0.11510537
227	0xbd92bcaa	-0.07164891
228	0xbc89e95b	-0.016834905
229	0xbea7675f	-0.32696053
230	0xbe937b4d	-0.2880501
231	0xbca0eb87	-0.019643558
232	0xbcf7dcdf	-0.030256687
233	0xbeb4808e	-0.3525433
234	0xbe79005f	-0.24316548
235	0xbea30b43	-0.3184453
236	0xbe934e50	-0.28770685
237	0xbdd84a86	-0.10561089
238	0x3d8af693	0.067853115
239	0xbe2cf93a	-0.16891947
240	0xbd27d670	-0.040975988
241	0xbe7e4d3c	-0.2483415
242	0xbe251665	-0.16121824
243	0xbde5c8cd	-0.1121994
244	0xbe0d5886	-0.138033
245	0xbd0eb78e	-0.03484302
246	0xbe1ad1e1	-0.15119125
247	0xbe946753	-0.2898508
248	0xbe14ab37	-0.14518438
249	0xbe7464dc	-0.238666
250	0xbeae30f6	-0.3402173
251	0xbf13c7ca	-0.5772673
252	0xbe89b871	-0.2689853
253	0xbebbf805	-0.3671266
254	0xbf28e0df	-0.65968126
255	0xbeb7c0b6	-0.35889214

bn1.weight f4 [256]
0	0x3f11f80b	0.5701911
1	0x3e8f66d1	0.2800813
2	0x3ee89d85	0.45432678
3	0x3e319239	0.17340936
4	0x3f00d0c4	0.5031855
5	0x3ee01de2	0.437728
6	0x3e3d56ff	0.18490218
7	0x3ef313b5	0.47475973
8	0x3e072cb8	0.13200653
9	0x3e4e9cb7	0.2017697
10	0x3ea3dcea	0.32004482
11	0x3edb44b1	0.42825845
12	0x3e923c23	0.28561506
13	0x3e3b4f3e	0.18291947
14	0x3f6342b6	0.8877367
15	0x3f03b529	0.51448303
16	0x3f69b2ee	0.9128865
17	0x3f31c963	0.69447917
18	0x3e8d3779	0.27581385
19	0x3eb26a15	0.3484656
20	0x3e36105f	0.17779683
21	0x3f333117	0.6999678
22	0x3e8697df	0.26287743
23	0x3e3aff3d	0.18261428
24	0x3eaaa522	0.3332911
25	0x3e596b3f	0.21232317
26	0x3e7ad49d	0.24495168
27	0x3f9bd8c8	1.2175531
28	0x3f07e12d	0.53077966
29	0x3ecd396a	0.40082866
30	0x3eb47482	0.35245138
31	0x3b6f2d1f	0.00364954
32	0x3f949634	1.1608338
33	0x3dd5e48f	0.10443985
34	0x3e8fa96c	0.28058946
35	0x3ef6d5d8	0.48210025
36	0x3e7ec242	0.24878791
37	0x3e8ab5b4	0.27091753
38	0x3e8e193e	0.27753633
39	0x3db8d3af	0.090247504
40	0x3ec2af56	0.38024396
41	0x3ee0d78c	0.4391445
42	0x3f48f4bb	0.7849843
43	0x3dc200f3	0.09472837
44	0x3ebc7bdd	0.3681325
45	0x3e5f2a0d	0.21793385
46	0x3f03c8f5	0.5147851
47	0x3e10a0f5	0.141239
48	0x3e2b11d6	0.16706023
49	0x3d0cb7d6	0.034355007
50	0x3e9ddf9b	0.3083466
51	0x3d536542	0.05161024
52	0x3e53de5f	0.20690297
53	0x3f61987d	0.88123304
54	0x3eb48b13	0.35262355
55	0x3e44ee4d	0.1923153
56	0x3f560f29	0.8361688
57	0x3e604e76	0.2190493
58	0x3e9a5367	0.30141756
59	0x3df341b8	0.11877769
60	0x3e863221	0.2621012
61	0x3e1bc27e	0.15210912
62	0x3e2d6826	0.1693426
63	0x3eaca37e	0.33718485
64	0x3e50158a	0.20320717
65	0x3f1abf0b	0.6044776
66	0x3e598a33	0.21244125
67	0x3e7ee113	0.24890547
68	0x3ec21775	0.3790852
69	0x3f483b0f	0.78215116
70	0x3e8e6233	0.27809295
71	0x3e00e638	0.12587821
72	0x3e4aa3f3	0.19789104
73	0x3e6918a0	0.227633
74	0x3e5943fb	0.21217339
75	0x3e5dde92	0.21666935
76	0x3ea9af06	0.33141345
77	0x3e504d54	0.20341998
78	0x3ecfaf03	0.4056321
79	0x3e70192a	0.234471
80	0x3e5277f7	0.20553575
81	0x3eb5d89a	0.35516816
82	0x3ebe51eb	0.37171873
83	0x3f524ef9	0.8215175
84	0x3eaf27b5	0.34209982
85	0x3eec9305	0.46205917
86	0x3ed4ce7c	0.41563785
87	0x3ef04a78	0.46931815
88	0x3e416712	0.18886974
89	0x3e8d513b	0.27601036
90	0x3e59cc64	0.21269375
91	0x3e477d37	0.1948136
92	0x3e0ca634	0.13735276
93	0x3ec3ef63	0.38268575
94	0x3f64b508	0.8933873
95	0x3ebef07b	0.37292847
96	0x3bb098ff	0.0053893323
97	0x3f9c317a	1.2202599
98	0x3f2eb218	0.682405
99	0x3eaae877	0.33380482
100	0x3e2f94b0	0.17146564
101	0x3e35f4a3	0.17769103
102	0x3e828a3b	0.25496086
103	0x3e1a2669	0.15053715
104	0x3e3ef557	0.18648277
105	0x3ed95a42	0.42451674
106	0x3f89a946	1.0754783
107	0x3e92b1e4	0.28651345
108	0x3eb95727	0.36199304
109	0x3fb30846	1.39869
110	0x3ee60c6c	0.44931352
111	0x3f00ccb2	0.5031234
112	0x3eb1ec6d	0.3475069
113	0x3e11fd47	0.14256774
114	0x3f32c111	0.69825846
115	0x3de1417f	0.109988205
116	0x3e890a68	0.26765752
117	0x3e9379fd	0.28804007
118	0x3e2e85a6	0.1704317
119	0x3e981cce	0.29709476
120	0x3e6d405e	0.23169085
121	0x3ee25858	0.44208026
122	0x3ea1315e	0.31482977
123	0x3eb199de	0.34687704
124	0x3ea305ef	0.31840464
125	0x3ecd965f	0.40153787
126	0x3f17a347	0.59233516
127	0x3f1cdae1	0.6127148
128	0x3e851762	0.25994402
129	0x3eabad46	0.33530635
130	0x3ecf333b	0.40468773
131	0x3e75e5fa	0.2401351
132	0x3f43c6c3	0.7647516
133	0x3e960723	0.2930232
134	0x3f2fe2d5	0.68705493
135	0x3e3d35a1	0.18477489
136	0x3ed5f724	0.41790116
137	0x3edd30ca	0.43201286
138	0x3e66fa38	0.22556388
139	0x3f1eb434	0.6199372
140	0x3f2bdc63	0.6713316
141	0x3e34ea9b	0.1766762
142	0x3f110085	0.5664142
143	0x3f6e5f44	0.93114114
144	0x3ede40ba	0.43408757
145	0x3e50b611	0.20381953
146	0x3ed4411a	0.4145592
147	0x3e87458e	0.26420254
148	0x3dba68e4	0.091020375
149	0x3f5913bb	0.8479573
150	0x3e8df73a	0.2772768
151	0x3ea20886	0.31647128
152	0x3e897f1a	0.26854783
153	0x3ebf7c7d	0.37399665
154	0x3e8d0f34	0.27550662
155	0x3f0857ac	0.53258777
156	0x3e4e7b95	0.2016433
157	0x3ebdaf32	0.37047726
158	0x3eee5662	0.4655028
159	0x3ef84ba9	0.48495224
160	0x3de6ae59	0.11263723
161	0x3f60a5cd	0.8775299
162	0x3e7b1293	0.24518804
163	0x3df4a3d7	0.119453125
164	0x3e52a22f	0.2056968
165	0x3e809e2a	0.2512067
166	0x3f019a98	0.50626516
167	0x3d6a98c2	0.057274587
168	0x3da7beef	0.081907146
169	0x3ed5d89d	0.41766825
170	0x3b89d900	0.0042067766
171	0x3d14627c	0.036226735
172	0x3ea7f0d8	0.32800937
173	0x3e40413a	0.18774882
174	0x3ed298fd	0.41132346
175	0x3ea55849	0.3229392
176	0x3e674fa3	0.22588973
177	0x3da82444	0.08210042
178	0x3e6ff751	0.23434187
179	0x3f276996	0.65395486
180	0x3f0aaa07	0.5416569
181	0x3e8a3bb1	0.26998666
182	0x3ed0c174	0.40772593
183	0x3e287f41	0.16454794
184	0x3f021591	0.5081416
185	0x3e779336	0.2417725
186	0x3e5c83f1	0.21534707
187	0x3e481824	0.19540459
188	0x3f03a7bf	0.51427835
189	0x3ec6b588	0.38810372
190	0x3ea75c0e	0.3268742
191	0x3e549944	0.20761591
192	0x3e15eb50	0.14640546
193	0x3e5207e7	0.20510827
194	0x3f6fc00a	0.93652403
195	0x3e705ecc	0.23473662
196	0x3ed1a67e	0.40947336
197	0x3efdde00	0.49583435
198	0x3e7621e2	0.24036363
199	0x3f05c04f	0.52246565
200	0x3ebdf897	0.37103721
201	0x3f85180e	1.0397966
202	0x3ea983ab	0.33108267
203	0x3f47e414	0.78082395
204	0x3f356577	0.7085795
205	0x3e84cf8d	0.259396
206	0x3ecbf061	0.39831832
207	0x3ed3edb1	0.41392282
208	0x3e3809de	0.17972514
209	0x3e2a62a8	0.16639197
210	0x3f1dd272	0.6164924
211	0x3f2e53b5	0.68096477
212	0x3ea7b67a	0.32756406
213	0x3e0672dc	0.13129753
214	0x3ed94817	0.42437813
215	0x3e34d8cf	0.17660831
216	0x3e974330	0.29543447
217	0x3f37fce7	0.71870273
218	0x3e9df048	0.30847383
219	0x3f001ebd	0.500469
220	0x3ea007f6	0.31256074
221	0x3ea2cac3	0.3179532
222	0x3e88a50e	0.26688427
223	0x3f2925ee	0.660735
224	0x3e4ca2e8	0.19984019
225	0x3f0824dd	0.5318125
226	0x3f09faf9	0.5389858
227	0x3edea1d4	0.4348284
228	0x3e6054fe	0.21907422
229	0x3fac12df	1.3443259
230	0x3e2ba8d3	0.1676362
231	0x3e54dfa5	0.20788439
232	0x3e27731c	0.16352504
233	0x3df01a28	0.11723739
234	0x3e167af9	0.14695348
235	0x3e4b2cd9	0.19841327
236	0x3f039c79	0.51410633
237	0x3e7682b1	0.24073292
238	0x3e6a2e0f	0.22869132
239	0x3be5bd15	0.0070110657
240	0x3e8971ee	0.26844734
241	0x3e5bab79	0.2145213
242	0x3e606a02	0.21915439
243	0x3e595dba	0.2122716
244	0x3e6c48e4	0.2307468
245	0x3e0e4f52	0.13897446
246	0x3e7e33c7	0.24824439
247	0x3e84e31a	0.25954515
248	0x3e6d223c	0.2315759
249	0x3e571aab	0.21006267
250	0x3f9699aa	1.1765645
251	0x3f7d0c24	0.9884665
252	0x3e757579	0.23970594
253	0x3e25f34d	0.16206093
254	0x3e8315c5	0.25602546
255	0x3eb06ad9	0.34456518

bn1.bias f4 [256]
0	0x3e35910d	0.17731114
1	0x3d657e6c	0.05602877
2	0x3d2efb99	0.04272041
3	0x3d677509	0.056508098
4	0x3f2f31d9	0.68435436
5	0x3e296a1c	0.16544384
6	0x3cb3d19e	0.02195054
7	0x3e69bb14	0.22825271
8	0xbb4b0e4b	-0.003098386
9	0x3df893f3	0.12137594
10	0x3e2688cf	0.16263126
11	0x3d678ce4	0.05653085
12	0x3d1d4c65	0.038402934
13	0xbe2f618f	-0.1712706
14	0x3ea986af	0.33110568
15	0x3eb2ba60	0.34907818
16	0xbe3a5067	-0.18194734
17	0x3e1c0965	0.15237959
18	0x3e30c3b8	0.17262161
19	0x3e1ea9c3	0.15494446
20	0x3d574441	0.052555326
21	0x3f0d5314	0.5520489
22	0x3e80cb38	0.25155044
23	0x3dd9ceae	0.10635124
24	0x3e646997	0.22305904
25	0x3d5d34da	0.05400548
26	0x3e101574	0.14070684
27	0x3eec400c	0.46142614
28	0x3e6d140c	0.23152179
29	0x3dd7038f	0.104987256
30	0x3dbb06d9	0.091321655
31	0x3ade414c	0.0016956716
32	0x3dc83b6a	0.09776957
33	0x3ce0e536	0.027453046
34	0x3e03c9a2	0.12869886
35	0xbcb49995	-0.02204589
36	0x3d864733	0.06556549
37	0x3d84ff94	0.0649406
38	0xbd8f75df	-0.07004904
39	0x3c1aab5f	0.009440272
40	0x3de55e5e	0.1119964
41	0x3df09d4a	0.117487505
42	0x3e80fd6a	0.2519334
43	0xbb088235	-0.0020829563
44	0x3e6a143a	0.22859278
45	0x3d3097fd	0.043113697
46	0x3e63e3e5	0.22254904
47	0x3c5f02ff	0.013611554
48	0x3d80287b	0.06257721
49	0x3bd43f24	0.0064772535
50	0x3dba4615	0.09095398
51	0xbc144f31	-0.009052084
52	0x3c9abdae	0.018889274
53	0x3e26991a	0.16269341
54	0x3e9b9c8f	0.30392882
55	0x3d7bbd0f	0.061459597
56	0x3ecc2453	0.39871463
57	0x3d5af646	0.05345752
58	0x3e5815e7	0.21102105
59	0x3d14fbfe	0.03637313
60	0x3d4c4124	0.04986681
61	0x3c95c73e	0.018283483
62	0x3d2db399	0.042407606
63	0xbe218ea8	-0.15777075
64	0x3da17f65	0.07885627
65	0x3eb465ed	0.35234013
66	0x3d457f2e	0.04821699
67	0x3d51f62c	0.05126016
68	0x3e45956b	0.1929528
69	0x3ef25501	0.47330478
70	0x3dd1b5f6	0.102397844
71	0x3cededda	0.02904408
72	0x3db68e0f	0.08913814
73	0x3d7b0688	0.061285526
74	0x3e142530	0.14467311
75	0xbc56a3ae	-0.013100548
76	0x3deb2006	0.11480717
77	0xbd5bb0dc	-0.053635463
78	0x3e922473	0.28543434
79	0x3d83d0b6	0.06436293
80	0x3d34023d	0.043947447
81	0x3e3b16fc	0.18270487
82	0x3dfbfde4	0.12304285
83	0x3db415b1	0.087932
84	0x3e2e43dd	0.17018075
85	0x3e75ecc7	0.24016105
86	0x3ed51162	0.41614825
87	0x3e9e56df	0.30925652
88	0xbd1f82ba	-0.03894303
89	0x3db4bf78	0.08825582
90	0x3dbc364e	0.09190045
91	0x3cbf66fa	0.023364533
92	0xb9a8b11a	-0.00032175408
93	0x3de06f77	0.1095876
94	0x3f374118	0.715837
95	0x3dca9964	0.09892538
96	0x3b891215	0.0041830637
97	0x3edfbb8a	0.43697768
98	0x3e854304	0.2602769
99	0x3e1aa1a0	0.15100718
100	0x3d8cdb9a	0.06877823
101	0x3c644f0b	0.013934861
102	0x3e2a31c8	0.16620553
103	0xbe56aa27	-0.20963345
104	0x3d2d67dc	0.042335376
105	0xbbc13db3	-0.0058972477
106	0x3f17ac40	0.5924721
107	0x3dbe2d5b	0.092859946
108	0x3e0383dd	0.1284327
109	0x3eff4848	0.49859834
110	0x3e4cc8c2	0.19998458
111	0x3e4922ca	0.19642177
112	0x3df3bf4f	0.119017236
113	0xbd47bc8d	-0.0487638
114	0x3e1cebef	0.15324377
115	0x3d1b38e5	0.037896056
116	0x3d489c29	0.04897705
117	0x3e39139c	0.18073887
118	0xbd207652	-0.03917534
119	0x3dd47ae1	0.10375
120	0x3d491875	0.04909559
121	0x3ea9118b	0.33021197
122	0x3e1f0d4a	0.15532413
123	0x3dd0da1e	0.101978526
124	0x3e03aec3	0.12859635
125	0x3ec885a1	0.3916445
126	0x3e90af4d	0.28258744
127	0x3e5466f6	0.20742401
128	0x3dd5514c	0.10415897
129	0x3e4ab8db	0.1979708
130	0x3e2f9c9e	0.17149588
131	0x3d87722b	0.06613573
132	0x3ef4dfe3	0.47827062
133	0x3e3b37ad	0.18282957
134	0x3e18e750	0.14931989
135	0xbeb0e22b	-0.34547552
136	0x3ead3559	0.33829764
137	0x3e94b30b	0.2904285
138	0xbe272f81	-0.16326715
139	0x3e9f4ae5	0.31111827
140	0x3e6cf403	0.23139958
141	0x3d230707	0.039801624
142	0x3e404efa	0.18780127
143	0x3e495f2f	0.19665216
144	0xbcea9a3d	-0.028638
145	0xbd2a5047	-0.041580465
146	0x3e0e651e	0.1390576
147	0xbd2f26a0	-0.042761445
148	0x3c9d1629	0.019175606
149	0x3ee23ac1	0.4418545
150	0x3c10cddd	0.008838144
151	0x3e2e0bff	0.16996764
152	0x3dc00f56	0.09377925
153	0x3e162a6c	0.1466462
154	0x3d7fbd25	0.06243624
155	0x3e34f4c5	0.17671497
156	0x3d5ca491	0.05386788
157	0x3dfde661	0.12397457
158	0x3de9a504	0.11408427
159	0x3f077c16	0.52923715
160	0xbdc27733	-0.09495392
161	0x3ecef999	0.40424803
162	0x3c4ed777	0.012624613
163	0x3d2afb34	0.041743472
164	0xbd3a7e23	-0.04553045
165	0x3d8c616b	0.068545185
166	0x3ec1f88c	0.3788494
167	0xbca661fb	-0.020310393
168	0xbc228025	-0.009918247
169	0x3dcae4ae	0.099068984
170	0x3bd1734b	0.006391918
171	0x3c28adf0	0.010295376
172	0x3d9696f6	0.07353012
173	0x3c790573	0.015199053
174	0x3df7aecf	0.12093889
175	0x3d3289a0	0.04358828
176	0x3d9675ea	0.07346709
177	0x3cc65f3c	0.024215333
178	0xbc918d82	-0.017767671
179	0x3ea7a53a	0.32743245
180	0x3ed8e2d0	0.42360544
181	0x3e343beb	0.17600982
182	0x3e1209a5	0.14261492
183	0x3d4a3e3f	0.04937577
184	0x3e1209fe	0.14261624
185	0x3d9b42dd	0.075811125
186	0xbc2cfd03	-0.01055837
187	0x3d6a5136	0.057206355
188	0x3f07077d	0.527458
189	0xbef41a78	-0.47676444
190	0x3e39314f	0.18085216
191	0x3d8e18af	0.06938302
192	0x3d416bc4	0.047221914
193	0x3daf2d0c	0.08553514
194	0x3ef5ddf2	0.48020893
195	0x3daa1923	0.08305576
196	0x3e058a1d	0.13040967
197	0x3ed44e50	0.41465998
198	0x3da34f9a	0.07974167
199	0x3f1c90a4	0.61158204
200	0x3e205ec5	0.15661152
201	0x3e06c9a9	0.13162865
202	0xbe0b655b	-0.13612883
203	0x3e63b8c4	0.22238451
204	0x3ecacea5	0.39610782
205	0x3c75fb4d	0.015013528
206	0x3e8fa6cf	0.28056952
207	0x3e0a1ec0	0.13488293
208	0x3d3914ba	0.045185782
209	0x3d45f30c	0.04832749
210	0x3e0b4d94	0.13603812
211	0xbe6c821f	-0.23096512
212	0x3e2317a2	0.15926984
213	0xbc137fb6	-0.009002617
214	0x3eac9ac5	0.3371183
215	0x3ded3fb1	0.11584414
216	0x3e173395	0.1476577
217	0x3e1df22b	0.15424411
218	0x3dd35d4d	0.1032053
219	0x3e78b054	0.24286014
220	0x3d040f66	0.032241248
221	0x3db60ecb	0.0888954
222	0x3d6bf8f5	0.05761047
223	0x3e6789a5	0.22611101
224	0x3dc2edf0	0.09518039
225	0x3edacd96	0.42734975
226	0x3e9ba59f	0.30399796
227	0x3e0e8921	0.13919498
228	0xbe229630	-0.15877604
229	0x3e2e6620	0.17031145
230	0x3d95448d	0.07288466
231	0xbe03dd60	-0.12877417
232	0xbe2ffade	-0.17185542
233	0x3d0d6b61	0.034526233
234	0x3cf3528b	0.029702445
235	0x3d8eb0be	0.06967305
236	0x3e63581c	0.2220158
237	0x3d5cd095	0.053909857
238	0x3d966152	0.07342781
239	0x3a0042b7	0.0004892754
240	0x3d815cb1	0.063165076
241	0xbbd936f8	-0.0066288672
242	0xbd97f1d6	-0.074191734
243	0x3e08addd	0.13347574
244	0xbd58bc19	-0.05291376
245	0xbdeebcb1	-0.11657084
246	0xbdf670eb	-0.12033256
247	0x3e15c6bd	0.14626594
248	0x3d99a796	0.075026676
249	0x3ddb0282	0.10693838
250	0x3eadf5cb	0.33976588
251	0x3df9c4a3	0.121957086
252	0x3de43574	0.11143008
253	0x3d45e3e2	0.04831303
254	0x3db94732	0.090467826
255	0x3e18a7a9	0.14907707

bn1.running_mean f4 [256]
0	0x408181f7	4.047115
1	0x400c7bb9	2.1950514
2	0x3fc74a6f	1.556959
3	0x4009ba37	2.1519907
4	0x4116db4b	9.428538
5	0x406e0a64	3.7193842
6	0x3eba9be1	0.3644705
7	0x3ed9db98	0.4255035
8	0x4070669c	3.7562628
9	0x4046c948	3.1060352
10	0x40769802	3.8530278
11	0x413b8de6	11.722143
12	0x3f7b8d74	0.98262715
13	0x41d56228	26.672928
14	0x40f7b2cd	7.7405763
15	0x40d24802	6.57129
16	0x41baaf15	23.33549
17	0x4102f827	8.185584
18	0x3fe320c7	1.7744378
19	0x400fe5b0	2.248394
20	0x403f81a1	2.992287
21	0x4059dbf9	3.404051
22	0x40b096a5	5.518389
23	0x40eeed9c	7.466505
24	0x4028fb64	2.6403437
25	0x3fa60cc9	1.2972652
26	0x40b9e52c	5.809225
27	0x3fb05c1d	1.3778111
28	0x3fa63d22	1.2987406
29	0x4121aef6	10.105215
30	0x3fe41dcc	1.7821593
31	0x418d81ac	17.688316
32	0x41ad1930	21.637299
33	0x3f8a60d6	1.0810802
34	0x4039d1f8	2.9034405
35	0x3ffc6829	1.9719287
36	0x40616121	3.5215533
37	0x3f865792	1.0495474
38	0x3fbc882c	1.4729056
39	0x3ef692cc	0.48158872
40	0x3f303c2a	0.68841803
41	0x3eb4c1ca	0.353041
42	0x403d2905	2.9556286
43	0x3d93b154	0.07211557
44	0x3ffda6ac	1.9816489
45	0x3ea6295f	0.3245344
46	0x4052548c	3.2864103
47	0x3fda5411	1.7056905
48	0x408f21db	4.4728827
49	0x4153e979	13.2445
50	0x3ed11ed1	0.40843824
51	0x40868b21	4.2044835
52	0x3f222488	0.6333699
53	0x3f70ba81	0.9403458
54	0x3f9a887e	1.2072904
55	0x3ffcc637	1.974799
56	0x3fc822d0	1.5635624
57	0x400f9913	2.243718
58	0x404a99a2	3.165627
59	0x408600b0	4.187584
60	0x40558427	3.336191
61	0x3ff0f462	1.882458
62	0x3f112060	0.56690025
63	0x4106a7b2	8.415941
64	0x40c85ce5	6.2613397
65	0x3f9ed09c	1.2407413
66	0x40318d41	2.7742465
67	0x3f98d746	1.1940696
68	0x40a669c8	5.2004128
69	0x40121cce	2.283008
70	0x3fcfa0c9	1.6220943
71	0x406e0bfc	3.7194815
72	0x3ebbe76a	0.36699992
73	0x3f11d7dc	0.5697
74	0x4047b71a	3.1205506
75	0x4093066b	4.5945334
76	0x4015b514	2.3391771
77	0x407cce76	3.9501014
78	0x3f5b0fea	0.8557116
79	0x3fa41644	1.2819295
80	0x3fd28889	1.6447917
81	0x402932a4	2.6437159
82	0x40913fd3	4.539041
83	0x3fb6a251	1.4268285
84	0x3f7deb21	0.99186903
85	0x40166572	2.3499417
86	0x411cc1aa	9.797281
87	0x4083a13a	4.113431
88	0x3fb7c7fa	1.4357903
89	0x3fa2fd39	1.2733527
90	0x40060fd5	2.0947163
91	0x4011a70d	2.275821
92	0x3fe8cff2	1.818846
93	0x3e8b7d7b	0.27244172
94	0x40cbac29	6.3647656
95	0x40009f2c	2.009715
96	0x4127fd27	10.499305
97	0x3e33c41b	0.17555277
98	0x3f7746a4	0.96592164
99	0x40a523d3	5.160623
100	0x3f81d70a	1.014375
101	0x3ed91593	0.42399272
102	0x40352ccb	2.830859
103	0x41aa4f01	21.288576
104	0x4021a4d8	2.5256863
105	0x409dc953	4.9308257
106	0x3f0f8257	0.5605826
107	0x40a1bfda	5.0546694
108	0x3f8eae70	1.1146984
109	0x417f73bf	15.965758
110	0x3fff3491	1.9937917
111	0x3f621389	0.8831106
112	0x3f82f321	1.0230447
113	0x404d7b13	3.2106369
114	0x3f6f0526	0.9336723
115	0x4086e241	4.215119
116	0x404b6ec6	3.178636
117	0x403d1484	2.9543772
118	0x408e2a36	4.4426527
119	0x3ff5de90	1.9208546
120	0x3f48f191	0.784936
121	0x40aa3af8	5.3196983
122	0x402d048a	2.703402
123	0x3eac0b29	0.33602265
124	0x3f710050	0.941411
125	0x40dded5e	6.9352255
126	0x400481f6	2.0704322
127	0x3f19b72d	0.6004513
128	0x3ecb7ed4	0.397452
129	0x4085a951	4.1769185
130	0x406c3624	3.6908045
131	0x3fec5cb2	1.8465788
132	0x408bba7a	4.3665133
133	0x400b3512	2.1751142
134	0x3eae31a4	0.34022248
135	0x40e98b1e	7.298232
136	0x405bcb7c	3.4342947
137	0x4014b823	2.3237388
138	0x409f2605	4.973391
139	0x40ec9272	7.3928766
140	0x3f559c71	0.83441836
141	0x3f84c07a	1.0371239
142	0x3fb87ab3	1.4412445
143	0x3e2d3d7c	0.16917986
144	0x40cf88f1	6.4854665
145	0x3f84e370	1.0381908
146	0x40a5eb20	5.184952
147	0x3fb415e8	1.4069185
148	0x404490e5	3.0713437
149	0x3f88cc45	1.0687338
150	0x4076db77	3.857145
151	0x402c1bd1	2.6891978
152	0x400e5a38	2.2242565
153	0x3f5c9edb	0.86179894
154	0x3fc76f78	1.5580893
155	0x3f92b133	1.1460327
156	0x3f1ca71e	0.611925
157	0x3fd389d6	1.6526439
158	0x40033075	2.0498326
159	0x3ffa8404	1.9571538
160	0x4149931c	12.598415
161	0x411bc3e3	9.735324
162	0x408e0917	4.4386096
163	0x400c3c66	2.1911864
164	0x3fe26e90	1.7689991
165	0x40ca7038	6.3261986
166	0x40f53845	7.663119
167	0x4068fcc1	3.6404269
168	0x408c91e3	4.3928084
169	0x3f08a1ea	0.5337206
170	0x4082826f	4.078422
171	0x3f532cae	0.8249005
172	0x3f648d95	0.8927854
173	0x40bad656	5.838664
174	0x3f7504e8	0.9571061
175	0x3f028554	0.5098469
176	0x3f362339	0.71147496
177	0x3f89287a	1.0715477
178	0x3fa1062d	1.258001
179	0x3e8d6be4	0.27621377
180	0x410bc68d	8.735974
181	0x40b6a011	5.7070394
182	0x3f764a04	0.9620669
183	0x3fb40206	1.4063118
184	0x3bd9ac2c	0.006642839
185	0x408b9ce5	4.362902
186	0x41044cf2	8.268785
187	0x3fdcd2d7	1.7251843
188	0x40cc2c95	6.380442
189	0x409086d9	4.516461
190	0x3fee14db	1.8600115
191	0x3fe4bb45	1.786965
192	0x401b1396	2.4230704
193	0x40460d46	3.0945601
194	0x4153c659	13.235925
195	0x3fcce35b	1.6006883
196	0x3fed2c69	1.8529178
197	0x40fd87ca	7.922826
198	0x3e0e9822	0.13925222
199	0x41148bc1	9.28412
200	0x400bf881	2.1870425
201	0x416e6ce9	14.901589
202	0x41ee8f8c	29.820091
203	0x3f783bc7	0.96966213
204	0x4111168a	9.068003
205	0x40982479	4.754452
206	0x4008978b	2.1342494
207	0x3f5ff11f	0.87477297
208	0x3fbbdc9d	1.4676701
209	0x4089c01f	4.3047023
210	0x3f5d7893	0.86512107
211	0x418dbe8a	17.718037
212	0x401d655d	2.4593117
213	0x405464a4	3.3186426
214	0x40228ff9	2.5400374
215	0x413aa8e5	11.666234
216	0x3fffd7ea	1.9987767
217	0x3e67fccd	0.2265503
218	0x3fd71880	1.6804352
219	0x3f9d1c31	1.2274228
220	0x3ebf2561	0.37333205
221	0x3ec1b49d	0.3783311
222	0x402d251b	2.7053897
223	0x4064d16e	3.5752826
224	0x3f03b7f9	0.51452595
225	0x40e6f0e7	7.216907
226	0x400e45e5	2.223016
227	0x3fec1c48	1.8446131
228	0x40de3c3a	6.944852
229	0x41ca437f	25.282957
230	0x3f359d62	0.7094327
231	0x40875aab	4.229818
232	0x41aad81b	21.35552
233	0x40b9d25c	5.8069286
234	0x4086897a	4.204282
235	0x3f5a1183	0.8518297
236	0x407c4b3f	3.9420927
237	0x3f174932	0.5909606
238	0x402d775d	2.7104104
239	0x4116c7e8	9.423805
240	0x3fb7548e	1.4322679
241	0x400de5df	2.2171552
242	0x4089a243	4.3010573
243	0x414c20af	12.757979
244	0x40bb2bb1	5.8490834
245	0x403ab6ec	2.9174147
246	0x4005fe7f	2.0936582
247	0x3f94f41a	1.1636994
248	0x3f89cd4d	1.0765778
249	0x3f1b57d1	0.6068087
250	0x41c16a39	24.176867
251	0x40c1aa2b	6.0520225
252	0x4085fb52	4.1869287
253	0x3f66022a	0.8984705
254	0x3fe9b72f	1.8259028
255	0x3f60d3de	0.87823284

bn1.running_var f4 [256]
0	0x41935049	18.414202
1	0x41be6c71	23.80295
2	0x4187f6fc	16.995598
3	0x41b1b3a5	22.212717
4	0x431501ab	149.00652
5	0x41dd283e	27.64465
6	0x40418a82	3.0240788
7	0x40615e72	3.5213895
8	0x424ecb3c	51.69847
9	0x422580b7	41.375698
10	0x4236cbe4	45.699112
11	0x43236a2e	163.41476
12	0x41366781	11.4002695
13	0x436a570e	234.34006
14	0x42e31284	113.53616
15	0x42d8155f	108.04174
16	0x445637d0	856.8721
17	0x42ba24bc	93.07175
18	0x41691e9e	14.569975
19	0x41baf149	23.367815
20	0x4223efb0	40.98407
21	0x41e2e56c	28.362022
22	0x42554b1e	53.323357
23	0x42500768	52.007233
24	0x4206848e	33.629448
25	0x417f05e5	15.938939
26	0x42649775	57.147907
27	0x404aee73	3.1708038
28	0x418553e6	16.665966
29	0x42ef8ccf	119.77502
30	0x4148358a	12.513071
31	0x429e434b	79.13143
32	0x443772c5	733.7933
33	0x413bf0bd	11.746274
34	0x41d3f6c0	26.495483
35	0x41173f4a	9.452951
36	0x424b4652	50.818672
37	0x41022be5	8.135716
38	0x413842a6	11.516272
39	0x4093ec1e	4.622573
40	0x40d046a5	6.5086236
41	0x403ae461	2.9201891
42	0x413dd69e	11.864897
43	0x3ef6053e	0.48050874
44	0x411e93be	9.91107
45	0x4041c54a	3.0276666
46	0x423c5892	47.086494
47	0x41b34cc7	22.412489
48	0x4221b093	40.422436
49	0x42c61404	99.03909
50	0x403a1868	2.9077396
51	0x42a3677d	81.702126
52	0x409dcab0	4.930992
53	0x41089784	8.536991
54	0x41a194cd	20.197657
55	0x4162bce5	14.171117
56	0x415cbb3a	13.79571
57	0x41b9d2f8	23.228012
58	0x420d29de	35.290886
59	0x427c8a28	63.13492
60	0x41dd4dc0	27.662964
61	0x41aec374	21.845436
62	0x40f55442	7.6665354
63	0x42109698	36.147064
64	0x42d46e0b	106.21493
65	0x4131c4b1	11.11052
66	0x421dc559	39.442722
67	0x414666b2	12.400072
68	0x42ac50f3	86.158104
69	0x41a7feed	20.999475
70	0x41bf7ce9	23.935991
71	0x427e9a82	63.650887
72	0x405df42f	3.4680288
73	0x40af696a	5.481618
74	0x42053bec	33.308517
75	0x42415bcf	48.339657
76	0x42132ac5	36.791767
77	0x42112657	36.28744
78	0x4103f3a8	8.246986
79	0x4174db7d	15.303586
80	0x41904c11	18.037142
81	0x41e1f5a5	28.244944
82	0x42804013	64.125145
83	0x409162dd	4.5433183
84	0x4130467c	11.017208
85	0x41f8065f	31.00311
86	0x432d157f	173.08397
87	0x42314f3c	44.327377
88	0x41831d54	16.38932
89	0x4125ea70	10.369736
90	0x4212673e	36.600822
91	0x41a0cfb9	20.101427
92	0x41a25d83	20.29566
93	0x40029dcb	2.040881
94	0x429a509d	77.15745
95	0x41bb9148	23.445938
96	0x42d2b6bc	105.3569
97	0x3fe1edda	1.7650712
98	0x40c13c8f	6.0386424
99	0x42657ba3	57.37074
100	0x40ebfa11	7.3742757
101	0x4081f32f	4.0609355
102	0x420563fb	33.347637
103	0x435c6af7	220.41783
104	0x4213b98b	36.931194
105	0x422625ba	41.536842
106	0x407dddf3	3.9666717
107	0x422d14be	43.270256
108	0x40f1599a	7.5421877
109	0x43e7c26e	463.51898
110	0x41ad89af	21.692228
111	0x40fd7592	7.920602
112	0x413db724	11.857212
113	0x42476441	49.847904
114	0x4092dde8	4.589588
115	0x422245e2	40.568245
116	0x4226fc00	41.746094
117	0x41f474f9	30.557116
118	0x4255c54b	53.44267
119	0x4190fa75	18.122293
120	0x40ecd363	7.400804
121	0x42a256e1	81.169685
122	0x41e4c785	28.597422
123	0x404491b8	3.071394
124	0x40e8d249	7.2756696
125	0x42b49440	90.28955
126	0x418eb654	17.839027
127	0x40a4ffbf	5.156219
128	0x40543576	3.315763
129	0x424b59ee	50.837822
130	0x422b8230	42.877136
131	0x4196674a	18.800434
132	0x42040045	33.000263
133	0x41e87c77	29.060774
134	0x3ff36443	1.9014972
135	0x42c3a75f	97.8269
136	0x421174e8	36.364166
137	0x413395ab	11.22404
138	0x428dd81a	70.92207
139	0x4245d23b	49.455303
140	0x40eab191	7.3341756
141	0x413d6c6f	11.838973
142	0x410a1efd	8.6325655
143	0x3fdf61fc	1.7451777
144	0x4299d4e3	76.915794
145	0x413b9ebe	11.726255
146	0x420b4093	34.81306
147	0x412a6bfc	10.651363
148	0x421194dd	36.395374
149	0x40adea31	5.434838
150	0x4202f5a7	32.739895
151	0x41c882d5	25.063883
152	0x41d4c5f1	26.596651
153	0x40e40298	7.1253166
154	0x41a79101	20.945803
155	0x41207793	10.029193
156	0x40b4ad66	5.646167
157	0x41b282f0	22.313934
158	0x41b45b2b	22.544516
159	0x41a744da	20.908619
160	0x43423e5f	194.24364
161	0x4338a613	184.64873
162	0x4263cd08	56.950226
163	0x41bf7c25	23.935617
164	0x417aff59	15.687341
165	0x42a4d01a	82.40645
166	0x42d3b05d	105.84446
167	0x425e0fd7	55.51547
168	0x4239d2eb	46.455975
169	0x4082125b	4.0647407
170	0x42020ab4	32.510452
171	0x411f7f62	9.968599
172	0x41060e29	8.378457
173	0x428c13b2	70.03847
174	0x41106202	9.023928
175	0x4088f98d	4.2804627
176	0x40ead36b	7.338308
177	0x413a1ac1	11.631532
178	0x416531a3	14.324618
179	0x40123100	2.2842407
180	0x431de8c3	157.90923
181	0x4292f5a9	73.479805
182	0x412832b1	10.512376
183	0x41815335	16.165628
184	0x3cfca0b8	0.030838355
185	0x423579cd	45.368946
186	0x429dc793	78.88979
187	0x41dd4fdb	27.663992
188	0x42ad0e84	86.52835
189	0x4298d6de	76.41966
190	0x41bd73a1	23.68146
191	0x41a840af	21.031584
192	0x4206f7bc	33.74193
193	0x4221d43b	40.457256
194	0x43a19493	323.16074
195	0x4190b8f4	18.09031
196	0x41b49fd0	22.578033
197	0x42a4ff34	82.49844
198	0x3f3a39a8	0.72744226
199	0x42fee255	127.442055
200	0x420978f7	34.36813
201	0x43b8a401	369.28128
202	0x42a61d33	83.05703
203	0x4166ee7d	14.433225
204	0x42d94133	108.62734
205	0x4246a734	49.663284
206	0x41b2639e	22.298641
207	0x40d1f2f0	6.5609055
208	0x4174d77f	15.302611
209	0x4219c9ce	38.447075
210	0x4084a08e	4.144599
211	0x43f709b8	494.07593
212	0x4192f860	18.371277
213	0x4272fca5	60.746723
214	0x4218e2c7	38.221462
215	0x42bb1153	93.53384
216	0x420839ac	34.05632
217	0x3ff58772	1.918196
218	0x418af440	17.369263
219	0x413679de	11.404753
220	0x40309ace	2.7594485
221	0x40197752	2.3979077
222	0x4205b41f	33.4259
223	0x4150ebbd	13.057553
224	0x40e05810	7.01075
225	0x42995ae8	76.67755
226	0x41a6897e	20.817135
227	0x415af6dd	13.685269
228	0x429786a5	75.76298
229	0x4474ac3e	978.6913
230	0x40a9ae07	5.3024936
231	0x423e315e	47.54821
232	0x43b698a8	365.19263
233	0x42afbfb5	87.87443
234	0x42302a46	44.041283
235	0x40e57e2b	7.1716514
236	0x423bf3c8	46.988068
237	0x40b1e39a	5.5590334
238	0x41c2e1d5	24.36027
239	0x42d6a2df	107.31811
240	0x4192ab95	18.33378
241	0x420de2f1	35.471622
242	0x428ad19d	69.4094
243	0x4341d7f8	193.84363
244	0x425d2e33	55.295116
245	0x42577236	53.861534
246	0x41b14082	22.156498
247	0x411a9ab0	9.6627655
248	0x414b565e	12.708586
249	0x40b5b933	5.6788573
250	0x447c132f	1008.29974
251	0x41219e0f	10.101089
252	0x4275cbcd	61.449024
253	0x41099961	8.599946
254	0x41a08d5c	20.069023
255	0x411839f4	9.514149

fc2.weight f4 [128, 260]
0	0x3c93ad6c	0.01802703
1	0xbe8ab30b	-0.27089724
2	0xbd3dde00	-0.046354294
3	0xbb5eb560	-0.003398262
4	0xbbf4c5f6	-0.007469888
5	0x3d2cea86	0.042215846
6	0xbdd2f649	-0.103008814
7	0xbe2c5eda	-0.16833058
8	0xbe0b3498	-0.13594282
9	0xbeb35be8	-0.35031056
10	0xbd9f962d	-0.07792316
11	0x3e701d15	0.23448594
12	0xbd8695f9	-0.06571574
13	0x3db4eda2	0.08834387
14	0x3ec60f83	0.3868371
15	0x3d1e2f00	0.03861904
16	0x3e24c815	0.1609195
17	0x3df998c6	0.12187342
18	0xbe5d5c3a	-0.21617213
19	0x3d954b75	0.07289783
20	0x3ce14c62	0.027502242
21	0xbe4abedb	-0.19799368
22	0x3e38b22b	0.18036716
23	0x3daf97ab	0.0857385
24	0x3e62461d	0.22097059
25	0xbe44bb5d	-0.19212098
26	0xbe553805	-0.20822151
27	0xbd21f7e2	-0.03954304
28	0xbebb8006	-0.36621112
29	0xbe5b0840	-0.21389866
30	0x3dbd6974	0.09248629
31	0xbd6caa1c	-0.057779416
32	0x3dc79402	0.09745027
33	0xbe4b1bed	-0.19834872
34	0xbec9d873	-0.3942295
35	0xbe03426f	-0.12818311
36	0x3e1a33a0	0.15058756
37	0xbebd0cdb	-0.3692387
38	0x3e4915a4	0.19637161
39	0x3d9fa292	0.0779468
40	0x3d89ecc1	0.0673461
41	0x3e271928	0.1631819
42	0xbe4a74c3	-0.19771104
43	0xbdc23f5e	-0.094847426
44	0x3bcf36eb	0.0063236854
45	0xbde693ae	-0.112586364
46	0x3d3fd9f5	0.04683872
47	0x3dc37024	0.095428735
48	0xbd1650dc	-0.036698207
49	0xbd74f93d	-0.059808005
50	0x3d4b5ace	0.049647145
51	0x3e1c9f0d	0.15295048
52	0xbe374f56	-0.17901358
53	0xbda7fdf6	-0.08202736
54	0xbbd24682	-0.0064170966
55	0x3dd3ccfa	0.103418306
56	0xbec2fc25	-0.38082996
57	0xbd05d9b1	-0.03267831
58	0x3dc56ee8	0.09640294
59	0x3df11d0b	0.11773118
60	0xbcb234dc	-0.021753721
61	0xbc95ba09	-0.018277185
62	0xbe1922c2	-0.14954665
63	0x3cdaf3e8	0.026727632
64	0x3d46bd80	0.048520565
65	0xbe16d97e	-0.14731404
66	0x3e718ed5	0.23589642
67	0x3d282f51	0.04106075
68	0x3e0c7bbb	0.13719074
69	0x3d8cda06	0.06877522
70	0x3e74b7b3	0.238982
71	0x3dec9de1	0.115535505
72	0x3e4d6d25	0.20061167
73	0x3db2c13a	0.08728261
74	0x3b58429d	0.003299869
75	0xbdaafedd	-0.083493926
76	0x3e6cec23	0.23136954
77	0x3e567bc4	0.2094565
78	0xbdb4105e	-0.08792184
79	0x3e404cb2	0.18779257
80	0x3e0548cf	0.13016056
81	0x3e61db1b	0.22056238
82	0x3db1f5f0	0.08689487
83	0x3dde7095	0.10861317
84	0x3cb89463	0.022531694
85	0x3b0ac849	0.0021176508
86	0xbe51d4a5	-0.20491274
87	0xbed22962	-0.41047198
88	0xbd177d41	-0.036984686
89	0x3d8e275f	0.06941103
90	0xbd5e2b4c	-0.05424051
91	0x3d51f4c8	0.051258832
92	0xbe8adca4	-0.2712146
93	0xbe44be52	-0.19213226
94	0xbe7ac69a	-0.24489823
95	0xbd856c02	-0.065147415
96	0x3d9d7b2b	0.07689508
97	0xbe563964	-0.2092033
98	0x3d9657a6	0.07340936
99	0x3db23093	0.08700671
100	0x3d597ea3	0.053099286
101	0xbe6fcf9f	-0.23419045
102	0xbe858d80	-0.26084518
103	0x3e06b33d	0.13154311
104	0x3e01fa1a	0.12693062
105	0xbe2b91bb	-0.1675481
106	0xbeaeeb89	-0.34164074
107	0x3e37fc96	0.17967448
108	0xbd785106	-0.060624145
109	0xbf2196ea	-0.631209
110	0xbcd3a8fa	-0.02583741
111	0x3d442253	0.047884297
112	0xbeba9b38	-0.36446548
113	0x3c29f370	0.010372981
114	0x3d7375db	0.059438568
115	0xbda9d795	-0.08293072
116	0x3e88a9b9	0.26691988
117	0xbbd287da	-0.006424886
118	0x3de364f1	0.111032374
119	0xbe30d82f	-0.17269967
120	0x3e255048	0.16143906
121	0xbe336cb5	-0.17521937
122	0xbe66def3	-0.22545986
123	0xbcdca5dc	-0.026934557
124	0xbe49ceb1	-0.19707753
125	0x3dc3c566	0.09559135
126	0x3ea940db	0.33057293
127	0xbcdf6c43	-0.027273303
128	0x3d42afe8	0.04753104
129	0x3d1bcf1f	0.038039323
130	0xbe31ef5f	-0.17376469
131	0xbe01418b	-0.12622659
132	0xbc03d6c9	-0.008046814
133	0x3df0813a	0.11743398
134	0xbca09b29	-0.019605236
135	0x3d44f513	0.048085283
136	0xbea41246	-0.32045192
137	0xbed53366	-0.41640776
138	0x3be56021	0.006999985
139	0xbd1bbe02	-0.038023002
140	0x3cae8e40	0.021308064
141	0xbd2223c7	-0.0395849
142	0xbe9cffe4	-0.3066398
143	0xbeac83c5	-0.33694282
144	0x3d66f88f	0.056389388
145	0x3da5f6a3	0.08103683
146	0xbd4ada0b	-0.04952435
147	0x3e206c72	0.15666369
148	0x3d23741d	0.039905656
149	0xbe61f3a5	-0.220656
150	0x3de67275	0.112523
151	0xbd8b4374	-0.06799975
152	0xbd67888e	-0.056526713
153	0x3e89b79d	0.26897898
154	0xbbeba706	-0.0071915416
155	0xbdc8ac98	-0.09798545
156	0x3e33cdad	0.17558928
157	0xbe4b0fee	-0.19830295
158	0x3d901529	0.07035286
159	0xbe0c6bd4	-0.13713008
160	0xbd2ea64d	-0.042639066
161	0xbe01bf53	-0.1267064
162	0xbcf3b4f6	-0.029749375
163	0xbd19a055	-0.03750642
164	0xbdb91180	-0.09036541
165	0x3e9138bd	0.283636
166	0xbe5ae726	-0.21377239
167	0xbc6ebde7	-0.014571643
168	0x3e25af91	0.16180255
169	0x3e11f8ec	0.14255112
170	0xbc486643	-0.012231412
171	0x3cb9c874	0.022678591
172	0xbe251444	-0.16121012
173	0xbc20fb10	-0.009825483
174	0xbbe9e3c2	-0.0071377466
175	0x3e670a80	0.22562599
176	0xbe73c6bb	-0.23806278
177	0x3be782c4	0.007065149
178	0xbcddff07	-0.027099146
179	0x3e3abd82	0.18236354
180	0x3d5e4200	0.05426216
181	0x3d0151cd	0.031572152
182	0xbdf5e7ed	-0.12007127
183	0x3e0984dd	0.1342959
184	0xbe3c05be	-0.18361565
185	0xbd55946e	-0.052143507
186	0xbe29936c	-0.16560143
187	0x3e5428a9	0.20718636
188	0xbe86c400	-0.2632141
189	0x3d960c46	0.0732656
190	0xbe5e743c	-0.21724027
191	0xbdf4d0bb	-0.11953875
192	0xbd1bcac6	-0.038035177
193	0x3d487a4d	0.04894476
194	0xbe940146	-0.28907222
195	0x3e5d270f	0.21596931
196	0xbc9c0734	-0.019046403
197	0x3e2d014f	0.1689503
198	0xbc82edde	-0.015982565
199	0xbce2d390	-0.027688771
200	0xbe96505c	-0.29358184
201	0xbe5c3d7a	-0.21507826
202	0xbdb72c89	-0.08944041
203	0xbea34ba9	-0.31893662
204	0x3e6b7a92	0.22995976
205	0x3d2cef6c	0.042220518
206	0x3dc5fb05	0.09667019
207	0x3db99d4a	0.09063204
208	0xbe90923a	-0.28236562
209	0x3deb7364	0.114966184
210	0xbceef2a2	-0.02916843
211	0x3c8f7853	0.01751343
212	0x3e0b8b70	0.1362741
213	0xbe24a4a2	-0.16078427
214	0x3dc4067f	0.095715515
215	0xbde734fc	-0.11289403
216	0xbd43afda	-0.047775127
217	0x3cc152be	0.023599025
218	0xbe53aa38	-0.20670402
219	0x3dacf370	0.084448695
220	0x3d9d5942	0.0768304
221	0x3e6a1009	0.2285768
222	0xbd571d24	-0.052518025
223	0xbda09a6d	-0.078419544
224	0xbe849d68	-0.2590134
225	0xbbd8ede6	-0.0066201566
226	0xbe279e60	-0.16369009
227	0xbe11807e	-0.14209172
228	0xbe233dfe	-0.15941617
229	0xbef31e4d	-0.47484055
230	0xbe655e18	-0.22399175
231	0x3da80481	0.08203984
232	0x3e64e436	0.2235268
233	0x3dd40374	0.10352221
234	0xbddc0d6a	-0.10744746
235	0xbe305d09	-0.1722299
236	0x3d5da8ad	0.05411594
237	0x3b64f7f3	0.0034937828
238	0xbcd76229	-0.026291924
239	0xbd7b1b35	-0.061305244
240	0x3d3751f1	0.04475588
241	0xbe51c6f7	-0.20486055
242	0xbda1473c	-0.07874915
243	0xbe64eeb2	-0.2235668
244	0x3ea25ae7	0.31709978
245	0x3dbc5d70	0.09197509
246	0xbcd8b649	-0.026454108
247	0xbe191dc0	-0.14952755
248	0xbe0ddbd2	-0.13853386
249	0x3e4a9bc6	0.19785985
250	0xbe928259	-0.28615072
251	0xbde936ab	-0.1138738
252	0x3e186000	0.14880371
253	0xbdb13d86	-0.08654313
254	0xbddfbe76	-0.109249994
255	0xbdd80a2a	-0.10548814

fc2.bias f4 [128]
0	0xbe65a55b	-0.2242636
1	0xbe464bc9	-0.19364847
2	0xbe6fd100	-0.23419571
3	0xbde44ef8	-0.111478746
4	0xbe2999fa	-0.16562644
5	0xbe600161	-0.21875526
6	0xbeba0c6e	-0.36337608
7	0xbe18e60d	-0.14931507
8	0xbda3f990	-0.08006585
9	0xbe7091a1	-0.23493053
10	0xbe3bff12	-0.1835902
11	0xbe1b03db	-0.1513819
12	0xbe509329	-0.20368637
13	0xbe42e69d	-0.19033284
14	0xbdb8ba7a	-0.090199426
15	0xbeb67717	-0.35637733
16	0xbdd8fbfa	-0.10594936
17	0xbea59a5b	-0.32344326
18	0xbe8a8f6f	-0.27062556
19	0xbe8f734f	-0.2801766
20	0xbe604342	-0.21900657
21	0xbeae0f17	-0.33995888
22	0xbe8e3f42	-0.27782637
23	0xbe89cee1	-0.2691565
24	0xbe260253	-0.16211824
25	0xbe69744a	-0.22798267
26	0xbe6a3676	-0.22872338
27	0xbeb83c66	-0.3598358
28	0xbe9499aa	-0.29023486
29	0xbe64ebde	-0.22355601
30	0xbe7150ed	-0.23566027
31	0xbe344037	-0.17602621
32	0xbdba1165	-0.09085349
33	0xbde0e73b	-0.10981604
34	0xbdf51883	-0.11967566
35	0xbe7a2fd2	-0.24432305
36	0xbdfe2769	-0.12409861
37	0xbe012da0	-0.12615061
38	0xbdf7d009	-0.121002264
39	0xbd8aabef	-0.06771075
40	0xbe4ae046	-0.19812116
41	0xbe371032	-0.17877272
42	0xbdcffc3c	-0.10155532
43	0xbe4880cf	-0.19580387
44	0xbe9a957d	-0.30192176
45	0xbe2acc1a	-0.16679421
46	0xbebf14c8	-0.37320542
47	0xbe74adc8	-0.23894417
48	0xbe4c1243	-0.19928841
49	0xbe15febd	-0.14647956
50	0xbe60b2b8	-0.21943176
51	0xbe5d1dff	-0.21593474
52	0xbe12ce96	-0.14336619
53	0xbde9c6f6	-0.11414902
54	0xbe2a2815	-0.16616853
55	0xbe634e56	-0.22197852
56	0xbe666197	-0.22498165
57	0xbe69f0a9	-0.22845711
58	0xbe24fe7e	-0.16112706
59	0xbe546c00	-0.20744324
60	0xbe456fed	-0.19280978
61	0xbe7b1ce8	-0.24522746
62	0xbe804f01	-0.25060275
63	0xbea406b0	-0.32036352
64	0xbebbc7bc	-0.36675823
65	0xbe4dfb3d	-0.20115371
66	0xbeab6534	-0.3347565
67	0xbe44dbed	-0.1922452
68	0xbe4a3547	-0.19746886
69	0xbe2d24af	-0.16908525
70	0xbe25cfc1	-0.16192533
71	0xbe197524	-0.14986092
72	0xbe0bedeb	-0.13664977
73	0xbe567341	-0.20942403
74	0xbe408869	-0.18802036
75	0xbeb27323	-0.34853467
76	0xbe1000b1	-0.14062764
77	0xbe43a1d9	-0.19104709
78	0x3d91a3b5	0.07111303
79	0xbe181535	-0.1485184
80	0xbe83ee2f	-0.25767657
81	0xbe330fe7	-0.17486535
82	0xbe8ded97	-0.2772033
83	0xbe060064	-0.13086087
84	0xbdc0c2c8	-0.094121516
85	0xbe89b424	-0.2689525
86	0xbdcad87c	-0.09904572
87	0xbe52f9a3	-0.20603041
88	0xbe04cf4b	-0.12969701
89	0xbe959a79	-0.29219416
90	0xbe217119	-0.157658
91	0xbe387b0f	-0.18015693
92	0xbe77de5e	-0.2420592
93	0xbeadf3d8	-0.339751
94	0xbe85e70c	-0.26152837
95	0xbe20d293	-0.15705328
96	0xbe38b42c	-0.1803748
97	0xbe54458c	-0.20729655
98	0xbe52aadd	-0.20572992
99	0xbe47e8d7	-0.19522415
100	0xbe87e03f	-0.26538274
101	0xbe5dbe8f	-0.21654724
102	0xbeda06ea	-0.425834
103	0xbe6e50dd	-0.23273034
104	0xbe451880	-0.19247627
105	0xbe38efbb	-0.180602
106	0xbe525788	-0.20541203
107	0xbe88f82c	-0.2675184
108	0xbe8545a0	-0.26029682
109	0xbe8d2347	-0.27565977
110	0xbe4c3ef1	-0.19945885
111	0xbe6da6b5	-0.23208125
112	0xbe19298a	-0.14957252
113	0xbe49dc74	-0.19713002
114	0xbe833b21	-0.2563105
115	0xbe69738f	-0.22797988
116	0xbe5d2518	-0.21596181
117	0xbea63fdc	-0.32470596
118	0xbe103b5d	-0.14085145
119	0xbe323509	-0.17403044
120	0xbe71fe6c	-0.2363221
121	0xbe9037ef	-0.28167674
122	0xbe74e89e	-0.23916861
123	0xbe80beff	-0.25145718
124	0xbe7e29e4	-0.24820668
125	0xbe847b7e	-0.25875467
126	0xbe4eea77	-0.20206629
127	0xbe6de886	-0.23233232
